#[version = "0.0.5"]
def @main(%input0: Tensor[(16, 128), int32], %input1: Tensor[(16, 128), int32], %input2: Tensor[(16, 128), int32], %target0: Tensor[(16, 128), int32], %BertForMaskedLM_bert_embeddings_word_emb_weight: Tensor[(30528, 1024), float32], %BertForMaskedLM_bert_embeddings_pos_emb_weight: Tensor[(512, 1024), float32], %BertForMaskedLM_bert_embeddings_type_emb_weight: Tensor[(2, 1024), float32], %BertForMaskedLM_bert_embeddings_layer_norm_weight: Tensor[(1024), float32], %BertForMaskedLM_bert_embeddings_layer_norm_bias: Tensor[(1024), float32], %BertForMaskedLM_bert_encoder_layer_s0_BertLayer_attention_self_attention_query_weight: Tensor[(1024, 1024), float32], %BertForMaskedLM_bert_encoder_layer_s0_BertLayer_attention_self_attention_query_bias: Tensor[(1024), float32], %BertForMaskedLM_bert_encoder_layer_s0_BertLayer_attention_self_attention_key_weight: Tensor[(1024, 1024), float32], %BertForMaskedLM_bert_encoder_layer_s0_BertLayer_attention_self_attention_key_bias: Tensor[(1024), float32], %BertForMaskedLM_bert_encoder_layer_s0_BertLayer_attention_self_attention_value_weight: Tensor[(1024, 1024), float32], %BertForMaskedLM_bert_encoder_layer_s0_BertLayer_attention_self_attention_value_bias: Tensor[(1024), float32], %BertForMaskedLM_bert_encoder_layer_s0_BertLayer_attention_output_dense_weight: Tensor[(1024, 1024), float32], %BertForMaskedLM_bert_encoder_layer_s0_BertLayer_attention_output_dense_bias: Tensor[(1024), float32], %BertForMaskedLM_bert_encoder_layer_s0_BertLayer_attention_output_layer_norm_weight: Tensor[(1024), float32], %BertForMaskedLM_bert_encoder_layer_s0_BertLayer_attention_output_layer_norm_bias: Tensor[(1024), float32], %BertForMaskedLM_bert_encoder_layer_s0_BertLayer_intermediate_dense_weight: Tensor[(4096, 1024), float32], %BertForMaskedLM_bert_encoder_layer_s0_BertLayer_intermediate_dense_bias: Tensor[(4096), float32], %BertForMaskedLM_bert_encoder_layer_s0_BertLayer_output_dense_weight: Tensor[(1024, 4096), float32], %BertForMaskedLM_bert_encoder_layer_s0_BertLayer_output_dense_bias: Tensor[(1024), float32], %BertForMaskedLM_bert_encoder_layer_s0_BertLayer_output_layer_norm_weight: Tensor[(1024), float32], %BertForMaskedLM_bert_encoder_layer_s0_BertLayer_output_layer_norm_bias: Tensor[(1024), float32], %BertForMaskedLM_bert_encoder_layer_s1_BertLayer_attention_self_attention_query_weight: Tensor[(1024, 1024), float32], %BertForMaskedLM_bert_encoder_layer_s1_BertLayer_attention_self_attention_query_bias: Tensor[(1024), float32], %BertForMaskedLM_bert_encoder_layer_s1_BertLayer_attention_self_attention_key_weight: Tensor[(1024, 1024), float32], %BertForMaskedLM_bert_encoder_layer_s1_BertLayer_attention_self_attention_key_bias: Tensor[(1024), float32], %BertForMaskedLM_bert_encoder_layer_s1_BertLayer_attention_self_attention_value_weight: Tensor[(1024, 1024), float32], %BertForMaskedLM_bert_encoder_layer_s1_BertLayer_attention_self_attention_value_bias: Tensor[(1024), float32], %BertForMaskedLM_bert_encoder_layer_s1_BertLayer_attention_output_dense_weight: Tensor[(1024, 1024), float32], %BertForMaskedLM_bert_encoder_layer_s1_BertLayer_attention_output_dense_bias: Tensor[(1024), float32], %BertForMaskedLM_bert_encoder_layer_s1_BertLayer_attention_output_layer_norm_weight: Tensor[(1024), float32], %BertForMaskedLM_bert_encoder_layer_s1_BertLayer_attention_output_layer_norm_bias: Tensor[(1024), float32], %BertForMaskedLM_bert_encoder_layer_s1_BertLayer_intermediate_dense_weight: Tensor[(4096, 1024), float32], %BertForMaskedLM_bert_encoder_layer_s1_BertLayer_intermediate_dense_bias: Tensor[(4096), float32], %BertForMaskedLM_bert_encoder_layer_s1_BertLayer_output_dense_weight: Tensor[(1024, 4096), float32], %BertForMaskedLM_bert_encoder_layer_s1_BertLayer_output_dense_bias: Tensor[(1024), float32], %BertForMaskedLM_bert_encoder_layer_s1_BertLayer_output_layer_norm_weight: Tensor[(1024), float32], %BertForMaskedLM_bert_encoder_layer_s1_BertLayer_output_layer_norm_bias: Tensor[(1024), float32], %BertForMaskedLM_bert_encoder_layer_s2_BertLayer_attention_self_attention_query_weight: Tensor[(1024, 1024), float32], %BertForMaskedLM_bert_encoder_layer_s2_BertLayer_attention_self_attention_query_bias: Tensor[(1024), float32], %BertForMaskedLM_bert_encoder_layer_s2_BertLayer_attention_self_attention_key_weight: Tensor[(1024, 1024), float32], %BertForMaskedLM_bert_encoder_layer_s2_BertLayer_attention_self_attention_key_bias: Tensor[(1024), float32], %BertForMaskedLM_bert_encoder_layer_s2_BertLayer_attention_self_attention_value_weight: Tensor[(1024, 1024), float32], %BertForMaskedLM_bert_encoder_layer_s2_BertLayer_attention_self_attention_value_bias: Tensor[(1024), float32], %BertForMaskedLM_bert_encoder_layer_s2_BertLayer_attention_output_dense_weight: Tensor[(1024, 1024), float32], %BertForMaskedLM_bert_encoder_layer_s2_BertLayer_attention_output_dense_bias: Tensor[(1024), float32], %BertForMaskedLM_bert_encoder_layer_s2_BertLayer_attention_output_layer_norm_weight: Tensor[(1024), float32], %BertForMaskedLM_bert_encoder_layer_s2_BertLayer_attention_output_layer_norm_bias: Tensor[(1024), float32], %BertForMaskedLM_bert_encoder_layer_s2_BertLayer_intermediate_dense_weight: Tensor[(4096, 1024), float32], %BertForMaskedLM_bert_encoder_layer_s2_BertLayer_intermediate_dense_bias: Tensor[(4096), float32], %BertForMaskedLM_bert_encoder_layer_s2_BertLayer_output_dense_weight: Tensor[(1024, 4096), float32], %BertForMaskedLM_bert_encoder_layer_s2_BertLayer_output_dense_bias: Tensor[(1024), float32], %BertForMaskedLM_bert_encoder_layer_s2_BertLayer_output_layer_norm_weight: Tensor[(1024), float32], %BertForMaskedLM_bert_encoder_layer_s2_BertLayer_output_layer_norm_bias: Tensor[(1024), float32], %BertForMaskedLM_bert_encoder_layer_s3_BertLayer_attention_self_attention_query_weight: Tensor[(1024, 1024), float32], %BertForMaskedLM_bert_encoder_layer_s3_BertLayer_attention_self_attention_query_bias: Tensor[(1024), float32], %BertForMaskedLM_bert_encoder_layer_s3_BertLayer_attention_self_attention_key_weight: Tensor[(1024, 1024), float32], %BertForMaskedLM_bert_encoder_layer_s3_BertLayer_attention_self_attention_key_bias: Tensor[(1024), float32], %BertForMaskedLM_bert_encoder_layer_s3_BertLayer_attention_self_attention_value_weight: Tensor[(1024, 1024), float32], %BertForMaskedLM_bert_encoder_layer_s3_BertLayer_attention_self_attention_value_bias: Tensor[(1024), float32], %BertForMaskedLM_bert_encoder_layer_s3_BertLayer_attention_output_dense_weight: Tensor[(1024, 1024), float32], %BertForMaskedLM_bert_encoder_layer_s3_BertLayer_attention_output_dense_bias: Tensor[(1024), float32], %BertForMaskedLM_bert_encoder_layer_s3_BertLayer_attention_output_layer_norm_weight: Tensor[(1024), float32], %BertForMaskedLM_bert_encoder_layer_s3_BertLayer_attention_output_layer_norm_bias: Tensor[(1024), float32], %BertForMaskedLM_bert_encoder_layer_s3_BertLayer_intermediate_dense_weight: Tensor[(4096, 1024), float32], %BertForMaskedLM_bert_encoder_layer_s3_BertLayer_intermediate_dense_bias: Tensor[(4096), float32], %BertForMaskedLM_bert_encoder_layer_s3_BertLayer_output_dense_weight: Tensor[(1024, 4096), float32], %BertForMaskedLM_bert_encoder_layer_s3_BertLayer_output_dense_bias: Tensor[(1024), float32], %BertForMaskedLM_bert_encoder_layer_s3_BertLayer_output_layer_norm_weight: Tensor[(1024), float32], %BertForMaskedLM_bert_encoder_layer_s3_BertLayer_output_layer_norm_bias: Tensor[(1024), float32], %BertForMaskedLM_bert_encoder_layer_s4_BertLayer_attention_self_attention_query_weight: Tensor[(1024, 1024), float32], %BertForMaskedLM_bert_encoder_layer_s4_BertLayer_attention_self_attention_query_bias: Tensor[(1024), float32], %BertForMaskedLM_bert_encoder_layer_s4_BertLayer_attention_self_attention_key_weight: Tensor[(1024, 1024), float32], %BertForMaskedLM_bert_encoder_layer_s4_BertLayer_attention_self_attention_key_bias: Tensor[(1024), float32], %BertForMaskedLM_bert_encoder_layer_s4_BertLayer_attention_self_attention_value_weight: Tensor[(1024, 1024), float32], %BertForMaskedLM_bert_encoder_layer_s4_BertLayer_attention_self_attention_value_bias: Tensor[(1024), float32], %BertForMaskedLM_bert_encoder_layer_s4_BertLayer_attention_output_dense_weight: Tensor[(1024, 1024), float32], %BertForMaskedLM_bert_encoder_layer_s4_BertLayer_attention_output_dense_bias: Tensor[(1024), float32], %BertForMaskedLM_bert_encoder_layer_s4_BertLayer_attention_output_layer_norm_weight: Tensor[(1024), float32], %BertForMaskedLM_bert_encoder_layer_s4_BertLayer_attention_output_layer_norm_bias: Tensor[(1024), float32], %BertForMaskedLM_bert_encoder_layer_s4_BertLayer_intermediate_dense_weight: Tensor[(4096, 1024), float32], %BertForMaskedLM_bert_encoder_layer_s4_BertLayer_intermediate_dense_bias: Tensor[(4096), float32], %BertForMaskedLM_bert_encoder_layer_s4_BertLayer_output_dense_weight: Tensor[(1024, 4096), float32], %BertForMaskedLM_bert_encoder_layer_s4_BertLayer_output_dense_bias: Tensor[(1024), float32], %BertForMaskedLM_bert_encoder_layer_s4_BertLayer_output_layer_norm_weight: Tensor[(1024), float32], %BertForMaskedLM_bert_encoder_layer_s4_BertLayer_output_layer_norm_bias: Tensor[(1024), float32], %BertForMaskedLM_bert_encoder_layer_s5_BertLayer_attention_self_attention_query_weight: Tensor[(1024, 1024), float32], %BertForMaskedLM_bert_encoder_layer_s5_BertLayer_attention_self_attention_query_bias: Tensor[(1024), float32], %BertForMaskedLM_bert_encoder_layer_s5_BertLayer_attention_self_attention_key_weight: Tensor[(1024, 1024), float32], %BertForMaskedLM_bert_encoder_layer_s5_BertLayer_attention_self_attention_key_bias: Tensor[(1024), float32], %BertForMaskedLM_bert_encoder_layer_s5_BertLayer_attention_self_attention_value_weight: Tensor[(1024, 1024), float32], %BertForMaskedLM_bert_encoder_layer_s5_BertLayer_attention_self_attention_value_bias: Tensor[(1024), float32], %BertForMaskedLM_bert_encoder_layer_s5_BertLayer_attention_output_dense_weight: Tensor[(1024, 1024), float32], %BertForMaskedLM_bert_encoder_layer_s5_BertLayer_attention_output_dense_bias: Tensor[(1024), float32], %BertForMaskedLM_bert_encoder_layer_s5_BertLayer_attention_output_layer_norm_weight: Tensor[(1024), float32], %BertForMaskedLM_bert_encoder_layer_s5_BertLayer_attention_output_layer_norm_bias: Tensor[(1024), float32], %BertForMaskedLM_bert_encoder_layer_s5_BertLayer_intermediate_dense_weight: Tensor[(4096, 1024), float32], %BertForMaskedLM_bert_encoder_layer_s5_BertLayer_intermediate_dense_bias: Tensor[(4096), float32], %BertForMaskedLM_bert_encoder_layer_s5_BertLayer_output_dense_weight: Tensor[(1024, 4096), float32], %BertForMaskedLM_bert_encoder_layer_s5_BertLayer_output_dense_bias: Tensor[(1024), float32], %BertForMaskedLM_bert_encoder_layer_s5_BertLayer_output_layer_norm_weight: Tensor[(1024), float32], %BertForMaskedLM_bert_encoder_layer_s5_BertLayer_output_layer_norm_bias: Tensor[(1024), float32], %BertForMaskedLM_bert_encoder_layer_s6_BertLayer_attention_self_attention_query_weight: Tensor[(1024, 1024), float32], %BertForMaskedLM_bert_encoder_layer_s6_BertLayer_attention_self_attention_query_bias: Tensor[(1024), float32], %BertForMaskedLM_bert_encoder_layer_s6_BertLayer_attention_self_attention_key_weight: Tensor[(1024, 1024), float32], %BertForMaskedLM_bert_encoder_layer_s6_BertLayer_attention_self_attention_key_bias: Tensor[(1024), float32], %BertForMaskedLM_bert_encoder_layer_s6_BertLayer_attention_self_attention_value_weight: Tensor[(1024, 1024), float32], %BertForMaskedLM_bert_encoder_layer_s6_BertLayer_attention_self_attention_value_bias: Tensor[(1024), float32], %BertForMaskedLM_bert_encoder_layer_s6_BertLayer_attention_output_dense_weight: Tensor[(1024, 1024), float32], %BertForMaskedLM_bert_encoder_layer_s6_BertLayer_attention_output_dense_bias: Tensor[(1024), float32], %BertForMaskedLM_bert_encoder_layer_s6_BertLayer_attention_output_layer_norm_weight: Tensor[(1024), float32], %BertForMaskedLM_bert_encoder_layer_s6_BertLayer_attention_output_layer_norm_bias: Tensor[(1024), float32], %BertForMaskedLM_bert_encoder_layer_s6_BertLayer_intermediate_dense_weight: Tensor[(4096, 1024), float32], %BertForMaskedLM_bert_encoder_layer_s6_BertLayer_intermediate_dense_bias: Tensor[(4096), float32], %BertForMaskedLM_bert_encoder_layer_s6_BertLayer_output_dense_weight: Tensor[(1024, 4096), float32], %BertForMaskedLM_bert_encoder_layer_s6_BertLayer_output_dense_bias: Tensor[(1024), float32], %BertForMaskedLM_bert_encoder_layer_s6_BertLayer_output_layer_norm_weight: Tensor[(1024), float32], %BertForMaskedLM_bert_encoder_layer_s6_BertLayer_output_layer_norm_bias: Tensor[(1024), float32], %BertForMaskedLM_bert_encoder_layer_s7_BertLayer_attention_self_attention_query_weight: Tensor[(1024, 1024), float32], %BertForMaskedLM_bert_encoder_layer_s7_BertLayer_attention_self_attention_query_bias: Tensor[(1024), float32], %BertForMaskedLM_bert_encoder_layer_s7_BertLayer_attention_self_attention_key_weight: Tensor[(1024, 1024), float32], %BertForMaskedLM_bert_encoder_layer_s7_BertLayer_attention_self_attention_key_bias: Tensor[(1024), float32], %BertForMaskedLM_bert_encoder_layer_s7_BertLayer_attention_self_attention_value_weight: Tensor[(1024, 1024), float32], %BertForMaskedLM_bert_encoder_layer_s7_BertLayer_attention_self_attention_value_bias: Tensor[(1024), float32], %BertForMaskedLM_bert_encoder_layer_s7_BertLayer_attention_output_dense_weight: Tensor[(1024, 1024), float32], %BertForMaskedLM_bert_encoder_layer_s7_BertLayer_attention_output_dense_bias: Tensor[(1024), float32], %BertForMaskedLM_bert_encoder_layer_s7_BertLayer_attention_output_layer_norm_weight: Tensor[(1024), float32], %BertForMaskedLM_bert_encoder_layer_s7_BertLayer_attention_output_layer_norm_bias: Tensor[(1024), float32], %BertForMaskedLM_bert_encoder_layer_s7_BertLayer_intermediate_dense_weight: Tensor[(4096, 1024), float32], %BertForMaskedLM_bert_encoder_layer_s7_BertLayer_intermediate_dense_bias: Tensor[(4096), float32], %BertForMaskedLM_bert_encoder_layer_s7_BertLayer_output_dense_weight: Tensor[(1024, 4096), float32], %BertForMaskedLM_bert_encoder_layer_s7_BertLayer_output_dense_bias: Tensor[(1024), float32], %BertForMaskedLM_bert_encoder_layer_s7_BertLayer_output_layer_norm_weight: Tensor[(1024), float32], %BertForMaskedLM_bert_encoder_layer_s7_BertLayer_output_layer_norm_bias: Tensor[(1024), float32], %BertForMaskedLM_bert_encoder_layer_s8_BertLayer_attention_self_attention_query_weight: Tensor[(1024, 1024), float32], %BertForMaskedLM_bert_encoder_layer_s8_BertLayer_attention_self_attention_query_bias: Tensor[(1024), float32], %BertForMaskedLM_bert_encoder_layer_s8_BertLayer_attention_self_attention_key_weight: Tensor[(1024, 1024), float32], %BertForMaskedLM_bert_encoder_layer_s8_BertLayer_attention_self_attention_key_bias: Tensor[(1024), float32], %BertForMaskedLM_bert_encoder_layer_s8_BertLayer_attention_self_attention_value_weight: Tensor[(1024, 1024), float32], %BertForMaskedLM_bert_encoder_layer_s8_BertLayer_attention_self_attention_value_bias: Tensor[(1024), float32], %BertForMaskedLM_bert_encoder_layer_s8_BertLayer_attention_output_dense_weight: Tensor[(1024, 1024), float32], %BertForMaskedLM_bert_encoder_layer_s8_BertLayer_attention_output_dense_bias: Tensor[(1024), float32], %BertForMaskedLM_bert_encoder_layer_s8_BertLayer_attention_output_layer_norm_weight: Tensor[(1024), float32], %BertForMaskedLM_bert_encoder_layer_s8_BertLayer_attention_output_layer_norm_bias: Tensor[(1024), float32], %BertForMaskedLM_bert_encoder_layer_s8_BertLayer_intermediate_dense_weight: Tensor[(4096, 1024), float32], %BertForMaskedLM_bert_encoder_layer_s8_BertLayer_intermediate_dense_bias: Tensor[(4096), float32], %BertForMaskedLM_bert_encoder_layer_s8_BertLayer_output_dense_weight: Tensor[(1024, 4096), float32], %BertForMaskedLM_bert_encoder_layer_s8_BertLayer_output_dense_bias: Tensor[(1024), float32], %BertForMaskedLM_bert_encoder_layer_s8_BertLayer_output_layer_norm_weight: Tensor[(1024), float32], %BertForMaskedLM_bert_encoder_layer_s8_BertLayer_output_layer_norm_bias: Tensor[(1024), float32], %BertForMaskedLM_bert_encoder_layer_s9_BertLayer_attention_self_attention_query_weight: Tensor[(1024, 1024), float32], %BertForMaskedLM_bert_encoder_layer_s9_BertLayer_attention_self_attention_query_bias: Tensor[(1024), float32], %BertForMaskedLM_bert_encoder_layer_s9_BertLayer_attention_self_attention_key_weight: Tensor[(1024, 1024), float32], %BertForMaskedLM_bert_encoder_layer_s9_BertLayer_attention_self_attention_key_bias: Tensor[(1024), float32], %BertForMaskedLM_bert_encoder_layer_s9_BertLayer_attention_self_attention_value_weight: Tensor[(1024, 1024), float32], %BertForMaskedLM_bert_encoder_layer_s9_BertLayer_attention_self_attention_value_bias: Tensor[(1024), float32], %BertForMaskedLM_bert_encoder_layer_s9_BertLayer_attention_output_dense_weight: Tensor[(1024, 1024), float32], %BertForMaskedLM_bert_encoder_layer_s9_BertLayer_attention_output_dense_bias: Tensor[(1024), float32], %BertForMaskedLM_bert_encoder_layer_s9_BertLayer_attention_output_layer_norm_weight: Tensor[(1024), float32], %BertForMaskedLM_bert_encoder_layer_s9_BertLayer_attention_output_layer_norm_bias: Tensor[(1024), float32], %BertForMaskedLM_bert_encoder_layer_s9_BertLayer_intermediate_dense_weight: Tensor[(4096, 1024), float32], %BertForMaskedLM_bert_encoder_layer_s9_BertLayer_intermediate_dense_bias: Tensor[(4096), float32], %BertForMaskedLM_bert_encoder_layer_s9_BertLayer_output_dense_weight: Tensor[(1024, 4096), float32], %BertForMaskedLM_bert_encoder_layer_s9_BertLayer_output_dense_bias: Tensor[(1024), float32], %BertForMaskedLM_bert_encoder_layer_s9_BertLayer_output_layer_norm_weight: Tensor[(1024), float32], %BertForMaskedLM_bert_encoder_layer_s9_BertLayer_output_layer_norm_bias: Tensor[(1024), float32], %BertForMaskedLM_bert_encoder_layer_s10_BertLayer_attention_self_attention_query_weight: Tensor[(1024, 1024), float32], %BertForMaskedLM_bert_encoder_layer_s10_BertLayer_attention_self_attention_query_bias: Tensor[(1024), float32], %BertForMaskedLM_bert_encoder_layer_s10_BertLayer_attention_self_attention_key_weight: Tensor[(1024, 1024), float32], %BertForMaskedLM_bert_encoder_layer_s10_BertLayer_attention_self_attention_key_bias: Tensor[(1024), float32], %BertForMaskedLM_bert_encoder_layer_s10_BertLayer_attention_self_attention_value_weight: Tensor[(1024, 1024), float32], %BertForMaskedLM_bert_encoder_layer_s10_BertLayer_attention_self_attention_value_bias: Tensor[(1024), float32], %BertForMaskedLM_bert_encoder_layer_s10_BertLayer_attention_output_dense_weight: Tensor[(1024, 1024), float32], %BertForMaskedLM_bert_encoder_layer_s10_BertLayer_attention_output_dense_bias: Tensor[(1024), float32], %BertForMaskedLM_bert_encoder_layer_s10_BertLayer_attention_output_layer_norm_weight: Tensor[(1024), float32], %BertForMaskedLM_bert_encoder_layer_s10_BertLayer_attention_output_layer_norm_bias: Tensor[(1024), float32], %BertForMaskedLM_bert_encoder_layer_s10_BertLayer_intermediate_dense_weight: Tensor[(4096, 1024), float32], %BertForMaskedLM_bert_encoder_layer_s10_BertLayer_intermediate_dense_bias: Tensor[(4096), float32], %BertForMaskedLM_bert_encoder_layer_s10_BertLayer_output_dense_weight: Tensor[(1024, 4096), float32], %BertForMaskedLM_bert_encoder_layer_s10_BertLayer_output_dense_bias: Tensor[(1024), float32], %BertForMaskedLM_bert_encoder_layer_s10_BertLayer_output_layer_norm_weight: Tensor[(1024), float32], %BertForMaskedLM_bert_encoder_layer_s10_BertLayer_output_layer_norm_bias: Tensor[(1024), float32], %BertForMaskedLM_bert_encoder_layer_s11_BertLayer_attention_self_attention_query_weight: Tensor[(1024, 1024), float32], %BertForMaskedLM_bert_encoder_layer_s11_BertLayer_attention_self_attention_query_bias: Tensor[(1024), float32], %BertForMaskedLM_bert_encoder_layer_s11_BertLayer_attention_self_attention_key_weight: Tensor[(1024, 1024), float32], %BertForMaskedLM_bert_encoder_layer_s11_BertLayer_attention_self_attention_key_bias: Tensor[(1024), float32], %BertForMaskedLM_bert_encoder_layer_s11_BertLayer_attention_self_attention_value_weight: Tensor[(1024, 1024), float32], %BertForMaskedLM_bert_encoder_layer_s11_BertLayer_attention_self_attention_value_bias: Tensor[(1024), float32], %BertForMaskedLM_bert_encoder_layer_s11_BertLayer_attention_output_dense_weight: Tensor[(1024, 1024), float32], %BertForMaskedLM_bert_encoder_layer_s11_BertLayer_attention_output_dense_bias: Tensor[(1024), float32], %BertForMaskedLM_bert_encoder_layer_s11_BertLayer_attention_output_layer_norm_weight: Tensor[(1024), float32], %BertForMaskedLM_bert_encoder_layer_s11_BertLayer_attention_output_layer_norm_bias: Tensor[(1024), float32], %BertForMaskedLM_bert_encoder_layer_s11_BertLayer_intermediate_dense_weight: Tensor[(4096, 1024), float32], %BertForMaskedLM_bert_encoder_layer_s11_BertLayer_intermediate_dense_bias: Tensor[(4096), float32], %BertForMaskedLM_bert_encoder_layer_s11_BertLayer_output_dense_weight: Tensor[(1024, 4096), float32], %BertForMaskedLM_bert_encoder_layer_s11_BertLayer_output_dense_bias: Tensor[(1024), float32], %BertForMaskedLM_bert_encoder_layer_s11_BertLayer_output_layer_norm_weight: Tensor[(1024), float32], %BertForMaskedLM_bert_encoder_layer_s11_BertLayer_output_layer_norm_bias: Tensor[(1024), float32], %BertForMaskedLM_bert_encoder_layer_s12_BertLayer_attention_self_attention_query_weight: Tensor[(1024, 1024), float32], %BertForMaskedLM_bert_encoder_layer_s12_BertLayer_attention_self_attention_query_bias: Tensor[(1024), float32], %BertForMaskedLM_bert_encoder_layer_s12_BertLayer_attention_self_attention_key_weight: Tensor[(1024, 1024), float32], %BertForMaskedLM_bert_encoder_layer_s12_BertLayer_attention_self_attention_key_bias: Tensor[(1024), float32], %BertForMaskedLM_bert_encoder_layer_s12_BertLayer_attention_self_attention_value_weight: Tensor[(1024, 1024), float32], %BertForMaskedLM_bert_encoder_layer_s12_BertLayer_attention_self_attention_value_bias: Tensor[(1024), float32], %BertForMaskedLM_bert_encoder_layer_s12_BertLayer_attention_output_dense_weight: Tensor[(1024, 1024), float32], %BertForMaskedLM_bert_encoder_layer_s12_BertLayer_attention_output_dense_bias: Tensor[(1024), float32], %BertForMaskedLM_bert_encoder_layer_s12_BertLayer_attention_output_layer_norm_weight: Tensor[(1024), float32], %BertForMaskedLM_bert_encoder_layer_s12_BertLayer_attention_output_layer_norm_bias: Tensor[(1024), float32], %BertForMaskedLM_bert_encoder_layer_s12_BertLayer_intermediate_dense_weight: Tensor[(4096, 1024), float32], %BertForMaskedLM_bert_encoder_layer_s12_BertLayer_intermediate_dense_bias: Tensor[(4096), float32], %BertForMaskedLM_bert_encoder_layer_s12_BertLayer_output_dense_weight: Tensor[(1024, 4096), float32], %BertForMaskedLM_bert_encoder_layer_s12_BertLayer_output_dense_bias: Tensor[(1024), float32], %BertForMaskedLM_bert_encoder_layer_s12_BertLayer_output_layer_norm_weight: Tensor[(1024), float32], %BertForMaskedLM_bert_encoder_layer_s12_BertLayer_output_layer_norm_bias: Tensor[(1024), float32], %BertForMaskedLM_bert_encoder_layer_s13_BertLayer_attention_self_attention_query_weight: Tensor[(1024, 1024), float32], %BertForMaskedLM_bert_encoder_layer_s13_BertLayer_attention_self_attention_query_bias: Tensor[(1024), float32], %BertForMaskedLM_bert_encoder_layer_s13_BertLayer_attention_self_attention_key_weight: Tensor[(1024, 1024), float32], %BertForMaskedLM_bert_encoder_layer_s13_BertLayer_attention_self_attention_key_bias: Tensor[(1024), float32], %BertForMaskedLM_bert_encoder_layer_s13_BertLayer_attention_self_attention_value_weight: Tensor[(1024, 1024), float32], %BertForMaskedLM_bert_encoder_layer_s13_BertLayer_attention_self_attention_value_bias: Tensor[(1024), float32], %BertForMaskedLM_bert_encoder_layer_s13_BertLayer_attention_output_dense_weight: Tensor[(1024, 1024), float32], %BertForMaskedLM_bert_encoder_layer_s13_BertLayer_attention_output_dense_bias: Tensor[(1024), float32], %BertForMaskedLM_bert_encoder_layer_s13_BertLayer_attention_output_layer_norm_weight: Tensor[(1024), float32], %BertForMaskedLM_bert_encoder_layer_s13_BertLayer_attention_output_layer_norm_bias: Tensor[(1024), float32], %BertForMaskedLM_bert_encoder_layer_s13_BertLayer_intermediate_dense_weight: Tensor[(4096, 1024), float32], %BertForMaskedLM_bert_encoder_layer_s13_BertLayer_intermediate_dense_bias: Tensor[(4096), float32], %BertForMaskedLM_bert_encoder_layer_s13_BertLayer_output_dense_weight: Tensor[(1024, 4096), float32], %BertForMaskedLM_bert_encoder_layer_s13_BertLayer_output_dense_bias: Tensor[(1024), float32], %BertForMaskedLM_bert_encoder_layer_s13_BertLayer_output_layer_norm_weight: Tensor[(1024), float32], %BertForMaskedLM_bert_encoder_layer_s13_BertLayer_output_layer_norm_bias: Tensor[(1024), float32], %BertForMaskedLM_bert_encoder_layer_s14_BertLayer_attention_self_attention_query_weight: Tensor[(1024, 1024), float32], %BertForMaskedLM_bert_encoder_layer_s14_BertLayer_attention_self_attention_query_bias: Tensor[(1024), float32], %BertForMaskedLM_bert_encoder_layer_s14_BertLayer_attention_self_attention_key_weight: Tensor[(1024, 1024), float32], %BertForMaskedLM_bert_encoder_layer_s14_BertLayer_attention_self_attention_key_bias: Tensor[(1024), float32], %BertForMaskedLM_bert_encoder_layer_s14_BertLayer_attention_self_attention_value_weight: Tensor[(1024, 1024), float32], %BertForMaskedLM_bert_encoder_layer_s14_BertLayer_attention_self_attention_value_bias: Tensor[(1024), float32], %BertForMaskedLM_bert_encoder_layer_s14_BertLayer_attention_output_dense_weight: Tensor[(1024, 1024), float32], %BertForMaskedLM_bert_encoder_layer_s14_BertLayer_attention_output_dense_bias: Tensor[(1024), float32], %BertForMaskedLM_bert_encoder_layer_s14_BertLayer_attention_output_layer_norm_weight: Tensor[(1024), float32], %BertForMaskedLM_bert_encoder_layer_s14_BertLayer_attention_output_layer_norm_bias: Tensor[(1024), float32], %BertForMaskedLM_bert_encoder_layer_s14_BertLayer_intermediate_dense_weight: Tensor[(4096, 1024), float32], %BertForMaskedLM_bert_encoder_layer_s14_BertLayer_intermediate_dense_bias: Tensor[(4096), float32], %BertForMaskedLM_bert_encoder_layer_s14_BertLayer_output_dense_weight: Tensor[(1024, 4096), float32], %BertForMaskedLM_bert_encoder_layer_s14_BertLayer_output_dense_bias: Tensor[(1024), float32], %BertForMaskedLM_bert_encoder_layer_s14_BertLayer_output_layer_norm_weight: Tensor[(1024), float32], %BertForMaskedLM_bert_encoder_layer_s14_BertLayer_output_layer_norm_bias: Tensor[(1024), float32], %BertForMaskedLM_bert_encoder_layer_s15_BertLayer_attention_self_attention_query_weight: Tensor[(1024, 1024), float32], %BertForMaskedLM_bert_encoder_layer_s15_BertLayer_attention_self_attention_query_bias: Tensor[(1024), float32], %BertForMaskedLM_bert_encoder_layer_s15_BertLayer_attention_self_attention_key_weight: Tensor[(1024, 1024), float32], %BertForMaskedLM_bert_encoder_layer_s15_BertLayer_attention_self_attention_key_bias: Tensor[(1024), float32], %BertForMaskedLM_bert_encoder_layer_s15_BertLayer_attention_self_attention_value_weight: Tensor[(1024, 1024), float32], %BertForMaskedLM_bert_encoder_layer_s15_BertLayer_attention_self_attention_value_bias: Tensor[(1024), float32], %BertForMaskedLM_bert_encoder_layer_s15_BertLayer_attention_output_dense_weight: Tensor[(1024, 1024), float32], %BertForMaskedLM_bert_encoder_layer_s15_BertLayer_attention_output_dense_bias: Tensor[(1024), float32], %BertForMaskedLM_bert_encoder_layer_s15_BertLayer_attention_output_layer_norm_weight: Tensor[(1024), float32], %BertForMaskedLM_bert_encoder_layer_s15_BertLayer_attention_output_layer_norm_bias: Tensor[(1024), float32], %BertForMaskedLM_bert_encoder_layer_s15_BertLayer_intermediate_dense_weight: Tensor[(4096, 1024), float32], %BertForMaskedLM_bert_encoder_layer_s15_BertLayer_intermediate_dense_bias: Tensor[(4096), float32], %BertForMaskedLM_bert_encoder_layer_s15_BertLayer_output_dense_weight: Tensor[(1024, 4096), float32], %BertForMaskedLM_bert_encoder_layer_s15_BertLayer_output_dense_bias: Tensor[(1024), float32], %BertForMaskedLM_bert_encoder_layer_s15_BertLayer_output_layer_norm_weight: Tensor[(1024), float32], %BertForMaskedLM_bert_encoder_layer_s15_BertLayer_output_layer_norm_bias: Tensor[(1024), float32], %BertForMaskedLM_bert_encoder_layer_s16_BertLayer_attention_self_attention_query_weight: Tensor[(1024, 1024), float32], %BertForMaskedLM_bert_encoder_layer_s16_BertLayer_attention_self_attention_query_bias: Tensor[(1024), float32], %BertForMaskedLM_bert_encoder_layer_s16_BertLayer_attention_self_attention_key_weight: Tensor[(1024, 1024), float32], %BertForMaskedLM_bert_encoder_layer_s16_BertLayer_attention_self_attention_key_bias: Tensor[(1024), float32], %BertForMaskedLM_bert_encoder_layer_s16_BertLayer_attention_self_attention_value_weight: Tensor[(1024, 1024), float32], %BertForMaskedLM_bert_encoder_layer_s16_BertLayer_attention_self_attention_value_bias: Tensor[(1024), float32], %BertForMaskedLM_bert_encoder_layer_s16_BertLayer_attention_output_dense_weight: Tensor[(1024, 1024), float32], %BertForMaskedLM_bert_encoder_layer_s16_BertLayer_attention_output_dense_bias: Tensor[(1024), float32], %BertForMaskedLM_bert_encoder_layer_s16_BertLayer_attention_output_layer_norm_weight: Tensor[(1024), float32], %BertForMaskedLM_bert_encoder_layer_s16_BertLayer_attention_output_layer_norm_bias: Tensor[(1024), float32], %BertForMaskedLM_bert_encoder_layer_s16_BertLayer_intermediate_dense_weight: Tensor[(4096, 1024), float32], %BertForMaskedLM_bert_encoder_layer_s16_BertLayer_intermediate_dense_bias: Tensor[(4096), float32], %BertForMaskedLM_bert_encoder_layer_s16_BertLayer_output_dense_weight: Tensor[(1024, 4096), float32], %BertForMaskedLM_bert_encoder_layer_s16_BertLayer_output_dense_bias: Tensor[(1024), float32], %BertForMaskedLM_bert_encoder_layer_s16_BertLayer_output_layer_norm_weight: Tensor[(1024), float32], %BertForMaskedLM_bert_encoder_layer_s16_BertLayer_output_layer_norm_bias: Tensor[(1024), float32], %BertForMaskedLM_bert_encoder_layer_s17_BertLayer_attention_self_attention_query_weight: Tensor[(1024, 1024), float32], %BertForMaskedLM_bert_encoder_layer_s17_BertLayer_attention_self_attention_query_bias: Tensor[(1024), float32], %BertForMaskedLM_bert_encoder_layer_s17_BertLayer_attention_self_attention_key_weight: Tensor[(1024, 1024), float32], %BertForMaskedLM_bert_encoder_layer_s17_BertLayer_attention_self_attention_key_bias: Tensor[(1024), float32], %BertForMaskedLM_bert_encoder_layer_s17_BertLayer_attention_self_attention_value_weight: Tensor[(1024, 1024), float32], %BertForMaskedLM_bert_encoder_layer_s17_BertLayer_attention_self_attention_value_bias: Tensor[(1024), float32], %BertForMaskedLM_bert_encoder_layer_s17_BertLayer_attention_output_dense_weight: Tensor[(1024, 1024), float32], %BertForMaskedLM_bert_encoder_layer_s17_BertLayer_attention_output_dense_bias: Tensor[(1024), float32], %BertForMaskedLM_bert_encoder_layer_s17_BertLayer_attention_output_layer_norm_weight: Tensor[(1024), float32], %BertForMaskedLM_bert_encoder_layer_s17_BertLayer_attention_output_layer_norm_bias: Tensor[(1024), float32], %BertForMaskedLM_bert_encoder_layer_s17_BertLayer_intermediate_dense_weight: Tensor[(4096, 1024), float32], %BertForMaskedLM_bert_encoder_layer_s17_BertLayer_intermediate_dense_bias: Tensor[(4096), float32], %BertForMaskedLM_bert_encoder_layer_s17_BertLayer_output_dense_weight: Tensor[(1024, 4096), float32], %BertForMaskedLM_bert_encoder_layer_s17_BertLayer_output_dense_bias: Tensor[(1024), float32], %BertForMaskedLM_bert_encoder_layer_s17_BertLayer_output_layer_norm_weight: Tensor[(1024), float32], %BertForMaskedLM_bert_encoder_layer_s17_BertLayer_output_layer_norm_bias: Tensor[(1024), float32], %BertForMaskedLM_bert_encoder_layer_s18_BertLayer_attention_self_attention_query_weight: Tensor[(1024, 1024), float32], %BertForMaskedLM_bert_encoder_layer_s18_BertLayer_attention_self_attention_query_bias: Tensor[(1024), float32], %BertForMaskedLM_bert_encoder_layer_s18_BertLayer_attention_self_attention_key_weight: Tensor[(1024, 1024), float32], %BertForMaskedLM_bert_encoder_layer_s18_BertLayer_attention_self_attention_key_bias: Tensor[(1024), float32], %BertForMaskedLM_bert_encoder_layer_s18_BertLayer_attention_self_attention_value_weight: Tensor[(1024, 1024), float32], %BertForMaskedLM_bert_encoder_layer_s18_BertLayer_attention_self_attention_value_bias: Tensor[(1024), float32], %BertForMaskedLM_bert_encoder_layer_s18_BertLayer_attention_output_dense_weight: Tensor[(1024, 1024), float32], %BertForMaskedLM_bert_encoder_layer_s18_BertLayer_attention_output_dense_bias: Tensor[(1024), float32], %BertForMaskedLM_bert_encoder_layer_s18_BertLayer_attention_output_layer_norm_weight: Tensor[(1024), float32], %BertForMaskedLM_bert_encoder_layer_s18_BertLayer_attention_output_layer_norm_bias: Tensor[(1024), float32], %BertForMaskedLM_bert_encoder_layer_s18_BertLayer_intermediate_dense_weight: Tensor[(4096, 1024), float32], %BertForMaskedLM_bert_encoder_layer_s18_BertLayer_intermediate_dense_bias: Tensor[(4096), float32], %BertForMaskedLM_bert_encoder_layer_s18_BertLayer_output_dense_weight: Tensor[(1024, 4096), float32], %BertForMaskedLM_bert_encoder_layer_s18_BertLayer_output_dense_bias: Tensor[(1024), float32], %BertForMaskedLM_bert_encoder_layer_s18_BertLayer_output_layer_norm_weight: Tensor[(1024), float32], %BertForMaskedLM_bert_encoder_layer_s18_BertLayer_output_layer_norm_bias: Tensor[(1024), float32], %BertForMaskedLM_bert_encoder_layer_s19_BertLayer_attention_self_attention_query_weight: Tensor[(1024, 1024), float32], %BertForMaskedLM_bert_encoder_layer_s19_BertLayer_attention_self_attention_query_bias: Tensor[(1024), float32], %BertForMaskedLM_bert_encoder_layer_s19_BertLayer_attention_self_attention_key_weight: Tensor[(1024, 1024), float32], %BertForMaskedLM_bert_encoder_layer_s19_BertLayer_attention_self_attention_key_bias: Tensor[(1024), float32], %BertForMaskedLM_bert_encoder_layer_s19_BertLayer_attention_self_attention_value_weight: Tensor[(1024, 1024), float32], %BertForMaskedLM_bert_encoder_layer_s19_BertLayer_attention_self_attention_value_bias: Tensor[(1024), float32], %BertForMaskedLM_bert_encoder_layer_s19_BertLayer_attention_output_dense_weight: Tensor[(1024, 1024), float32], %BertForMaskedLM_bert_encoder_layer_s19_BertLayer_attention_output_dense_bias: Tensor[(1024), float32], %BertForMaskedLM_bert_encoder_layer_s19_BertLayer_attention_output_layer_norm_weight: Tensor[(1024), float32], %BertForMaskedLM_bert_encoder_layer_s19_BertLayer_attention_output_layer_norm_bias: Tensor[(1024), float32], %BertForMaskedLM_bert_encoder_layer_s19_BertLayer_intermediate_dense_weight: Tensor[(4096, 1024), float32], %BertForMaskedLM_bert_encoder_layer_s19_BertLayer_intermediate_dense_bias: Tensor[(4096), float32], %BertForMaskedLM_bert_encoder_layer_s19_BertLayer_output_dense_weight: Tensor[(1024, 4096), float32], %BertForMaskedLM_bert_encoder_layer_s19_BertLayer_output_dense_bias: Tensor[(1024), float32], %BertForMaskedLM_bert_encoder_layer_s19_BertLayer_output_layer_norm_weight: Tensor[(1024), float32], %BertForMaskedLM_bert_encoder_layer_s19_BertLayer_output_layer_norm_bias: Tensor[(1024), float32], %BertForMaskedLM_bert_encoder_layer_s20_BertLayer_attention_self_attention_query_weight: Tensor[(1024, 1024), float32], %BertForMaskedLM_bert_encoder_layer_s20_BertLayer_attention_self_attention_query_bias: Tensor[(1024), float32], %BertForMaskedLM_bert_encoder_layer_s20_BertLayer_attention_self_attention_key_weight: Tensor[(1024, 1024), float32], %BertForMaskedLM_bert_encoder_layer_s20_BertLayer_attention_self_attention_key_bias: Tensor[(1024), float32], %BertForMaskedLM_bert_encoder_layer_s20_BertLayer_attention_self_attention_value_weight: Tensor[(1024, 1024), float32], %BertForMaskedLM_bert_encoder_layer_s20_BertLayer_attention_self_attention_value_bias: Tensor[(1024), float32], %BertForMaskedLM_bert_encoder_layer_s20_BertLayer_attention_output_dense_weight: Tensor[(1024, 1024), float32], %BertForMaskedLM_bert_encoder_layer_s20_BertLayer_attention_output_dense_bias: Tensor[(1024), float32], %BertForMaskedLM_bert_encoder_layer_s20_BertLayer_attention_output_layer_norm_weight: Tensor[(1024), float32], %BertForMaskedLM_bert_encoder_layer_s20_BertLayer_attention_output_layer_norm_bias: Tensor[(1024), float32], %BertForMaskedLM_bert_encoder_layer_s20_BertLayer_intermediate_dense_weight: Tensor[(4096, 1024), float32], %BertForMaskedLM_bert_encoder_layer_s20_BertLayer_intermediate_dense_bias: Tensor[(4096), float32], %BertForMaskedLM_bert_encoder_layer_s20_BertLayer_output_dense_weight: Tensor[(1024, 4096), float32], %BertForMaskedLM_bert_encoder_layer_s20_BertLayer_output_dense_bias: Tensor[(1024), float32], %BertForMaskedLM_bert_encoder_layer_s20_BertLayer_output_layer_norm_weight: Tensor[(1024), float32], %BertForMaskedLM_bert_encoder_layer_s20_BertLayer_output_layer_norm_bias: Tensor[(1024), float32], %BertForMaskedLM_bert_encoder_layer_s21_BertLayer_attention_self_attention_query_weight: Tensor[(1024, 1024), float32], %BertForMaskedLM_bert_encoder_layer_s21_BertLayer_attention_self_attention_query_bias: Tensor[(1024), float32], %BertForMaskedLM_bert_encoder_layer_s21_BertLayer_attention_self_attention_key_weight: Tensor[(1024, 1024), float32], %BertForMaskedLM_bert_encoder_layer_s21_BertLayer_attention_self_attention_key_bias: Tensor[(1024), float32], %BertForMaskedLM_bert_encoder_layer_s21_BertLayer_attention_self_attention_value_weight: Tensor[(1024, 1024), float32], %BertForMaskedLM_bert_encoder_layer_s21_BertLayer_attention_self_attention_value_bias: Tensor[(1024), float32], %BertForMaskedLM_bert_encoder_layer_s21_BertLayer_attention_output_dense_weight: Tensor[(1024, 1024), float32], %BertForMaskedLM_bert_encoder_layer_s21_BertLayer_attention_output_dense_bias: Tensor[(1024), float32], %BertForMaskedLM_bert_encoder_layer_s21_BertLayer_attention_output_layer_norm_weight: Tensor[(1024), float32], %BertForMaskedLM_bert_encoder_layer_s21_BertLayer_attention_output_layer_norm_bias: Tensor[(1024), float32], %BertForMaskedLM_bert_encoder_layer_s21_BertLayer_intermediate_dense_weight: Tensor[(4096, 1024), float32], %BertForMaskedLM_bert_encoder_layer_s21_BertLayer_intermediate_dense_bias: Tensor[(4096), float32], %BertForMaskedLM_bert_encoder_layer_s21_BertLayer_output_dense_weight: Tensor[(1024, 4096), float32], %BertForMaskedLM_bert_encoder_layer_s21_BertLayer_output_dense_bias: Tensor[(1024), float32], %BertForMaskedLM_bert_encoder_layer_s21_BertLayer_output_layer_norm_weight: Tensor[(1024), float32], %BertForMaskedLM_bert_encoder_layer_s21_BertLayer_output_layer_norm_bias: Tensor[(1024), float32], %BertForMaskedLM_bert_encoder_layer_s22_BertLayer_attention_self_attention_query_weight: Tensor[(1024, 1024), float32], %BertForMaskedLM_bert_encoder_layer_s22_BertLayer_attention_self_attention_query_bias: Tensor[(1024), float32], %BertForMaskedLM_bert_encoder_layer_s22_BertLayer_attention_self_attention_key_weight: Tensor[(1024, 1024), float32], %BertForMaskedLM_bert_encoder_layer_s22_BertLayer_attention_self_attention_key_bias: Tensor[(1024), float32], %BertForMaskedLM_bert_encoder_layer_s22_BertLayer_attention_self_attention_value_weight: Tensor[(1024, 1024), float32], %BertForMaskedLM_bert_encoder_layer_s22_BertLayer_attention_self_attention_value_bias: Tensor[(1024), float32], %BertForMaskedLM_bert_encoder_layer_s22_BertLayer_attention_output_dense_weight: Tensor[(1024, 1024), float32], %BertForMaskedLM_bert_encoder_layer_s22_BertLayer_attention_output_dense_bias: Tensor[(1024), float32], %BertForMaskedLM_bert_encoder_layer_s22_BertLayer_attention_output_layer_norm_weight: Tensor[(1024), float32], %BertForMaskedLM_bert_encoder_layer_s22_BertLayer_attention_output_layer_norm_bias: Tensor[(1024), float32], %BertForMaskedLM_bert_encoder_layer_s22_BertLayer_intermediate_dense_weight: Tensor[(4096, 1024), float32], %BertForMaskedLM_bert_encoder_layer_s22_BertLayer_intermediate_dense_bias: Tensor[(4096), float32], %BertForMaskedLM_bert_encoder_layer_s22_BertLayer_output_dense_weight: Tensor[(1024, 4096), float32], %BertForMaskedLM_bert_encoder_layer_s22_BertLayer_output_dense_bias: Tensor[(1024), float32], %BertForMaskedLM_bert_encoder_layer_s22_BertLayer_output_layer_norm_weight: Tensor[(1024), float32], %BertForMaskedLM_bert_encoder_layer_s22_BertLayer_output_layer_norm_bias: Tensor[(1024), float32], %BertForMaskedLM_bert_encoder_layer_s23_BertLayer_attention_self_attention_query_weight: Tensor[(1024, 1024), float32], %BertForMaskedLM_bert_encoder_layer_s23_BertLayer_attention_self_attention_query_bias: Tensor[(1024), float32], %BertForMaskedLM_bert_encoder_layer_s23_BertLayer_attention_self_attention_key_weight: Tensor[(1024, 1024), float32], %BertForMaskedLM_bert_encoder_layer_s23_BertLayer_attention_self_attention_key_bias: Tensor[(1024), float32], %BertForMaskedLM_bert_encoder_layer_s23_BertLayer_attention_self_attention_value_weight: Tensor[(1024, 1024), float32], %BertForMaskedLM_bert_encoder_layer_s23_BertLayer_attention_self_attention_value_bias: Tensor[(1024), float32], %BertForMaskedLM_bert_encoder_layer_s23_BertLayer_attention_output_dense_weight: Tensor[(1024, 1024), float32], %BertForMaskedLM_bert_encoder_layer_s23_BertLayer_attention_output_dense_bias: Tensor[(1024), float32], %BertForMaskedLM_bert_encoder_layer_s23_BertLayer_attention_output_layer_norm_weight: Tensor[(1024), float32], %BertForMaskedLM_bert_encoder_layer_s23_BertLayer_attention_output_layer_norm_bias: Tensor[(1024), float32], %BertForMaskedLM_bert_encoder_layer_s23_BertLayer_intermediate_dense_weight: Tensor[(4096, 1024), float32], %BertForMaskedLM_bert_encoder_layer_s23_BertLayer_intermediate_dense_bias: Tensor[(4096), float32], %BertForMaskedLM_bert_encoder_layer_s23_BertLayer_output_dense_weight: Tensor[(1024, 4096), float32], %BertForMaskedLM_bert_encoder_layer_s23_BertLayer_output_dense_bias: Tensor[(1024), float32], %BertForMaskedLM_bert_encoder_layer_s23_BertLayer_output_layer_norm_weight: Tensor[(1024), float32], %BertForMaskedLM_bert_encoder_layer_s23_BertLayer_output_layer_norm_bias: Tensor[(1024), float32], %BertForMaskedLM_cls_transform_dense_weight: Tensor[(1024, 1024), float32], %BertForMaskedLM_cls_transform_dense_bias: Tensor[(1024), float32], %BertForMaskedLM_cls_transform_layer_norm_weight: Tensor[(1024), float32], %BertForMaskedLM_cls_transform_layer_norm_bias: Tensor[(1024), float32], %BertForMaskedLM_cls_bias: Tensor[(30528), float32]) -> (float32, (Tensor[(16, 128), int32], Tensor[(16, 128), int32], Tensor[(16, 128), int32], Tensor[(16, 128), int32], Tensor[(30528, 1024), float32], Tensor[(512, 1024), float32], Tensor[(2, 1024), float32], Tensor[(1024), float32], Tensor[(1024), float32], Tensor[(1024, 1024), float32], Tensor[(1024), float32], Tensor[(1024, 1024), float32], Tensor[(1024), float32], Tensor[(1024, 1024), float32], Tensor[(1024), float32], Tensor[(1024, 1024), float32], Tensor[(1024), float32], Tensor[(1024), float32], Tensor[(1024), float32], Tensor[(4096, 1024), float32], Tensor[(4096), float32], Tensor[(1024, 4096), float32], Tensor[(1024), float32], Tensor[(1024), float32], Tensor[(1024), float32], Tensor[(1024, 1024), float32], Tensor[(1024), float32], Tensor[(1024, 1024), float32], Tensor[(1024), float32], Tensor[(1024, 1024), float32], Tensor[(1024), float32], Tensor[(1024, 1024), float32], Tensor[(1024), float32], Tensor[(1024), float32], Tensor[(1024), float32], Tensor[(4096, 1024), float32], Tensor[(4096), float32], Tensor[(1024, 4096), float32], Tensor[(1024), float32], Tensor[(1024), float32], Tensor[(1024), float32], Tensor[(1024, 1024), float32], Tensor[(1024), float32], Tensor[(1024, 1024), float32], Tensor[(1024), float32], Tensor[(1024, 1024), float32], Tensor[(1024), float32], Tensor[(1024, 1024), float32], Tensor[(1024), float32], Tensor[(1024), float32], Tensor[(1024), float32], Tensor[(4096, 1024), float32], Tensor[(4096), float32], Tensor[(1024, 4096), float32], Tensor[(1024), float32], Tensor[(1024), float32], Tensor[(1024), float32], Tensor[(1024, 1024), float32], Tensor[(1024), float32], Tensor[(1024, 1024), float32], Tensor[(1024), float32], Tensor[(1024, 1024), float32], Tensor[(1024), float32], Tensor[(1024, 1024), float32], Tensor[(1024), float32], Tensor[(1024), float32], Tensor[(1024), float32], Tensor[(4096, 1024), float32], Tensor[(4096), float32], Tensor[(1024, 4096), float32], Tensor[(1024), float32], Tensor[(1024), float32], Tensor[(1024), float32], Tensor[(1024, 1024), float32], Tensor[(1024), float32], Tensor[(1024, 1024), float32], Tensor[(1024), float32], Tensor[(1024, 1024), float32], Tensor[(1024), float32], Tensor[(1024, 1024), float32], Tensor[(1024), float32], Tensor[(1024), float32], Tensor[(1024), float32], Tensor[(4096, 1024), float32], Tensor[(4096), float32], Tensor[(1024, 4096), float32], Tensor[(1024), float32], Tensor[(1024), float32], Tensor[(1024), float32], Tensor[(1024, 1024), float32], Tensor[(1024), float32], Tensor[(1024, 1024), float32], Tensor[(1024), float32], Tensor[(1024, 1024), float32], Tensor[(1024), float32], Tensor[(1024, 1024), float32], Tensor[(1024), float32], Tensor[(1024), float32], Tensor[(1024), float32], Tensor[(4096, 1024), float32], Tensor[(4096), float32], Tensor[(1024, 4096), float32], Tensor[(1024), float32], Tensor[(1024), float32], Tensor[(1024), float32], Tensor[(1024, 1024), float32], Tensor[(1024), float32], Tensor[(1024, 1024), float32], Tensor[(1024), float32], Tensor[(1024, 1024), float32], Tensor[(1024), float32], Tensor[(1024, 1024), float32], Tensor[(1024), float32], Tensor[(1024), float32], Tensor[(1024), float32], Tensor[(4096, 1024), float32], Tensor[(4096), float32], Tensor[(1024, 4096), float32], Tensor[(1024), float32], Tensor[(1024), float32], Tensor[(1024), float32], Tensor[(1024, 1024), float32], Tensor[(1024), float32], Tensor[(1024, 1024), float32], Tensor[(1024), float32], Tensor[(1024, 1024), float32], Tensor[(1024), float32], Tensor[(1024, 1024), float32], Tensor[(1024), float32], Tensor[(1024), float32], Tensor[(1024), float32], Tensor[(4096, 1024), float32], Tensor[(4096), float32], Tensor[(1024, 4096), float32], Tensor[(1024), float32], Tensor[(1024), float32], Tensor[(1024), float32], Tensor[(1024, 1024), float32], Tensor[(1024), float32], Tensor[(1024, 1024), float32], Tensor[(1024), float32], Tensor[(1024, 1024), float32], Tensor[(1024), float32], Tensor[(1024, 1024), float32], Tensor[(1024), float32], Tensor[(1024), float32], Tensor[(1024), float32], Tensor[(4096, 1024), float32], Tensor[(4096), float32], Tensor[(1024, 4096), float32], Tensor[(1024), float32], Tensor[(1024), float32], Tensor[(1024), float32], Tensor[(1024, 1024), float32], Tensor[(1024), float32], Tensor[(1024, 1024), float32], Tensor[(1024), float32], Tensor[(1024, 1024), float32], Tensor[(1024), float32], Tensor[(1024, 1024), float32], Tensor[(1024), float32], Tensor[(1024), float32], Tensor[(1024), float32], Tensor[(4096, 1024), float32], Tensor[(4096), float32], Tensor[(1024, 4096), float32], Tensor[(1024), float32], Tensor[(1024), float32], Tensor[(1024), float32], Tensor[(1024, 1024), float32], Tensor[(1024), float32], Tensor[(1024, 1024), float32], Tensor[(1024), float32], Tensor[(1024, 1024), float32], Tensor[(1024), float32], Tensor[(1024, 1024), float32], Tensor[(1024), float32], Tensor[(1024), float32], Tensor[(1024), float32], Tensor[(4096, 1024), float32], Tensor[(4096), float32], Tensor[(1024, 4096), float32], Tensor[(1024), float32], Tensor[(1024), float32], Tensor[(1024), float32], Tensor[(1024, 1024), float32], Tensor[(1024), float32], Tensor[(1024, 1024), float32], Tensor[(1024), float32], Tensor[(1024, 1024), float32], Tensor[(1024), float32], Tensor[(1024, 1024), float32], Tensor[(1024), float32], Tensor[(1024), float32], Tensor[(1024), float32], Tensor[(4096, 1024), float32], Tensor[(4096), float32], Tensor[(1024, 4096), float32], Tensor[(1024), float32], Tensor[(1024), float32], Tensor[(1024), float32], Tensor[(1024, 1024), float32], Tensor[(1024), float32], Tensor[(1024, 1024), float32], Tensor[(1024), float32], Tensor[(1024, 1024), float32], Tensor[(1024), float32], Tensor[(1024, 1024), float32], Tensor[(1024), float32], Tensor[(1024), float32], Tensor[(1024), float32], Tensor[(4096, 1024), float32], Tensor[(4096), float32], Tensor[(1024, 4096), float32], Tensor[(1024), float32], Tensor[(1024), float32], Tensor[(1024), float32], Tensor[(1024, 1024), float32], Tensor[(1024), float32], Tensor[(1024, 1024), float32], Tensor[(1024), float32], Tensor[(1024, 1024), float32], Tensor[(1024), float32], Tensor[(1024, 1024), float32], Tensor[(1024), float32], Tensor[(1024), float32], Tensor[(1024), float32], Tensor[(4096, 1024), float32], Tensor[(4096), float32], Tensor[(1024, 4096), float32], Tensor[(1024), float32], Tensor[(1024), float32], Tensor[(1024), float32], Tensor[(1024, 1024), float32], Tensor[(1024), float32], Tensor[(1024, 1024), float32], Tensor[(1024), float32], Tensor[(1024, 1024), float32], Tensor[(1024), float32], Tensor[(1024, 1024), float32], Tensor[(1024), float32], Tensor[(1024), float32], Tensor[(1024), float32], Tensor[(4096, 1024), float32], Tensor[(4096), float32], Tensor[(1024, 4096), float32], Tensor[(1024), float32], Tensor[(1024), float32], Tensor[(1024), float32], Tensor[(1024, 1024), float32], Tensor[(1024), float32], Tensor[(1024, 1024), float32], Tensor[(1024), float32], Tensor[(1024, 1024), float32], Tensor[(1024), float32], Tensor[(1024, 1024), float32], Tensor[(1024), float32], Tensor[(1024), float32], Tensor[(1024), float32], Tensor[(4096, 1024), float32], Tensor[(4096), float32], Tensor[(1024, 4096), float32], Tensor[(1024), float32], Tensor[(1024), float32], Tensor[(1024), float32], Tensor[(1024, 1024), float32], Tensor[(1024), float32], Tensor[(1024, 1024), float32], Tensor[(1024), float32], Tensor[(1024, 1024), float32], Tensor[(1024), float32], Tensor[(1024, 1024), float32], Tensor[(1024), float32], Tensor[(1024), float32], Tensor[(1024), float32], Tensor[(4096, 1024), float32], Tensor[(4096), float32], Tensor[(1024, 4096), float32], Tensor[(1024), float32], Tensor[(1024), float32], Tensor[(1024), float32], Tensor[(1024, 1024), float32], Tensor[(1024), float32], Tensor[(1024, 1024), float32], Tensor[(1024), float32], Tensor[(1024, 1024), float32], Tensor[(1024), float32], Tensor[(1024, 1024), float32], Tensor[(1024), float32], Tensor[(1024), float32], Tensor[(1024), float32], Tensor[(4096, 1024), float32], Tensor[(4096), float32], Tensor[(1024, 4096), float32], Tensor[(1024), float32], Tensor[(1024), float32], Tensor[(1024), float32], Tensor[(1024, 1024), float32], Tensor[(1024), float32], Tensor[(1024, 1024), float32], Tensor[(1024), float32], Tensor[(1024, 1024), float32], Tensor[(1024), float32], Tensor[(1024, 1024), float32], Tensor[(1024), float32], Tensor[(1024), float32], Tensor[(1024), float32], Tensor[(4096, 1024), float32], Tensor[(4096), float32], Tensor[(1024, 4096), float32], Tensor[(1024), float32], Tensor[(1024), float32], Tensor[(1024), float32], Tensor[(1024, 1024), float32], Tensor[(1024), float32], Tensor[(1024, 1024), float32], Tensor[(1024), float32], Tensor[(1024, 1024), float32], Tensor[(1024), float32], Tensor[(1024, 1024), float32], Tensor[(1024), float32], Tensor[(1024), float32], Tensor[(1024), float32], Tensor[(4096, 1024), float32], Tensor[(4096), float32], Tensor[(1024, 4096), float32], Tensor[(1024), float32], Tensor[(1024), float32], Tensor[(1024), float32], Tensor[(1024, 1024), float32], Tensor[(1024), float32], Tensor[(1024, 1024), float32], Tensor[(1024), float32], Tensor[(1024, 1024), float32], Tensor[(1024), float32], Tensor[(1024, 1024), float32], Tensor[(1024), float32], Tensor[(1024), float32], Tensor[(1024), float32], Tensor[(4096, 1024), float32], Tensor[(4096), float32], Tensor[(1024, 4096), float32], Tensor[(1024), float32], Tensor[(1024), float32], Tensor[(1024), float32], Tensor[(1024, 1024), float32], Tensor[(1024), float32], Tensor[(1024, 1024), float32], Tensor[(1024), float32], Tensor[(1024, 1024), float32], Tensor[(1024), float32], Tensor[(1024, 1024), float32], Tensor[(1024), float32], Tensor[(1024), float32], Tensor[(1024), float32], Tensor[(4096, 1024), float32], Tensor[(4096), float32], Tensor[(1024, 4096), float32], Tensor[(1024), float32], Tensor[(1024), float32], Tensor[(1024), float32], Tensor[(1024, 1024), float32], Tensor[(1024), float32], Tensor[(1024, 1024), float32], Tensor[(1024), float32], Tensor[(1024, 1024), float32], Tensor[(1024), float32], Tensor[(1024, 1024), float32], Tensor[(1024), float32], Tensor[(1024), float32], Tensor[(1024), float32], Tensor[(4096, 1024), float32], Tensor[(4096), float32], Tensor[(1024, 4096), float32], Tensor[(1024), float32], Tensor[(1024), float32], Tensor[(1024), float32], Tensor[(1024, 1024), float32], Tensor[(1024), float32], Tensor[(1024, 1024), float32], Tensor[(1024), float32], Tensor[(1024, 1024), float32], Tensor[(1024), float32], Tensor[(1024, 1024), float32], Tensor[(1024), float32], Tensor[(1024), float32], Tensor[(1024), float32], Tensor[(4096, 1024), float32], Tensor[(4096), float32], Tensor[(1024, 4096), float32], Tensor[(1024), float32], Tensor[(1024), float32], Tensor[(1024), float32], Tensor[(1024, 1024), float32], Tensor[(1024), float32], Tensor[(1024), float32], Tensor[(1024), float32], Tensor[(30528), float32])) {
  %0 = reshape(%input0, newshape=[-1]) /* ty=Tensor[(2048), int32] */;
  %1 = nn.embedding(%BertForMaskedLM_bert_embeddings_word_emb_weight, %0) /* ty=Tensor[(2048, 1024), float32] */;
  %2 = reshape(meta[relay.Constant][0] /* ty=Tensor[(16, 128), int32] */, newshape=[-1]) /* ty=Tensor[(2048), int32] */;
  %3 = nn.embedding(%BertForMaskedLM_bert_embeddings_pos_emb_weight, %2) /* ty=Tensor[(2048, 1024), float32] */;
  %4 = reshape(%1, newshape=[16, 128, 1024]) /* ty=Tensor[(16, 128, 1024), float32] */;
  %5 = reshape(%3, newshape=[16, 128, 1024]) /* ty=Tensor[(16, 128, 1024), float32] */;
  %6 = reshape(%input1, newshape=[-1]) /* ty=Tensor[(2048), int32] */;
  %7 = nn.embedding(%BertForMaskedLM_bert_embeddings_type_emb_weight, %6) /* ty=Tensor[(2048, 1024), float32] */;
  %8 = add(%4, %5) /* ty=Tensor[(16, 128, 1024), float32] */;
  %9 = reshape(%7, newshape=[16, 128, 1024]) /* ty=Tensor[(16, 128, 1024), float32] */;
  %10 = add(%8, %9) /* ty=Tensor[(16, 128, 1024), float32] */;
  %11 = mean(%10, axis=[-1], keepdims=True) /* ty=Tensor[(16, 128, 1), float32] */;
  %12 = variance(%10, %11, axis=[-1], keepdims=True) /* ty=Tensor[(16, 128, 1), float32] */;
  %13 = (%11, %12);
  %14 = %13.0;
  %15 = %13.1;
  %16 = add(%15, 1e-12f /* ty=float32 */) /* ty=Tensor[(16, 128, 1), float32] */;
  %17 = subtract(%10, %14) /* ty=Tensor[(16, 128, 1024), float32] */;
  %18 = sqrt(%16) /* ty=Tensor[(16, 128, 1), float32] */;
  %19 = divide(%17, %18) /* ty=Tensor[(16, 128, 1024), float32] */;
  %20 = multiply(%BertForMaskedLM_bert_embeddings_layer_norm_weight, %19) /* ty=Tensor[(16, 128, 1024), float32] */;
  %21 = add(%20, %BertForMaskedLM_bert_embeddings_layer_norm_bias) /* ty=Tensor[(16, 128, 1024), float32] */;
  %22 = contrib_reverse_reshape(%21, newshape=[-1, 0]) /* ty=Tensor[(2048, 1024), float32] */;
  %23 = nn.dense(%22, %BertForMaskedLM_bert_encoder_layer_s0_BertLayer_attention_self_attention_query_weight, units=None) /* ty=Tensor[(2048, 1024), float32] */;
  %24 = reshape(%23, newshape=[16, 128, 1024]) /* ty=Tensor[(16, 128, 1024), float32] */;
  %25 = nn.bias_add(%24, %BertForMaskedLM_bert_encoder_layer_s0_BertLayer_attention_self_attention_query_bias, axis=-1) /* ty=Tensor[(16, 128, 1024), float32] */;
  %26 = reshape(%25, newshape=[0, 0, -4, 16, 64]) /* ty=Tensor[(16, 128, 16, 64), float32] */;
  %27 = transpose(%26, axes=[0, 2, 1, 3]) /* ty=Tensor[(16, 16, 128, 64), float32] */;
  %28 = contrib_reverse_reshape(%21, newshape=[-1, 0]) /* ty=Tensor[(2048, 1024), float32] */;
  %29 = nn.dense(%28, %BertForMaskedLM_bert_encoder_layer_s0_BertLayer_attention_self_attention_key_weight, units=None) /* ty=Tensor[(2048, 1024), float32] */;
  %30 = reshape(%29, newshape=[16, 128, 1024]) /* ty=Tensor[(16, 128, 1024), float32] */;
  %31 = nn.bias_add(%30, %BertForMaskedLM_bert_encoder_layer_s0_BertLayer_attention_self_attention_key_bias, axis=-1) /* ty=Tensor[(16, 128, 1024), float32] */;
  %32 = reshape(%31, newshape=[0, 0, -4, 16, 64]) /* ty=Tensor[(16, 128, 16, 64), float32] */;
  %33 = transpose(%32, axes=[0, 2, 1, 3]) /* ty=Tensor[(16, 16, 128, 64), float32] */;
  %34 = contrib_reverse_reshape(%27, newshape=[-1, 0, 0]) /* ty=Tensor[(256, 128, 64), float32] */;
  %35 = contrib_reverse_reshape(%33, newshape=[-1, 0, 0]) /* ty=Tensor[(256, 128, 64), float32] */;
  %36 = nn.batch_matmul(%34, %35, meta[relay.attrs.BatchMatmulAttrs][0]) /* ty=Tensor[(256, 128, 128), float32] */;
  %37 = divide(%36, 8f /* ty=float32 */) /* ty=Tensor[(256, 128, 128), float32] */;
  %38 = expand_dims(%input2, axis=1, num_newaxis=2) /* ty=Tensor[(16, 1, 1, 128), int32] */;
  %39 = cast(%38, dtype="float32") /* ty=Tensor[(16, 1, 1, 128), float32] */;
  %40 = subtract(1f /* ty=float32 */, %39) /* ty=Tensor[(16, 1, 1, 128), float32] */;
  %41 = contrib_reverse_reshape(%37, newshape=[-1, 16, 0, 0]) /* ty=Tensor[(16, 16, 128, 128), float32] */;
  %42 = multiply(%40, -10000f /* ty=float32 */) /* ty=Tensor[(16, 1, 1, 128), float32] */;
  %43 = add(%41, %42) /* ty=Tensor[(16, 16, 128, 128), float32] */;
  %44 = contrib_reverse_reshape(%43, newshape=[-1, 0, 0]) /* ty=Tensor[(256, 128, 128), float32] */;
  %45 = contrib_reverse_reshape(%21, newshape=[-1, 0]) /* ty=Tensor[(2048, 1024), float32] */;
  %46 = nn.dense(%45, %BertForMaskedLM_bert_encoder_layer_s0_BertLayer_attention_self_attention_value_weight, units=None) /* ty=Tensor[(2048, 1024), float32] */;
  %47 = reshape(%46, newshape=[16, 128, 1024]) /* ty=Tensor[(16, 128, 1024), float32] */;
  %48 = nn.bias_add(%47, %BertForMaskedLM_bert_encoder_layer_s0_BertLayer_attention_self_attention_value_bias, axis=-1) /* ty=Tensor[(16, 128, 1024), float32] */;
  %49 = reshape(%48, newshape=[0, 0, -4, 16, 64]) /* ty=Tensor[(16, 128, 16, 64), float32] */;
  %50 = transpose(%49, axes=[0, 2, 3, 1]) /* ty=Tensor[(16, 16, 64, 128), float32] */;
  %51 = nn.softmax(%44) /* ty=Tensor[(256, 128, 128), float32] */;
  %52 = contrib_reverse_reshape(%50, newshape=[-1, 0, 0]) /* ty=Tensor[(256, 64, 128), float32] */;
  %53 = nn.batch_matmul(%51, %52, meta[relay.attrs.BatchMatmulAttrs][1]) /* ty=Tensor[(256, 128, 64), float32] */;
  %54 = contrib_reverse_reshape(%53, newshape=[-1, 16, 0, 0]) /* ty=Tensor[(16, 16, 128, 64), float32] */;
  %55 = transpose(%54, axes=[0, 2, 1, 3]) /* ty=Tensor[(16, 128, 16, 64), float32] */;
  %56 = reshape(%55, newshape=[2048, 1024]) /* ty=Tensor[(2048, 1024), float32] */;
  %57 = nn.dense(%56, %BertForMaskedLM_bert_encoder_layer_s0_BertLayer_attention_output_dense_weight, units=None) /* ty=Tensor[(2048, 1024), float32] */;
  %58 = reshape(%57, newshape=[16, 128, 1024]) /* ty=Tensor[(16, 128, 1024), float32] */;
  %59 = nn.bias_add(%58, %BertForMaskedLM_bert_encoder_layer_s0_BertLayer_attention_output_dense_bias, axis=-1) /* ty=Tensor[(16, 128, 1024), float32] */;
  %60 = add(%59, %21) /* ty=Tensor[(16, 128, 1024), float32] */;
  %61 = mean(%60, axis=[-1], keepdims=True) /* ty=Tensor[(16, 128, 1), float32] */;
  %62 = variance(%60, %61, axis=[-1], keepdims=True) /* ty=Tensor[(16, 128, 1), float32] */;
  %63 = (%61, %62);
  %64 = %63.0;
  %65 = %63.1;
  %66 = add(%65, 1e-12f /* ty=float32 */) /* ty=Tensor[(16, 128, 1), float32] */;
  %67 = subtract(%60, %64) /* ty=Tensor[(16, 128, 1024), float32] */;
  %68 = sqrt(%66) /* ty=Tensor[(16, 128, 1), float32] */;
  %69 = divide(%67, %68) /* ty=Tensor[(16, 128, 1024), float32] */;
  %70 = multiply(%BertForMaskedLM_bert_encoder_layer_s0_BertLayer_attention_output_layer_norm_weight, %69) /* ty=Tensor[(16, 128, 1024), float32] */;
  %71 = add(%70, %BertForMaskedLM_bert_encoder_layer_s0_BertLayer_attention_output_layer_norm_bias) /* ty=Tensor[(16, 128, 1024), float32] */;
  %72 = contrib_reverse_reshape(%71, newshape=[-1, 0]) /* ty=Tensor[(2048, 1024), float32] */;
  %73 = nn.dense(%72, %BertForMaskedLM_bert_encoder_layer_s0_BertLayer_intermediate_dense_weight, units=None) /* ty=Tensor[(2048, 4096), float32] */;
  %74 = reshape(%73, newshape=[16, 128, 4096]) /* ty=Tensor[(16, 128, 4096), float32] */;
  %75 = nn.bias_add(%74, %BertForMaskedLM_bert_encoder_layer_s0_BertLayer_intermediate_dense_bias, axis=-1) /* ty=Tensor[(16, 128, 4096), float32] */;
  %76 = divide(%75, 1.41421f /* ty=float32 */) /* ty=Tensor[(16, 128, 4096), float32] */;
  %77 = erf(%76) /* ty=Tensor[(16, 128, 4096), float32] */;
  %78 = multiply(%75, 0.5f /* ty=float32 */) /* ty=Tensor[(16, 128, 4096), float32] */;
  %79 = add(%77, 1f /* ty=float32 */) /* ty=Tensor[(16, 128, 4096), float32] */;
  %80 = multiply(%78, %79) /* ty=Tensor[(16, 128, 4096), float32] */;
  %81 = contrib_reverse_reshape(%80, newshape=[-1, 0]) /* ty=Tensor[(2048, 4096), float32] */;
  %82 = nn.dense(%81, %BertForMaskedLM_bert_encoder_layer_s0_BertLayer_output_dense_weight, units=None) /* ty=Tensor[(2048, 1024), float32] */;
  %83 = reshape(%82, newshape=[16, 128, 1024]) /* ty=Tensor[(16, 128, 1024), float32] */;
  %84 = nn.bias_add(%83, %BertForMaskedLM_bert_encoder_layer_s0_BertLayer_output_dense_bias, axis=-1) /* ty=Tensor[(16, 128, 1024), float32] */;
  %85 = add(%84, %71) /* ty=Tensor[(16, 128, 1024), float32] */;
  %86 = mean(%85, axis=[-1], keepdims=True) /* ty=Tensor[(16, 128, 1), float32] */;
  %87 = variance(%85, %86, axis=[-1], keepdims=True) /* ty=Tensor[(16, 128, 1), float32] */;
  %88 = (%86, %87);
  %89 = %88.0;
  %90 = %88.1;
  %91 = add(%90, 1e-12f /* ty=float32 */) /* ty=Tensor[(16, 128, 1), float32] */;
  %92 = subtract(%85, %89) /* ty=Tensor[(16, 128, 1024), float32] */;
  %93 = sqrt(%91) /* ty=Tensor[(16, 128, 1), float32] */;
  %94 = divide(%92, %93) /* ty=Tensor[(16, 128, 1024), float32] */;
  %95 = multiply(%BertForMaskedLM_bert_encoder_layer_s0_BertLayer_output_layer_norm_weight, %94) /* ty=Tensor[(16, 128, 1024), float32] */;
  %96 = add(%95, %BertForMaskedLM_bert_encoder_layer_s0_BertLayer_output_layer_norm_bias) /* ty=Tensor[(16, 128, 1024), float32] */;
  %97 = contrib_reverse_reshape(%96, newshape=[-1, 0]) /* ty=Tensor[(2048, 1024), float32] */;
  %98 = nn.dense(%97, %BertForMaskedLM_bert_encoder_layer_s1_BertLayer_attention_self_attention_query_weight, units=None) /* ty=Tensor[(2048, 1024), float32] */;
  %99 = reshape(%98, newshape=[16, 128, 1024]) /* ty=Tensor[(16, 128, 1024), float32] */;
  %100 = nn.bias_add(%99, %BertForMaskedLM_bert_encoder_layer_s1_BertLayer_attention_self_attention_query_bias, axis=-1) /* ty=Tensor[(16, 128, 1024), float32] */;
  %101 = reshape(%100, newshape=[0, 0, -4, 16, 64]) /* ty=Tensor[(16, 128, 16, 64), float32] */;
  %102 = transpose(%101, axes=[0, 2, 1, 3]) /* ty=Tensor[(16, 16, 128, 64), float32] */;
  %103 = contrib_reverse_reshape(%96, newshape=[-1, 0]) /* ty=Tensor[(2048, 1024), float32] */;
  %104 = nn.dense(%103, %BertForMaskedLM_bert_encoder_layer_s1_BertLayer_attention_self_attention_key_weight, units=None) /* ty=Tensor[(2048, 1024), float32] */;
  %105 = reshape(%104, newshape=[16, 128, 1024]) /* ty=Tensor[(16, 128, 1024), float32] */;
  %106 = nn.bias_add(%105, %BertForMaskedLM_bert_encoder_layer_s1_BertLayer_attention_self_attention_key_bias, axis=-1) /* ty=Tensor[(16, 128, 1024), float32] */;
  %107 = reshape(%106, newshape=[0, 0, -4, 16, 64]) /* ty=Tensor[(16, 128, 16, 64), float32] */;
  %108 = transpose(%107, axes=[0, 2, 1, 3]) /* ty=Tensor[(16, 16, 128, 64), float32] */;
  %109 = contrib_reverse_reshape(%102, newshape=[-1, 0, 0]) /* ty=Tensor[(256, 128, 64), float32] */;
  %110 = contrib_reverse_reshape(%108, newshape=[-1, 0, 0]) /* ty=Tensor[(256, 128, 64), float32] */;
  %111 = nn.batch_matmul(%109, %110, meta[relay.attrs.BatchMatmulAttrs][2]) /* ty=Tensor[(256, 128, 128), float32] */;
  %112 = divide(%111, 8f /* ty=float32 */) /* ty=Tensor[(256, 128, 128), float32] */;
  %113 = contrib_reverse_reshape(%112, newshape=[-1, 16, 0, 0]) /* ty=Tensor[(16, 16, 128, 128), float32] */;
  %114 = add(%113, %42) /* ty=Tensor[(16, 16, 128, 128), float32] */;
  %115 = contrib_reverse_reshape(%114, newshape=[-1, 0, 0]) /* ty=Tensor[(256, 128, 128), float32] */;
  %116 = contrib_reverse_reshape(%96, newshape=[-1, 0]) /* ty=Tensor[(2048, 1024), float32] */;
  %117 = nn.dense(%116, %BertForMaskedLM_bert_encoder_layer_s1_BertLayer_attention_self_attention_value_weight, units=None) /* ty=Tensor[(2048, 1024), float32] */;
  %118 = reshape(%117, newshape=[16, 128, 1024]) /* ty=Tensor[(16, 128, 1024), float32] */;
  %119 = nn.bias_add(%118, %BertForMaskedLM_bert_encoder_layer_s1_BertLayer_attention_self_attention_value_bias, axis=-1) /* ty=Tensor[(16, 128, 1024), float32] */;
  %120 = reshape(%119, newshape=[0, 0, -4, 16, 64]) /* ty=Tensor[(16, 128, 16, 64), float32] */;
  %121 = transpose(%120, axes=[0, 2, 3, 1]) /* ty=Tensor[(16, 16, 64, 128), float32] */;
  %122 = nn.softmax(%115) /* ty=Tensor[(256, 128, 128), float32] */;
  %123 = contrib_reverse_reshape(%121, newshape=[-1, 0, 0]) /* ty=Tensor[(256, 64, 128), float32] */;
  %124 = nn.batch_matmul(%122, %123, meta[relay.attrs.BatchMatmulAttrs][3]) /* ty=Tensor[(256, 128, 64), float32] */;
  %125 = contrib_reverse_reshape(%124, newshape=[-1, 16, 0, 0]) /* ty=Tensor[(16, 16, 128, 64), float32] */;
  %126 = transpose(%125, axes=[0, 2, 1, 3]) /* ty=Tensor[(16, 128, 16, 64), float32] */;
  %127 = reshape(%126, newshape=[2048, 1024]) /* ty=Tensor[(2048, 1024), float32] */;
  %128 = nn.dense(%127, %BertForMaskedLM_bert_encoder_layer_s1_BertLayer_attention_output_dense_weight, units=None) /* ty=Tensor[(2048, 1024), float32] */;
  %129 = reshape(%128, newshape=[16, 128, 1024]) /* ty=Tensor[(16, 128, 1024), float32] */;
  %130 = nn.bias_add(%129, %BertForMaskedLM_bert_encoder_layer_s1_BertLayer_attention_output_dense_bias, axis=-1) /* ty=Tensor[(16, 128, 1024), float32] */;
  %131 = add(%130, %96) /* ty=Tensor[(16, 128, 1024), float32] */;
  %132 = mean(%131, axis=[-1], keepdims=True) /* ty=Tensor[(16, 128, 1), float32] */;
  %133 = variance(%131, %132, axis=[-1], keepdims=True) /* ty=Tensor[(16, 128, 1), float32] */;
  %134 = (%132, %133);
  %135 = %134.0;
  %136 = %134.1;
  %137 = add(%136, 1e-12f /* ty=float32 */) /* ty=Tensor[(16, 128, 1), float32] */;
  %138 = subtract(%131, %135) /* ty=Tensor[(16, 128, 1024), float32] */;
  %139 = sqrt(%137) /* ty=Tensor[(16, 128, 1), float32] */;
  %140 = divide(%138, %139) /* ty=Tensor[(16, 128, 1024), float32] */;
  %141 = multiply(%BertForMaskedLM_bert_encoder_layer_s1_BertLayer_attention_output_layer_norm_weight, %140) /* ty=Tensor[(16, 128, 1024), float32] */;
  %142 = add(%141, %BertForMaskedLM_bert_encoder_layer_s1_BertLayer_attention_output_layer_norm_bias) /* ty=Tensor[(16, 128, 1024), float32] */;
  %143 = contrib_reverse_reshape(%142, newshape=[-1, 0]) /* ty=Tensor[(2048, 1024), float32] */;
  %144 = nn.dense(%143, %BertForMaskedLM_bert_encoder_layer_s1_BertLayer_intermediate_dense_weight, units=None) /* ty=Tensor[(2048, 4096), float32] */;
  %145 = reshape(%144, newshape=[16, 128, 4096]) /* ty=Tensor[(16, 128, 4096), float32] */;
  %146 = nn.bias_add(%145, %BertForMaskedLM_bert_encoder_layer_s1_BertLayer_intermediate_dense_bias, axis=-1) /* ty=Tensor[(16, 128, 4096), float32] */;
  %147 = divide(%146, 1.41421f /* ty=float32 */) /* ty=Tensor[(16, 128, 4096), float32] */;
  %148 = erf(%147) /* ty=Tensor[(16, 128, 4096), float32] */;
  %149 = multiply(%146, 0.5f /* ty=float32 */) /* ty=Tensor[(16, 128, 4096), float32] */;
  %150 = add(%148, 1f /* ty=float32 */) /* ty=Tensor[(16, 128, 4096), float32] */;
  %151 = multiply(%149, %150) /* ty=Tensor[(16, 128, 4096), float32] */;
  %152 = contrib_reverse_reshape(%151, newshape=[-1, 0]) /* ty=Tensor[(2048, 4096), float32] */;
  %153 = nn.dense(%152, %BertForMaskedLM_bert_encoder_layer_s1_BertLayer_output_dense_weight, units=None) /* ty=Tensor[(2048, 1024), float32] */;
  %154 = reshape(%153, newshape=[16, 128, 1024]) /* ty=Tensor[(16, 128, 1024), float32] */;
  %155 = nn.bias_add(%154, %BertForMaskedLM_bert_encoder_layer_s1_BertLayer_output_dense_bias, axis=-1) /* ty=Tensor[(16, 128, 1024), float32] */;
  %156 = add(%155, %142) /* ty=Tensor[(16, 128, 1024), float32] */;
  %157 = mean(%156, axis=[-1], keepdims=True) /* ty=Tensor[(16, 128, 1), float32] */;
  %158 = variance(%156, %157, axis=[-1], keepdims=True) /* ty=Tensor[(16, 128, 1), float32] */;
  %159 = (%157, %158);
  %160 = %159.0;
  %161 = %159.1;
  %162 = add(%161, 1e-12f /* ty=float32 */) /* ty=Tensor[(16, 128, 1), float32] */;
  %163 = subtract(%156, %160) /* ty=Tensor[(16, 128, 1024), float32] */;
  %164 = sqrt(%162) /* ty=Tensor[(16, 128, 1), float32] */;
  %165 = divide(%163, %164) /* ty=Tensor[(16, 128, 1024), float32] */;
  %166 = multiply(%BertForMaskedLM_bert_encoder_layer_s1_BertLayer_output_layer_norm_weight, %165) /* ty=Tensor[(16, 128, 1024), float32] */;
  %167 = add(%166, %BertForMaskedLM_bert_encoder_layer_s1_BertLayer_output_layer_norm_bias) /* ty=Tensor[(16, 128, 1024), float32] */;
  %168 = contrib_reverse_reshape(%167, newshape=[-1, 0]) /* ty=Tensor[(2048, 1024), float32] */;
  %169 = nn.dense(%168, %BertForMaskedLM_bert_encoder_layer_s2_BertLayer_attention_self_attention_query_weight, units=None) /* ty=Tensor[(2048, 1024), float32] */;
  %170 = reshape(%169, newshape=[16, 128, 1024]) /* ty=Tensor[(16, 128, 1024), float32] */;
  %171 = nn.bias_add(%170, %BertForMaskedLM_bert_encoder_layer_s2_BertLayer_attention_self_attention_query_bias, axis=-1) /* ty=Tensor[(16, 128, 1024), float32] */;
  %172 = reshape(%171, newshape=[0, 0, -4, 16, 64]) /* ty=Tensor[(16, 128, 16, 64), float32] */;
  %173 = transpose(%172, axes=[0, 2, 1, 3]) /* ty=Tensor[(16, 16, 128, 64), float32] */;
  %174 = contrib_reverse_reshape(%167, newshape=[-1, 0]) /* ty=Tensor[(2048, 1024), float32] */;
  %175 = nn.dense(%174, %BertForMaskedLM_bert_encoder_layer_s2_BertLayer_attention_self_attention_key_weight, units=None) /* ty=Tensor[(2048, 1024), float32] */;
  %176 = reshape(%175, newshape=[16, 128, 1024]) /* ty=Tensor[(16, 128, 1024), float32] */;
  %177 = nn.bias_add(%176, %BertForMaskedLM_bert_encoder_layer_s2_BertLayer_attention_self_attention_key_bias, axis=-1) /* ty=Tensor[(16, 128, 1024), float32] */;
  %178 = reshape(%177, newshape=[0, 0, -4, 16, 64]) /* ty=Tensor[(16, 128, 16, 64), float32] */;
  %179 = transpose(%178, axes=[0, 2, 1, 3]) /* ty=Tensor[(16, 16, 128, 64), float32] */;
  %180 = contrib_reverse_reshape(%173, newshape=[-1, 0, 0]) /* ty=Tensor[(256, 128, 64), float32] */;
  %181 = contrib_reverse_reshape(%179, newshape=[-1, 0, 0]) /* ty=Tensor[(256, 128, 64), float32] */;
  %182 = nn.batch_matmul(%180, %181, meta[relay.attrs.BatchMatmulAttrs][4]) /* ty=Tensor[(256, 128, 128), float32] */;
  %183 = divide(%182, 8f /* ty=float32 */) /* ty=Tensor[(256, 128, 128), float32] */;
  %184 = contrib_reverse_reshape(%183, newshape=[-1, 16, 0, 0]) /* ty=Tensor[(16, 16, 128, 128), float32] */;
  %185 = add(%184, %42) /* ty=Tensor[(16, 16, 128, 128), float32] */;
  %186 = contrib_reverse_reshape(%185, newshape=[-1, 0, 0]) /* ty=Tensor[(256, 128, 128), float32] */;
  %187 = contrib_reverse_reshape(%167, newshape=[-1, 0]) /* ty=Tensor[(2048, 1024), float32] */;
  %188 = nn.dense(%187, %BertForMaskedLM_bert_encoder_layer_s2_BertLayer_attention_self_attention_value_weight, units=None) /* ty=Tensor[(2048, 1024), float32] */;
  %189 = reshape(%188, newshape=[16, 128, 1024]) /* ty=Tensor[(16, 128, 1024), float32] */;
  %190 = nn.bias_add(%189, %BertForMaskedLM_bert_encoder_layer_s2_BertLayer_attention_self_attention_value_bias, axis=-1) /* ty=Tensor[(16, 128, 1024), float32] */;
  %191 = reshape(%190, newshape=[0, 0, -4, 16, 64]) /* ty=Tensor[(16, 128, 16, 64), float32] */;
  %192 = transpose(%191, axes=[0, 2, 3, 1]) /* ty=Tensor[(16, 16, 64, 128), float32] */;
  %193 = nn.softmax(%186) /* ty=Tensor[(256, 128, 128), float32] */;
  %194 = contrib_reverse_reshape(%192, newshape=[-1, 0, 0]) /* ty=Tensor[(256, 64, 128), float32] */;
  %195 = nn.batch_matmul(%193, %194, meta[relay.attrs.BatchMatmulAttrs][5]) /* ty=Tensor[(256, 128, 64), float32] */;
  %196 = contrib_reverse_reshape(%195, newshape=[-1, 16, 0, 0]) /* ty=Tensor[(16, 16, 128, 64), float32] */;
  %197 = transpose(%196, axes=[0, 2, 1, 3]) /* ty=Tensor[(16, 128, 16, 64), float32] */;
  %198 = reshape(%197, newshape=[2048, 1024]) /* ty=Tensor[(2048, 1024), float32] */;
  %199 = nn.dense(%198, %BertForMaskedLM_bert_encoder_layer_s2_BertLayer_attention_output_dense_weight, units=None) /* ty=Tensor[(2048, 1024), float32] */;
  %200 = reshape(%199, newshape=[16, 128, 1024]) /* ty=Tensor[(16, 128, 1024), float32] */;
  %201 = nn.bias_add(%200, %BertForMaskedLM_bert_encoder_layer_s2_BertLayer_attention_output_dense_bias, axis=-1) /* ty=Tensor[(16, 128, 1024), float32] */;
  %202 = add(%201, %167) /* ty=Tensor[(16, 128, 1024), float32] */;
  %203 = mean(%202, axis=[-1], keepdims=True) /* ty=Tensor[(16, 128, 1), float32] */;
  %204 = variance(%202, %203, axis=[-1], keepdims=True) /* ty=Tensor[(16, 128, 1), float32] */;
  %205 = (%203, %204);
  %206 = %205.0;
  %207 = %205.1;
  %208 = add(%207, 1e-12f /* ty=float32 */) /* ty=Tensor[(16, 128, 1), float32] */;
  %209 = subtract(%202, %206) /* ty=Tensor[(16, 128, 1024), float32] */;
  %210 = sqrt(%208) /* ty=Tensor[(16, 128, 1), float32] */;
  %211 = divide(%209, %210) /* ty=Tensor[(16, 128, 1024), float32] */;
  %212 = multiply(%BertForMaskedLM_bert_encoder_layer_s2_BertLayer_attention_output_layer_norm_weight, %211) /* ty=Tensor[(16, 128, 1024), float32] */;
  %213 = add(%212, %BertForMaskedLM_bert_encoder_layer_s2_BertLayer_attention_output_layer_norm_bias) /* ty=Tensor[(16, 128, 1024), float32] */;
  %214 = contrib_reverse_reshape(%213, newshape=[-1, 0]) /* ty=Tensor[(2048, 1024), float32] */;
  %215 = nn.dense(%214, %BertForMaskedLM_bert_encoder_layer_s2_BertLayer_intermediate_dense_weight, units=None) /* ty=Tensor[(2048, 4096), float32] */;
  %216 = reshape(%215, newshape=[16, 128, 4096]) /* ty=Tensor[(16, 128, 4096), float32] */;
  %217 = nn.bias_add(%216, %BertForMaskedLM_bert_encoder_layer_s2_BertLayer_intermediate_dense_bias, axis=-1) /* ty=Tensor[(16, 128, 4096), float32] */;
  %218 = divide(%217, 1.41421f /* ty=float32 */) /* ty=Tensor[(16, 128, 4096), float32] */;
  %219 = erf(%218) /* ty=Tensor[(16, 128, 4096), float32] */;
  %220 = multiply(%217, 0.5f /* ty=float32 */) /* ty=Tensor[(16, 128, 4096), float32] */;
  %221 = add(%219, 1f /* ty=float32 */) /* ty=Tensor[(16, 128, 4096), float32] */;
  %222 = multiply(%220, %221) /* ty=Tensor[(16, 128, 4096), float32] */;
  %223 = contrib_reverse_reshape(%222, newshape=[-1, 0]) /* ty=Tensor[(2048, 4096), float32] */;
  %224 = nn.dense(%223, %BertForMaskedLM_bert_encoder_layer_s2_BertLayer_output_dense_weight, units=None) /* ty=Tensor[(2048, 1024), float32] */;
  %225 = reshape(%224, newshape=[16, 128, 1024]) /* ty=Tensor[(16, 128, 1024), float32] */;
  %226 = nn.bias_add(%225, %BertForMaskedLM_bert_encoder_layer_s2_BertLayer_output_dense_bias, axis=-1) /* ty=Tensor[(16, 128, 1024), float32] */;
  %227 = add(%226, %213) /* ty=Tensor[(16, 128, 1024), float32] */;
  %228 = mean(%227, axis=[-1], keepdims=True) /* ty=Tensor[(16, 128, 1), float32] */;
  %229 = variance(%227, %228, axis=[-1], keepdims=True) /* ty=Tensor[(16, 128, 1), float32] */;
  %230 = (%228, %229);
  %231 = %230.0;
  %232 = %230.1;
  %233 = add(%232, 1e-12f /* ty=float32 */) /* ty=Tensor[(16, 128, 1), float32] */;
  %234 = subtract(%227, %231) /* ty=Tensor[(16, 128, 1024), float32] */;
  %235 = sqrt(%233) /* ty=Tensor[(16, 128, 1), float32] */;
  %236 = divide(%234, %235) /* ty=Tensor[(16, 128, 1024), float32] */;
  %237 = multiply(%BertForMaskedLM_bert_encoder_layer_s2_BertLayer_output_layer_norm_weight, %236) /* ty=Tensor[(16, 128, 1024), float32] */;
  %238 = add(%237, %BertForMaskedLM_bert_encoder_layer_s2_BertLayer_output_layer_norm_bias) /* ty=Tensor[(16, 128, 1024), float32] */;
  %239 = contrib_reverse_reshape(%238, newshape=[-1, 0]) /* ty=Tensor[(2048, 1024), float32] */;
  %240 = nn.dense(%239, %BertForMaskedLM_bert_encoder_layer_s3_BertLayer_attention_self_attention_query_weight, units=None) /* ty=Tensor[(2048, 1024), float32] */;
  %241 = reshape(%240, newshape=[16, 128, 1024]) /* ty=Tensor[(16, 128, 1024), float32] */;
  %242 = nn.bias_add(%241, %BertForMaskedLM_bert_encoder_layer_s3_BertLayer_attention_self_attention_query_bias, axis=-1) /* ty=Tensor[(16, 128, 1024), float32] */;
  %243 = reshape(%242, newshape=[0, 0, -4, 16, 64]) /* ty=Tensor[(16, 128, 16, 64), float32] */;
  %244 = transpose(%243, axes=[0, 2, 1, 3]) /* ty=Tensor[(16, 16, 128, 64), float32] */;
  %245 = contrib_reverse_reshape(%238, newshape=[-1, 0]) /* ty=Tensor[(2048, 1024), float32] */;
  %246 = nn.dense(%245, %BertForMaskedLM_bert_encoder_layer_s3_BertLayer_attention_self_attention_key_weight, units=None) /* ty=Tensor[(2048, 1024), float32] */;
  %247 = reshape(%246, newshape=[16, 128, 1024]) /* ty=Tensor[(16, 128, 1024), float32] */;
  %248 = nn.bias_add(%247, %BertForMaskedLM_bert_encoder_layer_s3_BertLayer_attention_self_attention_key_bias, axis=-1) /* ty=Tensor[(16, 128, 1024), float32] */;
  %249 = reshape(%248, newshape=[0, 0, -4, 16, 64]) /* ty=Tensor[(16, 128, 16, 64), float32] */;
  %250 = transpose(%249, axes=[0, 2, 1, 3]) /* ty=Tensor[(16, 16, 128, 64), float32] */;
  %251 = contrib_reverse_reshape(%244, newshape=[-1, 0, 0]) /* ty=Tensor[(256, 128, 64), float32] */;
  %252 = contrib_reverse_reshape(%250, newshape=[-1, 0, 0]) /* ty=Tensor[(256, 128, 64), float32] */;
  %253 = nn.batch_matmul(%251, %252, meta[relay.attrs.BatchMatmulAttrs][6]) /* ty=Tensor[(256, 128, 128), float32] */;
  %254 = divide(%253, 8f /* ty=float32 */) /* ty=Tensor[(256, 128, 128), float32] */;
  %255 = contrib_reverse_reshape(%254, newshape=[-1, 16, 0, 0]) /* ty=Tensor[(16, 16, 128, 128), float32] */;
  %256 = add(%255, %42) /* ty=Tensor[(16, 16, 128, 128), float32] */;
  %257 = contrib_reverse_reshape(%256, newshape=[-1, 0, 0]) /* ty=Tensor[(256, 128, 128), float32] */;
  %258 = contrib_reverse_reshape(%238, newshape=[-1, 0]) /* ty=Tensor[(2048, 1024), float32] */;
  %259 = nn.dense(%258, %BertForMaskedLM_bert_encoder_layer_s3_BertLayer_attention_self_attention_value_weight, units=None) /* ty=Tensor[(2048, 1024), float32] */;
  %260 = reshape(%259, newshape=[16, 128, 1024]) /* ty=Tensor[(16, 128, 1024), float32] */;
  %261 = nn.bias_add(%260, %BertForMaskedLM_bert_encoder_layer_s3_BertLayer_attention_self_attention_value_bias, axis=-1) /* ty=Tensor[(16, 128, 1024), float32] */;
  %262 = reshape(%261, newshape=[0, 0, -4, 16, 64]) /* ty=Tensor[(16, 128, 16, 64), float32] */;
  %263 = transpose(%262, axes=[0, 2, 3, 1]) /* ty=Tensor[(16, 16, 64, 128), float32] */;
  %264 = nn.softmax(%257) /* ty=Tensor[(256, 128, 128), float32] */;
  %265 = contrib_reverse_reshape(%263, newshape=[-1, 0, 0]) /* ty=Tensor[(256, 64, 128), float32] */;
  %266 = nn.batch_matmul(%264, %265, meta[relay.attrs.BatchMatmulAttrs][7]) /* ty=Tensor[(256, 128, 64), float32] */;
  %267 = contrib_reverse_reshape(%266, newshape=[-1, 16, 0, 0]) /* ty=Tensor[(16, 16, 128, 64), float32] */;
  %268 = transpose(%267, axes=[0, 2, 1, 3]) /* ty=Tensor[(16, 128, 16, 64), float32] */;
  %269 = reshape(%268, newshape=[2048, 1024]) /* ty=Tensor[(2048, 1024), float32] */;
  %270 = nn.dense(%269, %BertForMaskedLM_bert_encoder_layer_s3_BertLayer_attention_output_dense_weight, units=None) /* ty=Tensor[(2048, 1024), float32] */;
  %271 = reshape(%270, newshape=[16, 128, 1024]) /* ty=Tensor[(16, 128, 1024), float32] */;
  %272 = nn.bias_add(%271, %BertForMaskedLM_bert_encoder_layer_s3_BertLayer_attention_output_dense_bias, axis=-1) /* ty=Tensor[(16, 128, 1024), float32] */;
  %273 = add(%272, %238) /* ty=Tensor[(16, 128, 1024), float32] */;
  %274 = mean(%273, axis=[-1], keepdims=True) /* ty=Tensor[(16, 128, 1), float32] */;
  %275 = variance(%273, %274, axis=[-1], keepdims=True) /* ty=Tensor[(16, 128, 1), float32] */;
  %276 = (%274, %275);
  %277 = %276.0;
  %278 = %276.1;
  %279 = add(%278, 1e-12f /* ty=float32 */) /* ty=Tensor[(16, 128, 1), float32] */;
  %280 = subtract(%273, %277) /* ty=Tensor[(16, 128, 1024), float32] */;
  %281 = sqrt(%279) /* ty=Tensor[(16, 128, 1), float32] */;
  %282 = divide(%280, %281) /* ty=Tensor[(16, 128, 1024), float32] */;
  %283 = multiply(%BertForMaskedLM_bert_encoder_layer_s3_BertLayer_attention_output_layer_norm_weight, %282) /* ty=Tensor[(16, 128, 1024), float32] */;
  %284 = add(%283, %BertForMaskedLM_bert_encoder_layer_s3_BertLayer_attention_output_layer_norm_bias) /* ty=Tensor[(16, 128, 1024), float32] */;
  %285 = contrib_reverse_reshape(%284, newshape=[-1, 0]) /* ty=Tensor[(2048, 1024), float32] */;
  %286 = nn.dense(%285, %BertForMaskedLM_bert_encoder_layer_s3_BertLayer_intermediate_dense_weight, units=None) /* ty=Tensor[(2048, 4096), float32] */;
  %287 = reshape(%286, newshape=[16, 128, 4096]) /* ty=Tensor[(16, 128, 4096), float32] */;
  %288 = nn.bias_add(%287, %BertForMaskedLM_bert_encoder_layer_s3_BertLayer_intermediate_dense_bias, axis=-1) /* ty=Tensor[(16, 128, 4096), float32] */;
  %289 = divide(%288, 1.41421f /* ty=float32 */) /* ty=Tensor[(16, 128, 4096), float32] */;
  %290 = erf(%289) /* ty=Tensor[(16, 128, 4096), float32] */;
  %291 = multiply(%288, 0.5f /* ty=float32 */) /* ty=Tensor[(16, 128, 4096), float32] */;
  %292 = add(%290, 1f /* ty=float32 */) /* ty=Tensor[(16, 128, 4096), float32] */;
  %293 = multiply(%291, %292) /* ty=Tensor[(16, 128, 4096), float32] */;
  %294 = contrib_reverse_reshape(%293, newshape=[-1, 0]) /* ty=Tensor[(2048, 4096), float32] */;
  %295 = nn.dense(%294, %BertForMaskedLM_bert_encoder_layer_s3_BertLayer_output_dense_weight, units=None) /* ty=Tensor[(2048, 1024), float32] */;
  %296 = reshape(%295, newshape=[16, 128, 1024]) /* ty=Tensor[(16, 128, 1024), float32] */;
  %297 = nn.bias_add(%296, %BertForMaskedLM_bert_encoder_layer_s3_BertLayer_output_dense_bias, axis=-1) /* ty=Tensor[(16, 128, 1024), float32] */;
  %298 = add(%297, %284) /* ty=Tensor[(16, 128, 1024), float32] */;
  %299 = mean(%298, axis=[-1], keepdims=True) /* ty=Tensor[(16, 128, 1), float32] */;
  %300 = variance(%298, %299, axis=[-1], keepdims=True) /* ty=Tensor[(16, 128, 1), float32] */;
  %301 = (%299, %300);
  %302 = %301.0;
  %303 = %301.1;
  %304 = add(%303, 1e-12f /* ty=float32 */) /* ty=Tensor[(16, 128, 1), float32] */;
  %305 = subtract(%298, %302) /* ty=Tensor[(16, 128, 1024), float32] */;
  %306 = sqrt(%304) /* ty=Tensor[(16, 128, 1), float32] */;
  %307 = divide(%305, %306) /* ty=Tensor[(16, 128, 1024), float32] */;
  %308 = multiply(%BertForMaskedLM_bert_encoder_layer_s3_BertLayer_output_layer_norm_weight, %307) /* ty=Tensor[(16, 128, 1024), float32] */;
  %309 = add(%308, %BertForMaskedLM_bert_encoder_layer_s3_BertLayer_output_layer_norm_bias) /* ty=Tensor[(16, 128, 1024), float32] */;
  %310 = contrib_reverse_reshape(%309, newshape=[-1, 0]) /* ty=Tensor[(2048, 1024), float32] */;
  %311 = nn.dense(%310, %BertForMaskedLM_bert_encoder_layer_s4_BertLayer_attention_self_attention_query_weight, units=None) /* ty=Tensor[(2048, 1024), float32] */;
  %312 = reshape(%311, newshape=[16, 128, 1024]) /* ty=Tensor[(16, 128, 1024), float32] */;
  %313 = nn.bias_add(%312, %BertForMaskedLM_bert_encoder_layer_s4_BertLayer_attention_self_attention_query_bias, axis=-1) /* ty=Tensor[(16, 128, 1024), float32] */;
  %314 = reshape(%313, newshape=[0, 0, -4, 16, 64]) /* ty=Tensor[(16, 128, 16, 64), float32] */;
  %315 = transpose(%314, axes=[0, 2, 1, 3]) /* ty=Tensor[(16, 16, 128, 64), float32] */;
  %316 = contrib_reverse_reshape(%309, newshape=[-1, 0]) /* ty=Tensor[(2048, 1024), float32] */;
  %317 = nn.dense(%316, %BertForMaskedLM_bert_encoder_layer_s4_BertLayer_attention_self_attention_key_weight, units=None) /* ty=Tensor[(2048, 1024), float32] */;
  %318 = reshape(%317, newshape=[16, 128, 1024]) /* ty=Tensor[(16, 128, 1024), float32] */;
  %319 = nn.bias_add(%318, %BertForMaskedLM_bert_encoder_layer_s4_BertLayer_attention_self_attention_key_bias, axis=-1) /* ty=Tensor[(16, 128, 1024), float32] */;
  %320 = reshape(%319, newshape=[0, 0, -4, 16, 64]) /* ty=Tensor[(16, 128, 16, 64), float32] */;
  %321 = transpose(%320, axes=[0, 2, 1, 3]) /* ty=Tensor[(16, 16, 128, 64), float32] */;
  %322 = contrib_reverse_reshape(%315, newshape=[-1, 0, 0]) /* ty=Tensor[(256, 128, 64), float32] */;
  %323 = contrib_reverse_reshape(%321, newshape=[-1, 0, 0]) /* ty=Tensor[(256, 128, 64), float32] */;
  %324 = nn.batch_matmul(%322, %323, meta[relay.attrs.BatchMatmulAttrs][8]) /* ty=Tensor[(256, 128, 128), float32] */;
  %325 = divide(%324, 8f /* ty=float32 */) /* ty=Tensor[(256, 128, 128), float32] */;
  %326 = contrib_reverse_reshape(%325, newshape=[-1, 16, 0, 0]) /* ty=Tensor[(16, 16, 128, 128), float32] */;
  %327 = add(%326, %42) /* ty=Tensor[(16, 16, 128, 128), float32] */;
  %328 = contrib_reverse_reshape(%327, newshape=[-1, 0, 0]) /* ty=Tensor[(256, 128, 128), float32] */;
  %329 = contrib_reverse_reshape(%309, newshape=[-1, 0]) /* ty=Tensor[(2048, 1024), float32] */;
  %330 = nn.dense(%329, %BertForMaskedLM_bert_encoder_layer_s4_BertLayer_attention_self_attention_value_weight, units=None) /* ty=Tensor[(2048, 1024), float32] */;
  %331 = reshape(%330, newshape=[16, 128, 1024]) /* ty=Tensor[(16, 128, 1024), float32] */;
  %332 = nn.bias_add(%331, %BertForMaskedLM_bert_encoder_layer_s4_BertLayer_attention_self_attention_value_bias, axis=-1) /* ty=Tensor[(16, 128, 1024), float32] */;
  %333 = reshape(%332, newshape=[0, 0, -4, 16, 64]) /* ty=Tensor[(16, 128, 16, 64), float32] */;
  %334 = transpose(%333, axes=[0, 2, 3, 1]) /* ty=Tensor[(16, 16, 64, 128), float32] */;
  %335 = nn.softmax(%328) /* ty=Tensor[(256, 128, 128), float32] */;
  %336 = contrib_reverse_reshape(%334, newshape=[-1, 0, 0]) /* ty=Tensor[(256, 64, 128), float32] */;
  %337 = nn.batch_matmul(%335, %336, meta[relay.attrs.BatchMatmulAttrs][9]) /* ty=Tensor[(256, 128, 64), float32] */;
  %338 = contrib_reverse_reshape(%337, newshape=[-1, 16, 0, 0]) /* ty=Tensor[(16, 16, 128, 64), float32] */;
  %339 = transpose(%338, axes=[0, 2, 1, 3]) /* ty=Tensor[(16, 128, 16, 64), float32] */;
  %340 = reshape(%339, newshape=[2048, 1024]) /* ty=Tensor[(2048, 1024), float32] */;
  %341 = nn.dense(%340, %BertForMaskedLM_bert_encoder_layer_s4_BertLayer_attention_output_dense_weight, units=None) /* ty=Tensor[(2048, 1024), float32] */;
  %342 = reshape(%341, newshape=[16, 128, 1024]) /* ty=Tensor[(16, 128, 1024), float32] */;
  %343 = nn.bias_add(%342, %BertForMaskedLM_bert_encoder_layer_s4_BertLayer_attention_output_dense_bias, axis=-1) /* ty=Tensor[(16, 128, 1024), float32] */;
  %344 = add(%343, %309) /* ty=Tensor[(16, 128, 1024), float32] */;
  %345 = mean(%344, axis=[-1], keepdims=True) /* ty=Tensor[(16, 128, 1), float32] */;
  %346 = variance(%344, %345, axis=[-1], keepdims=True) /* ty=Tensor[(16, 128, 1), float32] */;
  %347 = (%345, %346);
  %348 = %347.0;
  %349 = %347.1;
  %350 = add(%349, 1e-12f /* ty=float32 */) /* ty=Tensor[(16, 128, 1), float32] */;
  %351 = subtract(%344, %348) /* ty=Tensor[(16, 128, 1024), float32] */;
  %352 = sqrt(%350) /* ty=Tensor[(16, 128, 1), float32] */;
  %353 = divide(%351, %352) /* ty=Tensor[(16, 128, 1024), float32] */;
  %354 = multiply(%BertForMaskedLM_bert_encoder_layer_s4_BertLayer_attention_output_layer_norm_weight, %353) /* ty=Tensor[(16, 128, 1024), float32] */;
  %355 = add(%354, %BertForMaskedLM_bert_encoder_layer_s4_BertLayer_attention_output_layer_norm_bias) /* ty=Tensor[(16, 128, 1024), float32] */;
  %356 = contrib_reverse_reshape(%355, newshape=[-1, 0]) /* ty=Tensor[(2048, 1024), float32] */;
  %357 = nn.dense(%356, %BertForMaskedLM_bert_encoder_layer_s4_BertLayer_intermediate_dense_weight, units=None) /* ty=Tensor[(2048, 4096), float32] */;
  %358 = reshape(%357, newshape=[16, 128, 4096]) /* ty=Tensor[(16, 128, 4096), float32] */;
  %359 = nn.bias_add(%358, %BertForMaskedLM_bert_encoder_layer_s4_BertLayer_intermediate_dense_bias, axis=-1) /* ty=Tensor[(16, 128, 4096), float32] */;
  %360 = divide(%359, 1.41421f /* ty=float32 */) /* ty=Tensor[(16, 128, 4096), float32] */;
  %361 = erf(%360) /* ty=Tensor[(16, 128, 4096), float32] */;
  %362 = multiply(%359, 0.5f /* ty=float32 */) /* ty=Tensor[(16, 128, 4096), float32] */;
  %363 = add(%361, 1f /* ty=float32 */) /* ty=Tensor[(16, 128, 4096), float32] */;
  %364 = multiply(%362, %363) /* ty=Tensor[(16, 128, 4096), float32] */;
  %365 = contrib_reverse_reshape(%364, newshape=[-1, 0]) /* ty=Tensor[(2048, 4096), float32] */;
  %366 = nn.dense(%365, %BertForMaskedLM_bert_encoder_layer_s4_BertLayer_output_dense_weight, units=None) /* ty=Tensor[(2048, 1024), float32] */;
  %367 = reshape(%366, newshape=[16, 128, 1024]) /* ty=Tensor[(16, 128, 1024), float32] */;
  %368 = nn.bias_add(%367, %BertForMaskedLM_bert_encoder_layer_s4_BertLayer_output_dense_bias, axis=-1) /* ty=Tensor[(16, 128, 1024), float32] */;
  %369 = add(%368, %355) /* ty=Tensor[(16, 128, 1024), float32] */;
  %370 = mean(%369, axis=[-1], keepdims=True) /* ty=Tensor[(16, 128, 1), float32] */;
  %371 = variance(%369, %370, axis=[-1], keepdims=True) /* ty=Tensor[(16, 128, 1), float32] */;
  %372 = (%370, %371);
  %373 = %372.0;
  %374 = %372.1;
  %375 = add(%374, 1e-12f /* ty=float32 */) /* ty=Tensor[(16, 128, 1), float32] */;
  %376 = subtract(%369, %373) /* ty=Tensor[(16, 128, 1024), float32] */;
  %377 = sqrt(%375) /* ty=Tensor[(16, 128, 1), float32] */;
  %378 = divide(%376, %377) /* ty=Tensor[(16, 128, 1024), float32] */;
  %379 = multiply(%BertForMaskedLM_bert_encoder_layer_s4_BertLayer_output_layer_norm_weight, %378) /* ty=Tensor[(16, 128, 1024), float32] */;
  %380 = add(%379, %BertForMaskedLM_bert_encoder_layer_s4_BertLayer_output_layer_norm_bias) /* ty=Tensor[(16, 128, 1024), float32] */;
  %381 = contrib_reverse_reshape(%380, newshape=[-1, 0]) /* ty=Tensor[(2048, 1024), float32] */;
  %382 = nn.dense(%381, %BertForMaskedLM_bert_encoder_layer_s5_BertLayer_attention_self_attention_query_weight, units=None) /* ty=Tensor[(2048, 1024), float32] */;
  %383 = reshape(%382, newshape=[16, 128, 1024]) /* ty=Tensor[(16, 128, 1024), float32] */;
  %384 = nn.bias_add(%383, %BertForMaskedLM_bert_encoder_layer_s5_BertLayer_attention_self_attention_query_bias, axis=-1) /* ty=Tensor[(16, 128, 1024), float32] */;
  %385 = reshape(%384, newshape=[0, 0, -4, 16, 64]) /* ty=Tensor[(16, 128, 16, 64), float32] */;
  %386 = transpose(%385, axes=[0, 2, 1, 3]) /* ty=Tensor[(16, 16, 128, 64), float32] */;
  %387 = contrib_reverse_reshape(%380, newshape=[-1, 0]) /* ty=Tensor[(2048, 1024), float32] */;
  %388 = nn.dense(%387, %BertForMaskedLM_bert_encoder_layer_s5_BertLayer_attention_self_attention_key_weight, units=None) /* ty=Tensor[(2048, 1024), float32] */;
  %389 = reshape(%388, newshape=[16, 128, 1024]) /* ty=Tensor[(16, 128, 1024), float32] */;
  %390 = nn.bias_add(%389, %BertForMaskedLM_bert_encoder_layer_s5_BertLayer_attention_self_attention_key_bias, axis=-1) /* ty=Tensor[(16, 128, 1024), float32] */;
  %391 = reshape(%390, newshape=[0, 0, -4, 16, 64]) /* ty=Tensor[(16, 128, 16, 64), float32] */;
  %392 = transpose(%391, axes=[0, 2, 1, 3]) /* ty=Tensor[(16, 16, 128, 64), float32] */;
  %393 = contrib_reverse_reshape(%386, newshape=[-1, 0, 0]) /* ty=Tensor[(256, 128, 64), float32] */;
  %394 = contrib_reverse_reshape(%392, newshape=[-1, 0, 0]) /* ty=Tensor[(256, 128, 64), float32] */;
  %395 = nn.batch_matmul(%393, %394, meta[relay.attrs.BatchMatmulAttrs][10]) /* ty=Tensor[(256, 128, 128), float32] */;
  %396 = divide(%395, 8f /* ty=float32 */) /* ty=Tensor[(256, 128, 128), float32] */;
  %397 = contrib_reverse_reshape(%396, newshape=[-1, 16, 0, 0]) /* ty=Tensor[(16, 16, 128, 128), float32] */;
  %398 = add(%397, %42) /* ty=Tensor[(16, 16, 128, 128), float32] */;
  %399 = contrib_reverse_reshape(%398, newshape=[-1, 0, 0]) /* ty=Tensor[(256, 128, 128), float32] */;
  %400 = contrib_reverse_reshape(%380, newshape=[-1, 0]) /* ty=Tensor[(2048, 1024), float32] */;
  %401 = nn.dense(%400, %BertForMaskedLM_bert_encoder_layer_s5_BertLayer_attention_self_attention_value_weight, units=None) /* ty=Tensor[(2048, 1024), float32] */;
  %402 = reshape(%401, newshape=[16, 128, 1024]) /* ty=Tensor[(16, 128, 1024), float32] */;
  %403 = nn.bias_add(%402, %BertForMaskedLM_bert_encoder_layer_s5_BertLayer_attention_self_attention_value_bias, axis=-1) /* ty=Tensor[(16, 128, 1024), float32] */;
  %404 = reshape(%403, newshape=[0, 0, -4, 16, 64]) /* ty=Tensor[(16, 128, 16, 64), float32] */;
  %405 = transpose(%404, axes=[0, 2, 3, 1]) /* ty=Tensor[(16, 16, 64, 128), float32] */;
  %406 = nn.softmax(%399) /* ty=Tensor[(256, 128, 128), float32] */;
  %407 = contrib_reverse_reshape(%405, newshape=[-1, 0, 0]) /* ty=Tensor[(256, 64, 128), float32] */;
  %408 = nn.batch_matmul(%406, %407, meta[relay.attrs.BatchMatmulAttrs][11]) /* ty=Tensor[(256, 128, 64), float32] */;
  %409 = contrib_reverse_reshape(%408, newshape=[-1, 16, 0, 0]) /* ty=Tensor[(16, 16, 128, 64), float32] */;
  %410 = transpose(%409, axes=[0, 2, 1, 3]) /* ty=Tensor[(16, 128, 16, 64), float32] */;
  %411 = reshape(%410, newshape=[2048, 1024]) /* ty=Tensor[(2048, 1024), float32] */;
  %412 = nn.dense(%411, %BertForMaskedLM_bert_encoder_layer_s5_BertLayer_attention_output_dense_weight, units=None) /* ty=Tensor[(2048, 1024), float32] */;
  %413 = reshape(%412, newshape=[16, 128, 1024]) /* ty=Tensor[(16, 128, 1024), float32] */;
  %414 = nn.bias_add(%413, %BertForMaskedLM_bert_encoder_layer_s5_BertLayer_attention_output_dense_bias, axis=-1) /* ty=Tensor[(16, 128, 1024), float32] */;
  %415 = add(%414, %380) /* ty=Tensor[(16, 128, 1024), float32] */;
  %416 = mean(%415, axis=[-1], keepdims=True) /* ty=Tensor[(16, 128, 1), float32] */;
  %417 = variance(%415, %416, axis=[-1], keepdims=True) /* ty=Tensor[(16, 128, 1), float32] */;
  %418 = (%416, %417);
  %419 = %418.0;
  %420 = %418.1;
  %421 = add(%420, 1e-12f /* ty=float32 */) /* ty=Tensor[(16, 128, 1), float32] */;
  %422 = subtract(%415, %419) /* ty=Tensor[(16, 128, 1024), float32] */;
  %423 = sqrt(%421) /* ty=Tensor[(16, 128, 1), float32] */;
  %424 = divide(%422, %423) /* ty=Tensor[(16, 128, 1024), float32] */;
  %425 = multiply(%BertForMaskedLM_bert_encoder_layer_s5_BertLayer_attention_output_layer_norm_weight, %424) /* ty=Tensor[(16, 128, 1024), float32] */;
  %426 = add(%425, %BertForMaskedLM_bert_encoder_layer_s5_BertLayer_attention_output_layer_norm_bias) /* ty=Tensor[(16, 128, 1024), float32] */;
  %427 = contrib_reverse_reshape(%426, newshape=[-1, 0]) /* ty=Tensor[(2048, 1024), float32] */;
  %428 = nn.dense(%427, %BertForMaskedLM_bert_encoder_layer_s5_BertLayer_intermediate_dense_weight, units=None) /* ty=Tensor[(2048, 4096), float32] */;
  %429 = reshape(%428, newshape=[16, 128, 4096]) /* ty=Tensor[(16, 128, 4096), float32] */;
  %430 = nn.bias_add(%429, %BertForMaskedLM_bert_encoder_layer_s5_BertLayer_intermediate_dense_bias, axis=-1) /* ty=Tensor[(16, 128, 4096), float32] */;
  %431 = divide(%430, 1.41421f /* ty=float32 */) /* ty=Tensor[(16, 128, 4096), float32] */;
  %432 = erf(%431) /* ty=Tensor[(16, 128, 4096), float32] */;
  %433 = multiply(%430, 0.5f /* ty=float32 */) /* ty=Tensor[(16, 128, 4096), float32] */;
  %434 = add(%432, 1f /* ty=float32 */) /* ty=Tensor[(16, 128, 4096), float32] */;
  %435 = multiply(%433, %434) /* ty=Tensor[(16, 128, 4096), float32] */;
  %436 = contrib_reverse_reshape(%435, newshape=[-1, 0]) /* ty=Tensor[(2048, 4096), float32] */;
  %437 = nn.dense(%436, %BertForMaskedLM_bert_encoder_layer_s5_BertLayer_output_dense_weight, units=None) /* ty=Tensor[(2048, 1024), float32] */;
  %438 = reshape(%437, newshape=[16, 128, 1024]) /* ty=Tensor[(16, 128, 1024), float32] */;
  %439 = nn.bias_add(%438, %BertForMaskedLM_bert_encoder_layer_s5_BertLayer_output_dense_bias, axis=-1) /* ty=Tensor[(16, 128, 1024), float32] */;
  %440 = add(%439, %426) /* ty=Tensor[(16, 128, 1024), float32] */;
  %441 = mean(%440, axis=[-1], keepdims=True) /* ty=Tensor[(16, 128, 1), float32] */;
  %442 = variance(%440, %441, axis=[-1], keepdims=True) /* ty=Tensor[(16, 128, 1), float32] */;
  %443 = (%441, %442);
  %444 = %443.0;
  %445 = %443.1;
  %446 = add(%445, 1e-12f /* ty=float32 */) /* ty=Tensor[(16, 128, 1), float32] */;
  %447 = subtract(%440, %444) /* ty=Tensor[(16, 128, 1024), float32] */;
  %448 = sqrt(%446) /* ty=Tensor[(16, 128, 1), float32] */;
  %449 = divide(%447, %448) /* ty=Tensor[(16, 128, 1024), float32] */;
  %450 = multiply(%BertForMaskedLM_bert_encoder_layer_s5_BertLayer_output_layer_norm_weight, %449) /* ty=Tensor[(16, 128, 1024), float32] */;
  %451 = add(%450, %BertForMaskedLM_bert_encoder_layer_s5_BertLayer_output_layer_norm_bias) /* ty=Tensor[(16, 128, 1024), float32] */;
  %452 = contrib_reverse_reshape(%451, newshape=[-1, 0]) /* ty=Tensor[(2048, 1024), float32] */;
  %453 = nn.dense(%452, %BertForMaskedLM_bert_encoder_layer_s6_BertLayer_attention_self_attention_query_weight, units=None) /* ty=Tensor[(2048, 1024), float32] */;
  %454 = reshape(%453, newshape=[16, 128, 1024]) /* ty=Tensor[(16, 128, 1024), float32] */;
  %455 = nn.bias_add(%454, %BertForMaskedLM_bert_encoder_layer_s6_BertLayer_attention_self_attention_query_bias, axis=-1) /* ty=Tensor[(16, 128, 1024), float32] */;
  %456 = reshape(%455, newshape=[0, 0, -4, 16, 64]) /* ty=Tensor[(16, 128, 16, 64), float32] */;
  %457 = transpose(%456, axes=[0, 2, 1, 3]) /* ty=Tensor[(16, 16, 128, 64), float32] */;
  %458 = contrib_reverse_reshape(%451, newshape=[-1, 0]) /* ty=Tensor[(2048, 1024), float32] */;
  %459 = nn.dense(%458, %BertForMaskedLM_bert_encoder_layer_s6_BertLayer_attention_self_attention_key_weight, units=None) /* ty=Tensor[(2048, 1024), float32] */;
  %460 = reshape(%459, newshape=[16, 128, 1024]) /* ty=Tensor[(16, 128, 1024), float32] */;
  %461 = nn.bias_add(%460, %BertForMaskedLM_bert_encoder_layer_s6_BertLayer_attention_self_attention_key_bias, axis=-1) /* ty=Tensor[(16, 128, 1024), float32] */;
  %462 = reshape(%461, newshape=[0, 0, -4, 16, 64]) /* ty=Tensor[(16, 128, 16, 64), float32] */;
  %463 = transpose(%462, axes=[0, 2, 1, 3]) /* ty=Tensor[(16, 16, 128, 64), float32] */;
  %464 = contrib_reverse_reshape(%457, newshape=[-1, 0, 0]) /* ty=Tensor[(256, 128, 64), float32] */;
  %465 = contrib_reverse_reshape(%463, newshape=[-1, 0, 0]) /* ty=Tensor[(256, 128, 64), float32] */;
  %466 = nn.batch_matmul(%464, %465, meta[relay.attrs.BatchMatmulAttrs][12]) /* ty=Tensor[(256, 128, 128), float32] */;
  %467 = divide(%466, 8f /* ty=float32 */) /* ty=Tensor[(256, 128, 128), float32] */;
  %468 = contrib_reverse_reshape(%467, newshape=[-1, 16, 0, 0]) /* ty=Tensor[(16, 16, 128, 128), float32] */;
  %469 = add(%468, %42) /* ty=Tensor[(16, 16, 128, 128), float32] */;
  %470 = contrib_reverse_reshape(%469, newshape=[-1, 0, 0]) /* ty=Tensor[(256, 128, 128), float32] */;
  %471 = contrib_reverse_reshape(%451, newshape=[-1, 0]) /* ty=Tensor[(2048, 1024), float32] */;
  %472 = nn.dense(%471, %BertForMaskedLM_bert_encoder_layer_s6_BertLayer_attention_self_attention_value_weight, units=None) /* ty=Tensor[(2048, 1024), float32] */;
  %473 = reshape(%472, newshape=[16, 128, 1024]) /* ty=Tensor[(16, 128, 1024), float32] */;
  %474 = nn.bias_add(%473, %BertForMaskedLM_bert_encoder_layer_s6_BertLayer_attention_self_attention_value_bias, axis=-1) /* ty=Tensor[(16, 128, 1024), float32] */;
  %475 = reshape(%474, newshape=[0, 0, -4, 16, 64]) /* ty=Tensor[(16, 128, 16, 64), float32] */;
  %476 = transpose(%475, axes=[0, 2, 3, 1]) /* ty=Tensor[(16, 16, 64, 128), float32] */;
  %477 = nn.softmax(%470) /* ty=Tensor[(256, 128, 128), float32] */;
  %478 = contrib_reverse_reshape(%476, newshape=[-1, 0, 0]) /* ty=Tensor[(256, 64, 128), float32] */;
  %479 = nn.batch_matmul(%477, %478, meta[relay.attrs.BatchMatmulAttrs][13]) /* ty=Tensor[(256, 128, 64), float32] */;
  %480 = contrib_reverse_reshape(%479, newshape=[-1, 16, 0, 0]) /* ty=Tensor[(16, 16, 128, 64), float32] */;
  %481 = transpose(%480, axes=[0, 2, 1, 3]) /* ty=Tensor[(16, 128, 16, 64), float32] */;
  %482 = reshape(%481, newshape=[2048, 1024]) /* ty=Tensor[(2048, 1024), float32] */;
  %483 = nn.dense(%482, %BertForMaskedLM_bert_encoder_layer_s6_BertLayer_attention_output_dense_weight, units=None) /* ty=Tensor[(2048, 1024), float32] */;
  %484 = reshape(%483, newshape=[16, 128, 1024]) /* ty=Tensor[(16, 128, 1024), float32] */;
  %485 = nn.bias_add(%484, %BertForMaskedLM_bert_encoder_layer_s6_BertLayer_attention_output_dense_bias, axis=-1) /* ty=Tensor[(16, 128, 1024), float32] */;
  %486 = add(%485, %451) /* ty=Tensor[(16, 128, 1024), float32] */;
  %487 = mean(%486, axis=[-1], keepdims=True) /* ty=Tensor[(16, 128, 1), float32] */;
  %488 = variance(%486, %487, axis=[-1], keepdims=True) /* ty=Tensor[(16, 128, 1), float32] */;
  %489 = (%487, %488);
  %490 = %489.0;
  %491 = %489.1;
  %492 = add(%491, 1e-12f /* ty=float32 */) /* ty=Tensor[(16, 128, 1), float32] */;
  %493 = subtract(%486, %490) /* ty=Tensor[(16, 128, 1024), float32] */;
  %494 = sqrt(%492) /* ty=Tensor[(16, 128, 1), float32] */;
  %495 = divide(%493, %494) /* ty=Tensor[(16, 128, 1024), float32] */;
  %496 = multiply(%BertForMaskedLM_bert_encoder_layer_s6_BertLayer_attention_output_layer_norm_weight, %495) /* ty=Tensor[(16, 128, 1024), float32] */;
  %497 = add(%496, %BertForMaskedLM_bert_encoder_layer_s6_BertLayer_attention_output_layer_norm_bias) /* ty=Tensor[(16, 128, 1024), float32] */;
  %498 = contrib_reverse_reshape(%497, newshape=[-1, 0]) /* ty=Tensor[(2048, 1024), float32] */;
  %499 = nn.dense(%498, %BertForMaskedLM_bert_encoder_layer_s6_BertLayer_intermediate_dense_weight, units=None) /* ty=Tensor[(2048, 4096), float32] */;
  %500 = reshape(%499, newshape=[16, 128, 4096]) /* ty=Tensor[(16, 128, 4096), float32] */;
  %501 = nn.bias_add(%500, %BertForMaskedLM_bert_encoder_layer_s6_BertLayer_intermediate_dense_bias, axis=-1) /* ty=Tensor[(16, 128, 4096), float32] */;
  %502 = divide(%501, 1.41421f /* ty=float32 */) /* ty=Tensor[(16, 128, 4096), float32] */;
  %503 = erf(%502) /* ty=Tensor[(16, 128, 4096), float32] */;
  %504 = multiply(%501, 0.5f /* ty=float32 */) /* ty=Tensor[(16, 128, 4096), float32] */;
  %505 = add(%503, 1f /* ty=float32 */) /* ty=Tensor[(16, 128, 4096), float32] */;
  %506 = multiply(%504, %505) /* ty=Tensor[(16, 128, 4096), float32] */;
  %507 = contrib_reverse_reshape(%506, newshape=[-1, 0]) /* ty=Tensor[(2048, 4096), float32] */;
  %508 = nn.dense(%507, %BertForMaskedLM_bert_encoder_layer_s6_BertLayer_output_dense_weight, units=None) /* ty=Tensor[(2048, 1024), float32] */;
  %509 = reshape(%508, newshape=[16, 128, 1024]) /* ty=Tensor[(16, 128, 1024), float32] */;
  %510 = nn.bias_add(%509, %BertForMaskedLM_bert_encoder_layer_s6_BertLayer_output_dense_bias, axis=-1) /* ty=Tensor[(16, 128, 1024), float32] */;
  %511 = add(%510, %497) /* ty=Tensor[(16, 128, 1024), float32] */;
  %512 = mean(%511, axis=[-1], keepdims=True) /* ty=Tensor[(16, 128, 1), float32] */;
  %513 = variance(%511, %512, axis=[-1], keepdims=True) /* ty=Tensor[(16, 128, 1), float32] */;
  %514 = (%512, %513);
  %515 = %514.0;
  %516 = %514.1;
  %517 = add(%516, 1e-12f /* ty=float32 */) /* ty=Tensor[(16, 128, 1), float32] */;
  %518 = subtract(%511, %515) /* ty=Tensor[(16, 128, 1024), float32] */;
  %519 = sqrt(%517) /* ty=Tensor[(16, 128, 1), float32] */;
  %520 = divide(%518, %519) /* ty=Tensor[(16, 128, 1024), float32] */;
  %521 = multiply(%BertForMaskedLM_bert_encoder_layer_s6_BertLayer_output_layer_norm_weight, %520) /* ty=Tensor[(16, 128, 1024), float32] */;
  %522 = add(%521, %BertForMaskedLM_bert_encoder_layer_s6_BertLayer_output_layer_norm_bias) /* ty=Tensor[(16, 128, 1024), float32] */;
  %523 = contrib_reverse_reshape(%522, newshape=[-1, 0]) /* ty=Tensor[(2048, 1024), float32] */;
  %524 = nn.dense(%523, %BertForMaskedLM_bert_encoder_layer_s7_BertLayer_attention_self_attention_query_weight, units=None) /* ty=Tensor[(2048, 1024), float32] */;
  %525 = reshape(%524, newshape=[16, 128, 1024]) /* ty=Tensor[(16, 128, 1024), float32] */;
  %526 = nn.bias_add(%525, %BertForMaskedLM_bert_encoder_layer_s7_BertLayer_attention_self_attention_query_bias, axis=-1) /* ty=Tensor[(16, 128, 1024), float32] */;
  %527 = reshape(%526, newshape=[0, 0, -4, 16, 64]) /* ty=Tensor[(16, 128, 16, 64), float32] */;
  %528 = transpose(%527, axes=[0, 2, 1, 3]) /* ty=Tensor[(16, 16, 128, 64), float32] */;
  %529 = contrib_reverse_reshape(%522, newshape=[-1, 0]) /* ty=Tensor[(2048, 1024), float32] */;
  %530 = nn.dense(%529, %BertForMaskedLM_bert_encoder_layer_s7_BertLayer_attention_self_attention_key_weight, units=None) /* ty=Tensor[(2048, 1024), float32] */;
  %531 = reshape(%530, newshape=[16, 128, 1024]) /* ty=Tensor[(16, 128, 1024), float32] */;
  %532 = nn.bias_add(%531, %BertForMaskedLM_bert_encoder_layer_s7_BertLayer_attention_self_attention_key_bias, axis=-1) /* ty=Tensor[(16, 128, 1024), float32] */;
  %533 = reshape(%532, newshape=[0, 0, -4, 16, 64]) /* ty=Tensor[(16, 128, 16, 64), float32] */;
  %534 = transpose(%533, axes=[0, 2, 1, 3]) /* ty=Tensor[(16, 16, 128, 64), float32] */;
  %535 = contrib_reverse_reshape(%528, newshape=[-1, 0, 0]) /* ty=Tensor[(256, 128, 64), float32] */;
  %536 = contrib_reverse_reshape(%534, newshape=[-1, 0, 0]) /* ty=Tensor[(256, 128, 64), float32] */;
  %537 = nn.batch_matmul(%535, %536, meta[relay.attrs.BatchMatmulAttrs][14]) /* ty=Tensor[(256, 128, 128), float32] */;
  %538 = divide(%537, 8f /* ty=float32 */) /* ty=Tensor[(256, 128, 128), float32] */;
  %539 = contrib_reverse_reshape(%538, newshape=[-1, 16, 0, 0]) /* ty=Tensor[(16, 16, 128, 128), float32] */;
  %540 = add(%539, %42) /* ty=Tensor[(16, 16, 128, 128), float32] */;
  %541 = contrib_reverse_reshape(%540, newshape=[-1, 0, 0]) /* ty=Tensor[(256, 128, 128), float32] */;
  %542 = contrib_reverse_reshape(%522, newshape=[-1, 0]) /* ty=Tensor[(2048, 1024), float32] */;
  %543 = nn.dense(%542, %BertForMaskedLM_bert_encoder_layer_s7_BertLayer_attention_self_attention_value_weight, units=None) /* ty=Tensor[(2048, 1024), float32] */;
  %544 = reshape(%543, newshape=[16, 128, 1024]) /* ty=Tensor[(16, 128, 1024), float32] */;
  %545 = nn.bias_add(%544, %BertForMaskedLM_bert_encoder_layer_s7_BertLayer_attention_self_attention_value_bias, axis=-1) /* ty=Tensor[(16, 128, 1024), float32] */;
  %546 = reshape(%545, newshape=[0, 0, -4, 16, 64]) /* ty=Tensor[(16, 128, 16, 64), float32] */;
  %547 = transpose(%546, axes=[0, 2, 3, 1]) /* ty=Tensor[(16, 16, 64, 128), float32] */;
  %548 = nn.softmax(%541) /* ty=Tensor[(256, 128, 128), float32] */;
  %549 = contrib_reverse_reshape(%547, newshape=[-1, 0, 0]) /* ty=Tensor[(256, 64, 128), float32] */;
  %550 = nn.batch_matmul(%548, %549, meta[relay.attrs.BatchMatmulAttrs][15]) /* ty=Tensor[(256, 128, 64), float32] */;
  %551 = contrib_reverse_reshape(%550, newshape=[-1, 16, 0, 0]) /* ty=Tensor[(16, 16, 128, 64), float32] */;
  %552 = transpose(%551, axes=[0, 2, 1, 3]) /* ty=Tensor[(16, 128, 16, 64), float32] */;
  %553 = reshape(%552, newshape=[2048, 1024]) /* ty=Tensor[(2048, 1024), float32] */;
  %554 = nn.dense(%553, %BertForMaskedLM_bert_encoder_layer_s7_BertLayer_attention_output_dense_weight, units=None) /* ty=Tensor[(2048, 1024), float32] */;
  %555 = reshape(%554, newshape=[16, 128, 1024]) /* ty=Tensor[(16, 128, 1024), float32] */;
  %556 = nn.bias_add(%555, %BertForMaskedLM_bert_encoder_layer_s7_BertLayer_attention_output_dense_bias, axis=-1) /* ty=Tensor[(16, 128, 1024), float32] */;
  %557 = add(%556, %522) /* ty=Tensor[(16, 128, 1024), float32] */;
  %558 = mean(%557, axis=[-1], keepdims=True) /* ty=Tensor[(16, 128, 1), float32] */;
  %559 = variance(%557, %558, axis=[-1], keepdims=True) /* ty=Tensor[(16, 128, 1), float32] */;
  %560 = (%558, %559);
  %561 = %560.0;
  %562 = %560.1;
  %563 = add(%562, 1e-12f /* ty=float32 */) /* ty=Tensor[(16, 128, 1), float32] */;
  %564 = subtract(%557, %561) /* ty=Tensor[(16, 128, 1024), float32] */;
  %565 = sqrt(%563) /* ty=Tensor[(16, 128, 1), float32] */;
  %566 = divide(%564, %565) /* ty=Tensor[(16, 128, 1024), float32] */;
  %567 = multiply(%BertForMaskedLM_bert_encoder_layer_s7_BertLayer_attention_output_layer_norm_weight, %566) /* ty=Tensor[(16, 128, 1024), float32] */;
  %568 = add(%567, %BertForMaskedLM_bert_encoder_layer_s7_BertLayer_attention_output_layer_norm_bias) /* ty=Tensor[(16, 128, 1024), float32] */;
  %569 = contrib_reverse_reshape(%568, newshape=[-1, 0]) /* ty=Tensor[(2048, 1024), float32] */;
  %570 = nn.dense(%569, %BertForMaskedLM_bert_encoder_layer_s7_BertLayer_intermediate_dense_weight, units=None) /* ty=Tensor[(2048, 4096), float32] */;
  %571 = reshape(%570, newshape=[16, 128, 4096]) /* ty=Tensor[(16, 128, 4096), float32] */;
  %572 = nn.bias_add(%571, %BertForMaskedLM_bert_encoder_layer_s7_BertLayer_intermediate_dense_bias, axis=-1) /* ty=Tensor[(16, 128, 4096), float32] */;
  %573 = divide(%572, 1.41421f /* ty=float32 */) /* ty=Tensor[(16, 128, 4096), float32] */;
  %574 = erf(%573) /* ty=Tensor[(16, 128, 4096), float32] */;
  %575 = multiply(%572, 0.5f /* ty=float32 */) /* ty=Tensor[(16, 128, 4096), float32] */;
  %576 = add(%574, 1f /* ty=float32 */) /* ty=Tensor[(16, 128, 4096), float32] */;
  %577 = multiply(%575, %576) /* ty=Tensor[(16, 128, 4096), float32] */;
  %578 = contrib_reverse_reshape(%577, newshape=[-1, 0]) /* ty=Tensor[(2048, 4096), float32] */;
  %579 = nn.dense(%578, %BertForMaskedLM_bert_encoder_layer_s7_BertLayer_output_dense_weight, units=None) /* ty=Tensor[(2048, 1024), float32] */;
  %580 = reshape(%579, newshape=[16, 128, 1024]) /* ty=Tensor[(16, 128, 1024), float32] */;
  %581 = nn.bias_add(%580, %BertForMaskedLM_bert_encoder_layer_s7_BertLayer_output_dense_bias, axis=-1) /* ty=Tensor[(16, 128, 1024), float32] */;
  %582 = add(%581, %568) /* ty=Tensor[(16, 128, 1024), float32] */;
  %583 = mean(%582, axis=[-1], keepdims=True) /* ty=Tensor[(16, 128, 1), float32] */;
  %584 = variance(%582, %583, axis=[-1], keepdims=True) /* ty=Tensor[(16, 128, 1), float32] */;
  %585 = (%583, %584);
  %586 = %585.0;
  %587 = %585.1;
  %588 = add(%587, 1e-12f /* ty=float32 */) /* ty=Tensor[(16, 128, 1), float32] */;
  %589 = subtract(%582, %586) /* ty=Tensor[(16, 128, 1024), float32] */;
  %590 = sqrt(%588) /* ty=Tensor[(16, 128, 1), float32] */;
  %591 = divide(%589, %590) /* ty=Tensor[(16, 128, 1024), float32] */;
  %592 = multiply(%BertForMaskedLM_bert_encoder_layer_s7_BertLayer_output_layer_norm_weight, %591) /* ty=Tensor[(16, 128, 1024), float32] */;
  %593 = add(%592, %BertForMaskedLM_bert_encoder_layer_s7_BertLayer_output_layer_norm_bias) /* ty=Tensor[(16, 128, 1024), float32] */;
  %594 = contrib_reverse_reshape(%593, newshape=[-1, 0]) /* ty=Tensor[(2048, 1024), float32] */;
  %595 = nn.dense(%594, %BertForMaskedLM_bert_encoder_layer_s8_BertLayer_attention_self_attention_query_weight, units=None) /* ty=Tensor[(2048, 1024), float32] */;
  %596 = reshape(%595, newshape=[16, 128, 1024]) /* ty=Tensor[(16, 128, 1024), float32] */;
  %597 = nn.bias_add(%596, %BertForMaskedLM_bert_encoder_layer_s8_BertLayer_attention_self_attention_query_bias, axis=-1) /* ty=Tensor[(16, 128, 1024), float32] */;
  %598 = reshape(%597, newshape=[0, 0, -4, 16, 64]) /* ty=Tensor[(16, 128, 16, 64), float32] */;
  %599 = transpose(%598, axes=[0, 2, 1, 3]) /* ty=Tensor[(16, 16, 128, 64), float32] */;
  %600 = contrib_reverse_reshape(%593, newshape=[-1, 0]) /* ty=Tensor[(2048, 1024), float32] */;
  %601 = nn.dense(%600, %BertForMaskedLM_bert_encoder_layer_s8_BertLayer_attention_self_attention_key_weight, units=None) /* ty=Tensor[(2048, 1024), float32] */;
  %602 = reshape(%601, newshape=[16, 128, 1024]) /* ty=Tensor[(16, 128, 1024), float32] */;
  %603 = nn.bias_add(%602, %BertForMaskedLM_bert_encoder_layer_s8_BertLayer_attention_self_attention_key_bias, axis=-1) /* ty=Tensor[(16, 128, 1024), float32] */;
  %604 = reshape(%603, newshape=[0, 0, -4, 16, 64]) /* ty=Tensor[(16, 128, 16, 64), float32] */;
  %605 = transpose(%604, axes=[0, 2, 1, 3]) /* ty=Tensor[(16, 16, 128, 64), float32] */;
  %606 = contrib_reverse_reshape(%599, newshape=[-1, 0, 0]) /* ty=Tensor[(256, 128, 64), float32] */;
  %607 = contrib_reverse_reshape(%605, newshape=[-1, 0, 0]) /* ty=Tensor[(256, 128, 64), float32] */;
  %608 = nn.batch_matmul(%606, %607, meta[relay.attrs.BatchMatmulAttrs][16]) /* ty=Tensor[(256, 128, 128), float32] */;
  %609 = divide(%608, 8f /* ty=float32 */) /* ty=Tensor[(256, 128, 128), float32] */;
  %610 = contrib_reverse_reshape(%609, newshape=[-1, 16, 0, 0]) /* ty=Tensor[(16, 16, 128, 128), float32] */;
  %611 = add(%610, %42) /* ty=Tensor[(16, 16, 128, 128), float32] */;
  %612 = contrib_reverse_reshape(%611, newshape=[-1, 0, 0]) /* ty=Tensor[(256, 128, 128), float32] */;
  %613 = contrib_reverse_reshape(%593, newshape=[-1, 0]) /* ty=Tensor[(2048, 1024), float32] */;
  %614 = nn.dense(%613, %BertForMaskedLM_bert_encoder_layer_s8_BertLayer_attention_self_attention_value_weight, units=None) /* ty=Tensor[(2048, 1024), float32] */;
  %615 = reshape(%614, newshape=[16, 128, 1024]) /* ty=Tensor[(16, 128, 1024), float32] */;
  %616 = nn.bias_add(%615, %BertForMaskedLM_bert_encoder_layer_s8_BertLayer_attention_self_attention_value_bias, axis=-1) /* ty=Tensor[(16, 128, 1024), float32] */;
  %617 = reshape(%616, newshape=[0, 0, -4, 16, 64]) /* ty=Tensor[(16, 128, 16, 64), float32] */;
  %618 = transpose(%617, axes=[0, 2, 3, 1]) /* ty=Tensor[(16, 16, 64, 128), float32] */;
  %619 = nn.softmax(%612) /* ty=Tensor[(256, 128, 128), float32] */;
  %620 = contrib_reverse_reshape(%618, newshape=[-1, 0, 0]) /* ty=Tensor[(256, 64, 128), float32] */;
  %621 = nn.batch_matmul(%619, %620, meta[relay.attrs.BatchMatmulAttrs][17]) /* ty=Tensor[(256, 128, 64), float32] */;
  %622 = contrib_reverse_reshape(%621, newshape=[-1, 16, 0, 0]) /* ty=Tensor[(16, 16, 128, 64), float32] */;
  %623 = transpose(%622, axes=[0, 2, 1, 3]) /* ty=Tensor[(16, 128, 16, 64), float32] */;
  %624 = reshape(%623, newshape=[2048, 1024]) /* ty=Tensor[(2048, 1024), float32] */;
  %625 = nn.dense(%624, %BertForMaskedLM_bert_encoder_layer_s8_BertLayer_attention_output_dense_weight, units=None) /* ty=Tensor[(2048, 1024), float32] */;
  %626 = reshape(%625, newshape=[16, 128, 1024]) /* ty=Tensor[(16, 128, 1024), float32] */;
  %627 = nn.bias_add(%626, %BertForMaskedLM_bert_encoder_layer_s8_BertLayer_attention_output_dense_bias, axis=-1) /* ty=Tensor[(16, 128, 1024), float32] */;
  %628 = add(%627, %593) /* ty=Tensor[(16, 128, 1024), float32] */;
  %629 = mean(%628, axis=[-1], keepdims=True) /* ty=Tensor[(16, 128, 1), float32] */;
  %630 = variance(%628, %629, axis=[-1], keepdims=True) /* ty=Tensor[(16, 128, 1), float32] */;
  %631 = (%629, %630);
  %632 = %631.0;
  %633 = %631.1;
  %634 = add(%633, 1e-12f /* ty=float32 */) /* ty=Tensor[(16, 128, 1), float32] */;
  %635 = subtract(%628, %632) /* ty=Tensor[(16, 128, 1024), float32] */;
  %636 = sqrt(%634) /* ty=Tensor[(16, 128, 1), float32] */;
  %637 = divide(%635, %636) /* ty=Tensor[(16, 128, 1024), float32] */;
  %638 = multiply(%BertForMaskedLM_bert_encoder_layer_s8_BertLayer_attention_output_layer_norm_weight, %637) /* ty=Tensor[(16, 128, 1024), float32] */;
  %639 = add(%638, %BertForMaskedLM_bert_encoder_layer_s8_BertLayer_attention_output_layer_norm_bias) /* ty=Tensor[(16, 128, 1024), float32] */;
  %640 = contrib_reverse_reshape(%639, newshape=[-1, 0]) /* ty=Tensor[(2048, 1024), float32] */;
  %641 = nn.dense(%640, %BertForMaskedLM_bert_encoder_layer_s8_BertLayer_intermediate_dense_weight, units=None) /* ty=Tensor[(2048, 4096), float32] */;
  %642 = reshape(%641, newshape=[16, 128, 4096]) /* ty=Tensor[(16, 128, 4096), float32] */;
  %643 = nn.bias_add(%642, %BertForMaskedLM_bert_encoder_layer_s8_BertLayer_intermediate_dense_bias, axis=-1) /* ty=Tensor[(16, 128, 4096), float32] */;
  %644 = divide(%643, 1.41421f /* ty=float32 */) /* ty=Tensor[(16, 128, 4096), float32] */;
  %645 = erf(%644) /* ty=Tensor[(16, 128, 4096), float32] */;
  %646 = multiply(%643, 0.5f /* ty=float32 */) /* ty=Tensor[(16, 128, 4096), float32] */;
  %647 = add(%645, 1f /* ty=float32 */) /* ty=Tensor[(16, 128, 4096), float32] */;
  %648 = multiply(%646, %647) /* ty=Tensor[(16, 128, 4096), float32] */;
  %649 = contrib_reverse_reshape(%648, newshape=[-1, 0]) /* ty=Tensor[(2048, 4096), float32] */;
  %650 = nn.dense(%649, %BertForMaskedLM_bert_encoder_layer_s8_BertLayer_output_dense_weight, units=None) /* ty=Tensor[(2048, 1024), float32] */;
  %651 = reshape(%650, newshape=[16, 128, 1024]) /* ty=Tensor[(16, 128, 1024), float32] */;
  %652 = nn.bias_add(%651, %BertForMaskedLM_bert_encoder_layer_s8_BertLayer_output_dense_bias, axis=-1) /* ty=Tensor[(16, 128, 1024), float32] */;
  %653 = add(%652, %639) /* ty=Tensor[(16, 128, 1024), float32] */;
  %654 = mean(%653, axis=[-1], keepdims=True) /* ty=Tensor[(16, 128, 1), float32] */;
  %655 = variance(%653, %654, axis=[-1], keepdims=True) /* ty=Tensor[(16, 128, 1), float32] */;
  %656 = (%654, %655);
  %657 = %656.0;
  %658 = %656.1;
  %659 = add(%658, 1e-12f /* ty=float32 */) /* ty=Tensor[(16, 128, 1), float32] */;
  %660 = subtract(%653, %657) /* ty=Tensor[(16, 128, 1024), float32] */;
  %661 = sqrt(%659) /* ty=Tensor[(16, 128, 1), float32] */;
  %662 = divide(%660, %661) /* ty=Tensor[(16, 128, 1024), float32] */;
  %663 = multiply(%BertForMaskedLM_bert_encoder_layer_s8_BertLayer_output_layer_norm_weight, %662) /* ty=Tensor[(16, 128, 1024), float32] */;
  %664 = add(%663, %BertForMaskedLM_bert_encoder_layer_s8_BertLayer_output_layer_norm_bias) /* ty=Tensor[(16, 128, 1024), float32] */;
  %665 = contrib_reverse_reshape(%664, newshape=[-1, 0]) /* ty=Tensor[(2048, 1024), float32] */;
  %666 = nn.dense(%665, %BertForMaskedLM_bert_encoder_layer_s9_BertLayer_attention_self_attention_query_weight, units=None) /* ty=Tensor[(2048, 1024), float32] */;
  %667 = reshape(%666, newshape=[16, 128, 1024]) /* ty=Tensor[(16, 128, 1024), float32] */;
  %668 = nn.bias_add(%667, %BertForMaskedLM_bert_encoder_layer_s9_BertLayer_attention_self_attention_query_bias, axis=-1) /* ty=Tensor[(16, 128, 1024), float32] */;
  %669 = reshape(%668, newshape=[0, 0, -4, 16, 64]) /* ty=Tensor[(16, 128, 16, 64), float32] */;
  %670 = transpose(%669, axes=[0, 2, 1, 3]) /* ty=Tensor[(16, 16, 128, 64), float32] */;
  %671 = contrib_reverse_reshape(%664, newshape=[-1, 0]) /* ty=Tensor[(2048, 1024), float32] */;
  %672 = nn.dense(%671, %BertForMaskedLM_bert_encoder_layer_s9_BertLayer_attention_self_attention_key_weight, units=None) /* ty=Tensor[(2048, 1024), float32] */;
  %673 = reshape(%672, newshape=[16, 128, 1024]) /* ty=Tensor[(16, 128, 1024), float32] */;
  %674 = nn.bias_add(%673, %BertForMaskedLM_bert_encoder_layer_s9_BertLayer_attention_self_attention_key_bias, axis=-1) /* ty=Tensor[(16, 128, 1024), float32] */;
  %675 = reshape(%674, newshape=[0, 0, -4, 16, 64]) /* ty=Tensor[(16, 128, 16, 64), float32] */;
  %676 = transpose(%675, axes=[0, 2, 1, 3]) /* ty=Tensor[(16, 16, 128, 64), float32] */;
  %677 = contrib_reverse_reshape(%670, newshape=[-1, 0, 0]) /* ty=Tensor[(256, 128, 64), float32] */;
  %678 = contrib_reverse_reshape(%676, newshape=[-1, 0, 0]) /* ty=Tensor[(256, 128, 64), float32] */;
  %679 = nn.batch_matmul(%677, %678, meta[relay.attrs.BatchMatmulAttrs][18]) /* ty=Tensor[(256, 128, 128), float32] */;
  %680 = divide(%679, 8f /* ty=float32 */) /* ty=Tensor[(256, 128, 128), float32] */;
  %681 = contrib_reverse_reshape(%680, newshape=[-1, 16, 0, 0]) /* ty=Tensor[(16, 16, 128, 128), float32] */;
  %682 = add(%681, %42) /* ty=Tensor[(16, 16, 128, 128), float32] */;
  %683 = contrib_reverse_reshape(%682, newshape=[-1, 0, 0]) /* ty=Tensor[(256, 128, 128), float32] */;
  %684 = contrib_reverse_reshape(%664, newshape=[-1, 0]) /* ty=Tensor[(2048, 1024), float32] */;
  %685 = nn.dense(%684, %BertForMaskedLM_bert_encoder_layer_s9_BertLayer_attention_self_attention_value_weight, units=None) /* ty=Tensor[(2048, 1024), float32] */;
  %686 = reshape(%685, newshape=[16, 128, 1024]) /* ty=Tensor[(16, 128, 1024), float32] */;
  %687 = nn.bias_add(%686, %BertForMaskedLM_bert_encoder_layer_s9_BertLayer_attention_self_attention_value_bias, axis=-1) /* ty=Tensor[(16, 128, 1024), float32] */;
  %688 = reshape(%687, newshape=[0, 0, -4, 16, 64]) /* ty=Tensor[(16, 128, 16, 64), float32] */;
  %689 = transpose(%688, axes=[0, 2, 3, 1]) /* ty=Tensor[(16, 16, 64, 128), float32] */;
  %690 = nn.softmax(%683) /* ty=Tensor[(256, 128, 128), float32] */;
  %691 = contrib_reverse_reshape(%689, newshape=[-1, 0, 0]) /* ty=Tensor[(256, 64, 128), float32] */;
  %692 = nn.batch_matmul(%690, %691, meta[relay.attrs.BatchMatmulAttrs][19]) /* ty=Tensor[(256, 128, 64), float32] */;
  %693 = contrib_reverse_reshape(%692, newshape=[-1, 16, 0, 0]) /* ty=Tensor[(16, 16, 128, 64), float32] */;
  %694 = transpose(%693, axes=[0, 2, 1, 3]) /* ty=Tensor[(16, 128, 16, 64), float32] */;
  %695 = reshape(%694, newshape=[2048, 1024]) /* ty=Tensor[(2048, 1024), float32] */;
  %696 = nn.dense(%695, %BertForMaskedLM_bert_encoder_layer_s9_BertLayer_attention_output_dense_weight, units=None) /* ty=Tensor[(2048, 1024), float32] */;
  %697 = reshape(%696, newshape=[16, 128, 1024]) /* ty=Tensor[(16, 128, 1024), float32] */;
  %698 = nn.bias_add(%697, %BertForMaskedLM_bert_encoder_layer_s9_BertLayer_attention_output_dense_bias, axis=-1) /* ty=Tensor[(16, 128, 1024), float32] */;
  %699 = add(%698, %664) /* ty=Tensor[(16, 128, 1024), float32] */;
  %700 = mean(%699, axis=[-1], keepdims=True) /* ty=Tensor[(16, 128, 1), float32] */;
  %701 = variance(%699, %700, axis=[-1], keepdims=True) /* ty=Tensor[(16, 128, 1), float32] */;
  %702 = (%700, %701);
  %703 = %702.0;
  %704 = %702.1;
  %705 = add(%704, 1e-12f /* ty=float32 */) /* ty=Tensor[(16, 128, 1), float32] */;
  %706 = subtract(%699, %703) /* ty=Tensor[(16, 128, 1024), float32] */;
  %707 = sqrt(%705) /* ty=Tensor[(16, 128, 1), float32] */;
  %708 = divide(%706, %707) /* ty=Tensor[(16, 128, 1024), float32] */;
  %709 = multiply(%BertForMaskedLM_bert_encoder_layer_s9_BertLayer_attention_output_layer_norm_weight, %708) /* ty=Tensor[(16, 128, 1024), float32] */;
  %710 = add(%709, %BertForMaskedLM_bert_encoder_layer_s9_BertLayer_attention_output_layer_norm_bias) /* ty=Tensor[(16, 128, 1024), float32] */;
  %711 = contrib_reverse_reshape(%710, newshape=[-1, 0]) /* ty=Tensor[(2048, 1024), float32] */;
  %712 = nn.dense(%711, %BertForMaskedLM_bert_encoder_layer_s9_BertLayer_intermediate_dense_weight, units=None) /* ty=Tensor[(2048, 4096), float32] */;
  %713 = reshape(%712, newshape=[16, 128, 4096]) /* ty=Tensor[(16, 128, 4096), float32] */;
  %714 = nn.bias_add(%713, %BertForMaskedLM_bert_encoder_layer_s9_BertLayer_intermediate_dense_bias, axis=-1) /* ty=Tensor[(16, 128, 4096), float32] */;
  %715 = divide(%714, 1.41421f /* ty=float32 */) /* ty=Tensor[(16, 128, 4096), float32] */;
  %716 = erf(%715) /* ty=Tensor[(16, 128, 4096), float32] */;
  %717 = multiply(%714, 0.5f /* ty=float32 */) /* ty=Tensor[(16, 128, 4096), float32] */;
  %718 = add(%716, 1f /* ty=float32 */) /* ty=Tensor[(16, 128, 4096), float32] */;
  %719 = multiply(%717, %718) /* ty=Tensor[(16, 128, 4096), float32] */;
  %720 = contrib_reverse_reshape(%719, newshape=[-1, 0]) /* ty=Tensor[(2048, 4096), float32] */;
  %721 = nn.dense(%720, %BertForMaskedLM_bert_encoder_layer_s9_BertLayer_output_dense_weight, units=None) /* ty=Tensor[(2048, 1024), float32] */;
  %722 = reshape(%721, newshape=[16, 128, 1024]) /* ty=Tensor[(16, 128, 1024), float32] */;
  %723 = nn.bias_add(%722, %BertForMaskedLM_bert_encoder_layer_s9_BertLayer_output_dense_bias, axis=-1) /* ty=Tensor[(16, 128, 1024), float32] */;
  %724 = add(%723, %710) /* ty=Tensor[(16, 128, 1024), float32] */;
  %725 = mean(%724, axis=[-1], keepdims=True) /* ty=Tensor[(16, 128, 1), float32] */;
  %726 = variance(%724, %725, axis=[-1], keepdims=True) /* ty=Tensor[(16, 128, 1), float32] */;
  %727 = (%725, %726);
  %728 = %727.0;
  %729 = %727.1;
  %730 = add(%729, 1e-12f /* ty=float32 */) /* ty=Tensor[(16, 128, 1), float32] */;
  %731 = subtract(%724, %728) /* ty=Tensor[(16, 128, 1024), float32] */;
  %732 = sqrt(%730) /* ty=Tensor[(16, 128, 1), float32] */;
  %733 = divide(%731, %732) /* ty=Tensor[(16, 128, 1024), float32] */;
  %734 = multiply(%BertForMaskedLM_bert_encoder_layer_s9_BertLayer_output_layer_norm_weight, %733) /* ty=Tensor[(16, 128, 1024), float32] */;
  %735 = add(%734, %BertForMaskedLM_bert_encoder_layer_s9_BertLayer_output_layer_norm_bias) /* ty=Tensor[(16, 128, 1024), float32] */;
  %736 = contrib_reverse_reshape(%735, newshape=[-1, 0]) /* ty=Tensor[(2048, 1024), float32] */;
  %737 = nn.dense(%736, %BertForMaskedLM_bert_encoder_layer_s10_BertLayer_attention_self_attention_query_weight, units=None) /* ty=Tensor[(2048, 1024), float32] */;
  %738 = reshape(%737, newshape=[16, 128, 1024]) /* ty=Tensor[(16, 128, 1024), float32] */;
  %739 = nn.bias_add(%738, %BertForMaskedLM_bert_encoder_layer_s10_BertLayer_attention_self_attention_query_bias, axis=-1) /* ty=Tensor[(16, 128, 1024), float32] */;
  %740 = reshape(%739, newshape=[0, 0, -4, 16, 64]) /* ty=Tensor[(16, 128, 16, 64), float32] */;
  %741 = transpose(%740, axes=[0, 2, 1, 3]) /* ty=Tensor[(16, 16, 128, 64), float32] */;
  %742 = contrib_reverse_reshape(%735, newshape=[-1, 0]) /* ty=Tensor[(2048, 1024), float32] */;
  %743 = nn.dense(%742, %BertForMaskedLM_bert_encoder_layer_s10_BertLayer_attention_self_attention_key_weight, units=None) /* ty=Tensor[(2048, 1024), float32] */;
  %744 = reshape(%743, newshape=[16, 128, 1024]) /* ty=Tensor[(16, 128, 1024), float32] */;
  %745 = nn.bias_add(%744, %BertForMaskedLM_bert_encoder_layer_s10_BertLayer_attention_self_attention_key_bias, axis=-1) /* ty=Tensor[(16, 128, 1024), float32] */;
  %746 = reshape(%745, newshape=[0, 0, -4, 16, 64]) /* ty=Tensor[(16, 128, 16, 64), float32] */;
  %747 = transpose(%746, axes=[0, 2, 1, 3]) /* ty=Tensor[(16, 16, 128, 64), float32] */;
  %748 = contrib_reverse_reshape(%741, newshape=[-1, 0, 0]) /* ty=Tensor[(256, 128, 64), float32] */;
  %749 = contrib_reverse_reshape(%747, newshape=[-1, 0, 0]) /* ty=Tensor[(256, 128, 64), float32] */;
  %750 = nn.batch_matmul(%748, %749, meta[relay.attrs.BatchMatmulAttrs][20]) /* ty=Tensor[(256, 128, 128), float32] */;
  %751 = divide(%750, 8f /* ty=float32 */) /* ty=Tensor[(256, 128, 128), float32] */;
  %752 = contrib_reverse_reshape(%751, newshape=[-1, 16, 0, 0]) /* ty=Tensor[(16, 16, 128, 128), float32] */;
  %753 = add(%752, %42) /* ty=Tensor[(16, 16, 128, 128), float32] */;
  %754 = contrib_reverse_reshape(%753, newshape=[-1, 0, 0]) /* ty=Tensor[(256, 128, 128), float32] */;
  %755 = contrib_reverse_reshape(%735, newshape=[-1, 0]) /* ty=Tensor[(2048, 1024), float32] */;
  %756 = nn.dense(%755, %BertForMaskedLM_bert_encoder_layer_s10_BertLayer_attention_self_attention_value_weight, units=None) /* ty=Tensor[(2048, 1024), float32] */;
  %757 = reshape(%756, newshape=[16, 128, 1024]) /* ty=Tensor[(16, 128, 1024), float32] */;
  %758 = nn.bias_add(%757, %BertForMaskedLM_bert_encoder_layer_s10_BertLayer_attention_self_attention_value_bias, axis=-1) /* ty=Tensor[(16, 128, 1024), float32] */;
  %759 = reshape(%758, newshape=[0, 0, -4, 16, 64]) /* ty=Tensor[(16, 128, 16, 64), float32] */;
  %760 = transpose(%759, axes=[0, 2, 3, 1]) /* ty=Tensor[(16, 16, 64, 128), float32] */;
  %761 = nn.softmax(%754) /* ty=Tensor[(256, 128, 128), float32] */;
  %762 = contrib_reverse_reshape(%760, newshape=[-1, 0, 0]) /* ty=Tensor[(256, 64, 128), float32] */;
  %763 = nn.batch_matmul(%761, %762, meta[relay.attrs.BatchMatmulAttrs][21]) /* ty=Tensor[(256, 128, 64), float32] */;
  %764 = contrib_reverse_reshape(%763, newshape=[-1, 16, 0, 0]) /* ty=Tensor[(16, 16, 128, 64), float32] */;
  %765 = transpose(%764, axes=[0, 2, 1, 3]) /* ty=Tensor[(16, 128, 16, 64), float32] */;
  %766 = reshape(%765, newshape=[2048, 1024]) /* ty=Tensor[(2048, 1024), float32] */;
  %767 = nn.dense(%766, %BertForMaskedLM_bert_encoder_layer_s10_BertLayer_attention_output_dense_weight, units=None) /* ty=Tensor[(2048, 1024), float32] */;
  %768 = reshape(%767, newshape=[16, 128, 1024]) /* ty=Tensor[(16, 128, 1024), float32] */;
  %769 = nn.bias_add(%768, %BertForMaskedLM_bert_encoder_layer_s10_BertLayer_attention_output_dense_bias, axis=-1) /* ty=Tensor[(16, 128, 1024), float32] */;
  %770 = add(%769, %735) /* ty=Tensor[(16, 128, 1024), float32] */;
  %771 = mean(%770, axis=[-1], keepdims=True) /* ty=Tensor[(16, 128, 1), float32] */;
  %772 = variance(%770, %771, axis=[-1], keepdims=True) /* ty=Tensor[(16, 128, 1), float32] */;
  %773 = (%771, %772);
  %774 = %773.0;
  %775 = %773.1;
  %776 = add(%775, 1e-12f /* ty=float32 */) /* ty=Tensor[(16, 128, 1), float32] */;
  %777 = subtract(%770, %774) /* ty=Tensor[(16, 128, 1024), float32] */;
  %778 = sqrt(%776) /* ty=Tensor[(16, 128, 1), float32] */;
  %779 = divide(%777, %778) /* ty=Tensor[(16, 128, 1024), float32] */;
  %780 = multiply(%BertForMaskedLM_bert_encoder_layer_s10_BertLayer_attention_output_layer_norm_weight, %779) /* ty=Tensor[(16, 128, 1024), float32] */;
  %781 = add(%780, %BertForMaskedLM_bert_encoder_layer_s10_BertLayer_attention_output_layer_norm_bias) /* ty=Tensor[(16, 128, 1024), float32] */;
  %782 = contrib_reverse_reshape(%781, newshape=[-1, 0]) /* ty=Tensor[(2048, 1024), float32] */;
  %783 = nn.dense(%782, %BertForMaskedLM_bert_encoder_layer_s10_BertLayer_intermediate_dense_weight, units=None) /* ty=Tensor[(2048, 4096), float32] */;
  %784 = reshape(%783, newshape=[16, 128, 4096]) /* ty=Tensor[(16, 128, 4096), float32] */;
  %785 = nn.bias_add(%784, %BertForMaskedLM_bert_encoder_layer_s10_BertLayer_intermediate_dense_bias, axis=-1) /* ty=Tensor[(16, 128, 4096), float32] */;
  %786 = divide(%785, 1.41421f /* ty=float32 */) /* ty=Tensor[(16, 128, 4096), float32] */;
  %787 = erf(%786) /* ty=Tensor[(16, 128, 4096), float32] */;
  %788 = multiply(%785, 0.5f /* ty=float32 */) /* ty=Tensor[(16, 128, 4096), float32] */;
  %789 = add(%787, 1f /* ty=float32 */) /* ty=Tensor[(16, 128, 4096), float32] */;
  %790 = multiply(%788, %789) /* ty=Tensor[(16, 128, 4096), float32] */;
  %791 = contrib_reverse_reshape(%790, newshape=[-1, 0]) /* ty=Tensor[(2048, 4096), float32] */;
  %792 = nn.dense(%791, %BertForMaskedLM_bert_encoder_layer_s10_BertLayer_output_dense_weight, units=None) /* ty=Tensor[(2048, 1024), float32] */;
  %793 = reshape(%792, newshape=[16, 128, 1024]) /* ty=Tensor[(16, 128, 1024), float32] */;
  %794 = nn.bias_add(%793, %BertForMaskedLM_bert_encoder_layer_s10_BertLayer_output_dense_bias, axis=-1) /* ty=Tensor[(16, 128, 1024), float32] */;
  %795 = add(%794, %781) /* ty=Tensor[(16, 128, 1024), float32] */;
  %796 = mean(%795, axis=[-1], keepdims=True) /* ty=Tensor[(16, 128, 1), float32] */;
  %797 = variance(%795, %796, axis=[-1], keepdims=True) /* ty=Tensor[(16, 128, 1), float32] */;
  %798 = (%796, %797);
  %799 = %798.0;
  %800 = %798.1;
  %801 = add(%800, 1e-12f /* ty=float32 */) /* ty=Tensor[(16, 128, 1), float32] */;
  %802 = subtract(%795, %799) /* ty=Tensor[(16, 128, 1024), float32] */;
  %803 = sqrt(%801) /* ty=Tensor[(16, 128, 1), float32] */;
  %804 = divide(%802, %803) /* ty=Tensor[(16, 128, 1024), float32] */;
  %805 = multiply(%BertForMaskedLM_bert_encoder_layer_s10_BertLayer_output_layer_norm_weight, %804) /* ty=Tensor[(16, 128, 1024), float32] */;
  %806 = add(%805, %BertForMaskedLM_bert_encoder_layer_s10_BertLayer_output_layer_norm_bias) /* ty=Tensor[(16, 128, 1024), float32] */;
  %807 = contrib_reverse_reshape(%806, newshape=[-1, 0]) /* ty=Tensor[(2048, 1024), float32] */;
  %808 = nn.dense(%807, %BertForMaskedLM_bert_encoder_layer_s11_BertLayer_attention_self_attention_query_weight, units=None) /* ty=Tensor[(2048, 1024), float32] */;
  %809 = reshape(%808, newshape=[16, 128, 1024]) /* ty=Tensor[(16, 128, 1024), float32] */;
  %810 = nn.bias_add(%809, %BertForMaskedLM_bert_encoder_layer_s11_BertLayer_attention_self_attention_query_bias, axis=-1) /* ty=Tensor[(16, 128, 1024), float32] */;
  %811 = reshape(%810, newshape=[0, 0, -4, 16, 64]) /* ty=Tensor[(16, 128, 16, 64), float32] */;
  %812 = transpose(%811, axes=[0, 2, 1, 3]) /* ty=Tensor[(16, 16, 128, 64), float32] */;
  %813 = contrib_reverse_reshape(%806, newshape=[-1, 0]) /* ty=Tensor[(2048, 1024), float32] */;
  %814 = nn.dense(%813, %BertForMaskedLM_bert_encoder_layer_s11_BertLayer_attention_self_attention_key_weight, units=None) /* ty=Tensor[(2048, 1024), float32] */;
  %815 = reshape(%814, newshape=[16, 128, 1024]) /* ty=Tensor[(16, 128, 1024), float32] */;
  %816 = nn.bias_add(%815, %BertForMaskedLM_bert_encoder_layer_s11_BertLayer_attention_self_attention_key_bias, axis=-1) /* ty=Tensor[(16, 128, 1024), float32] */;
  %817 = reshape(%816, newshape=[0, 0, -4, 16, 64]) /* ty=Tensor[(16, 128, 16, 64), float32] */;
  %818 = transpose(%817, axes=[0, 2, 1, 3]) /* ty=Tensor[(16, 16, 128, 64), float32] */;
  %819 = contrib_reverse_reshape(%812, newshape=[-1, 0, 0]) /* ty=Tensor[(256, 128, 64), float32] */;
  %820 = contrib_reverse_reshape(%818, newshape=[-1, 0, 0]) /* ty=Tensor[(256, 128, 64), float32] */;
  %821 = nn.batch_matmul(%819, %820, meta[relay.attrs.BatchMatmulAttrs][22]) /* ty=Tensor[(256, 128, 128), float32] */;
  %822 = divide(%821, 8f /* ty=float32 */) /* ty=Tensor[(256, 128, 128), float32] */;
  %823 = contrib_reverse_reshape(%822, newshape=[-1, 16, 0, 0]) /* ty=Tensor[(16, 16, 128, 128), float32] */;
  %824 = add(%823, %42) /* ty=Tensor[(16, 16, 128, 128), float32] */;
  %825 = contrib_reverse_reshape(%824, newshape=[-1, 0, 0]) /* ty=Tensor[(256, 128, 128), float32] */;
  %826 = contrib_reverse_reshape(%806, newshape=[-1, 0]) /* ty=Tensor[(2048, 1024), float32] */;
  %827 = nn.dense(%826, %BertForMaskedLM_bert_encoder_layer_s11_BertLayer_attention_self_attention_value_weight, units=None) /* ty=Tensor[(2048, 1024), float32] */;
  %828 = reshape(%827, newshape=[16, 128, 1024]) /* ty=Tensor[(16, 128, 1024), float32] */;
  %829 = nn.bias_add(%828, %BertForMaskedLM_bert_encoder_layer_s11_BertLayer_attention_self_attention_value_bias, axis=-1) /* ty=Tensor[(16, 128, 1024), float32] */;
  %830 = reshape(%829, newshape=[0, 0, -4, 16, 64]) /* ty=Tensor[(16, 128, 16, 64), float32] */;
  %831 = transpose(%830, axes=[0, 2, 3, 1]) /* ty=Tensor[(16, 16, 64, 128), float32] */;
  %832 = nn.softmax(%825) /* ty=Tensor[(256, 128, 128), float32] */;
  %833 = contrib_reverse_reshape(%831, newshape=[-1, 0, 0]) /* ty=Tensor[(256, 64, 128), float32] */;
  %834 = nn.batch_matmul(%832, %833, meta[relay.attrs.BatchMatmulAttrs][23]) /* ty=Tensor[(256, 128, 64), float32] */;
  %835 = contrib_reverse_reshape(%834, newshape=[-1, 16, 0, 0]) /* ty=Tensor[(16, 16, 128, 64), float32] */;
  %836 = transpose(%835, axes=[0, 2, 1, 3]) /* ty=Tensor[(16, 128, 16, 64), float32] */;
  %837 = reshape(%836, newshape=[2048, 1024]) /* ty=Tensor[(2048, 1024), float32] */;
  %838 = nn.dense(%837, %BertForMaskedLM_bert_encoder_layer_s11_BertLayer_attention_output_dense_weight, units=None) /* ty=Tensor[(2048, 1024), float32] */;
  %839 = reshape(%838, newshape=[16, 128, 1024]) /* ty=Tensor[(16, 128, 1024), float32] */;
  %840 = nn.bias_add(%839, %BertForMaskedLM_bert_encoder_layer_s11_BertLayer_attention_output_dense_bias, axis=-1) /* ty=Tensor[(16, 128, 1024), float32] */;
  %841 = add(%840, %806) /* ty=Tensor[(16, 128, 1024), float32] */;
  %842 = mean(%841, axis=[-1], keepdims=True) /* ty=Tensor[(16, 128, 1), float32] */;
  %843 = variance(%841, %842, axis=[-1], keepdims=True) /* ty=Tensor[(16, 128, 1), float32] */;
  %844 = (%842, %843);
  %845 = %844.0;
  %846 = %844.1;
  %847 = add(%846, 1e-12f /* ty=float32 */) /* ty=Tensor[(16, 128, 1), float32] */;
  %848 = subtract(%841, %845) /* ty=Tensor[(16, 128, 1024), float32] */;
  %849 = sqrt(%847) /* ty=Tensor[(16, 128, 1), float32] */;
  %850 = divide(%848, %849) /* ty=Tensor[(16, 128, 1024), float32] */;
  %851 = multiply(%BertForMaskedLM_bert_encoder_layer_s11_BertLayer_attention_output_layer_norm_weight, %850) /* ty=Tensor[(16, 128, 1024), float32] */;
  %852 = add(%851, %BertForMaskedLM_bert_encoder_layer_s11_BertLayer_attention_output_layer_norm_bias) /* ty=Tensor[(16, 128, 1024), float32] */;
  %853 = contrib_reverse_reshape(%852, newshape=[-1, 0]) /* ty=Tensor[(2048, 1024), float32] */;
  %854 = nn.dense(%853, %BertForMaskedLM_bert_encoder_layer_s11_BertLayer_intermediate_dense_weight, units=None) /* ty=Tensor[(2048, 4096), float32] */;
  %855 = reshape(%854, newshape=[16, 128, 4096]) /* ty=Tensor[(16, 128, 4096), float32] */;
  %856 = nn.bias_add(%855, %BertForMaskedLM_bert_encoder_layer_s11_BertLayer_intermediate_dense_bias, axis=-1) /* ty=Tensor[(16, 128, 4096), float32] */;
  %857 = divide(%856, 1.41421f /* ty=float32 */) /* ty=Tensor[(16, 128, 4096), float32] */;
  %858 = erf(%857) /* ty=Tensor[(16, 128, 4096), float32] */;
  %859 = multiply(%856, 0.5f /* ty=float32 */) /* ty=Tensor[(16, 128, 4096), float32] */;
  %860 = add(%858, 1f /* ty=float32 */) /* ty=Tensor[(16, 128, 4096), float32] */;
  %861 = multiply(%859, %860) /* ty=Tensor[(16, 128, 4096), float32] */;
  %862 = contrib_reverse_reshape(%861, newshape=[-1, 0]) /* ty=Tensor[(2048, 4096), float32] */;
  %863 = nn.dense(%862, %BertForMaskedLM_bert_encoder_layer_s11_BertLayer_output_dense_weight, units=None) /* ty=Tensor[(2048, 1024), float32] */;
  %864 = reshape(%863, newshape=[16, 128, 1024]) /* ty=Tensor[(16, 128, 1024), float32] */;
  %865 = nn.bias_add(%864, %BertForMaskedLM_bert_encoder_layer_s11_BertLayer_output_dense_bias, axis=-1) /* ty=Tensor[(16, 128, 1024), float32] */;
  %866 = add(%865, %852) /* ty=Tensor[(16, 128, 1024), float32] */;
  %867 = mean(%866, axis=[-1], keepdims=True) /* ty=Tensor[(16, 128, 1), float32] */;
  %868 = variance(%866, %867, axis=[-1], keepdims=True) /* ty=Tensor[(16, 128, 1), float32] */;
  %869 = (%867, %868);
  %870 = %869.0;
  %871 = %869.1;
  %872 = add(%871, 1e-12f /* ty=float32 */) /* ty=Tensor[(16, 128, 1), float32] */;
  %873 = subtract(%866, %870) /* ty=Tensor[(16, 128, 1024), float32] */;
  %874 = sqrt(%872) /* ty=Tensor[(16, 128, 1), float32] */;
  %875 = divide(%873, %874) /* ty=Tensor[(16, 128, 1024), float32] */;
  %876 = multiply(%BertForMaskedLM_bert_encoder_layer_s11_BertLayer_output_layer_norm_weight, %875) /* ty=Tensor[(16, 128, 1024), float32] */;
  %877 = add(%876, %BertForMaskedLM_bert_encoder_layer_s11_BertLayer_output_layer_norm_bias) /* ty=Tensor[(16, 128, 1024), float32] */;
  %878 = contrib_reverse_reshape(%877, newshape=[-1, 0]) /* ty=Tensor[(2048, 1024), float32] */;
  %879 = nn.dense(%878, %BertForMaskedLM_bert_encoder_layer_s12_BertLayer_attention_self_attention_query_weight, units=None) /* ty=Tensor[(2048, 1024), float32] */;
  %880 = reshape(%879, newshape=[16, 128, 1024]) /* ty=Tensor[(16, 128, 1024), float32] */;
  %881 = nn.bias_add(%880, %BertForMaskedLM_bert_encoder_layer_s12_BertLayer_attention_self_attention_query_bias, axis=-1) /* ty=Tensor[(16, 128, 1024), float32] */;
  %882 = reshape(%881, newshape=[0, 0, -4, 16, 64]) /* ty=Tensor[(16, 128, 16, 64), float32] */;
  %883 = transpose(%882, axes=[0, 2, 1, 3]) /* ty=Tensor[(16, 16, 128, 64), float32] */;
  %884 = contrib_reverse_reshape(%877, newshape=[-1, 0]) /* ty=Tensor[(2048, 1024), float32] */;
  %885 = nn.dense(%884, %BertForMaskedLM_bert_encoder_layer_s12_BertLayer_attention_self_attention_key_weight, units=None) /* ty=Tensor[(2048, 1024), float32] */;
  %886 = reshape(%885, newshape=[16, 128, 1024]) /* ty=Tensor[(16, 128, 1024), float32] */;
  %887 = nn.bias_add(%886, %BertForMaskedLM_bert_encoder_layer_s12_BertLayer_attention_self_attention_key_bias, axis=-1) /* ty=Tensor[(16, 128, 1024), float32] */;
  %888 = reshape(%887, newshape=[0, 0, -4, 16, 64]) /* ty=Tensor[(16, 128, 16, 64), float32] */;
  %889 = transpose(%888, axes=[0, 2, 1, 3]) /* ty=Tensor[(16, 16, 128, 64), float32] */;
  %890 = contrib_reverse_reshape(%883, newshape=[-1, 0, 0]) /* ty=Tensor[(256, 128, 64), float32] */;
  %891 = contrib_reverse_reshape(%889, newshape=[-1, 0, 0]) /* ty=Tensor[(256, 128, 64), float32] */;
  %892 = nn.batch_matmul(%890, %891, meta[relay.attrs.BatchMatmulAttrs][24]) /* ty=Tensor[(256, 128, 128), float32] */;
  %893 = divide(%892, 8f /* ty=float32 */) /* ty=Tensor[(256, 128, 128), float32] */;
  %894 = contrib_reverse_reshape(%893, newshape=[-1, 16, 0, 0]) /* ty=Tensor[(16, 16, 128, 128), float32] */;
  %895 = add(%894, %42) /* ty=Tensor[(16, 16, 128, 128), float32] */;
  %896 = contrib_reverse_reshape(%895, newshape=[-1, 0, 0]) /* ty=Tensor[(256, 128, 128), float32] */;
  %897 = contrib_reverse_reshape(%877, newshape=[-1, 0]) /* ty=Tensor[(2048, 1024), float32] */;
  %898 = nn.dense(%897, %BertForMaskedLM_bert_encoder_layer_s12_BertLayer_attention_self_attention_value_weight, units=None) /* ty=Tensor[(2048, 1024), float32] */;
  %899 = reshape(%898, newshape=[16, 128, 1024]) /* ty=Tensor[(16, 128, 1024), float32] */;
  %900 = nn.bias_add(%899, %BertForMaskedLM_bert_encoder_layer_s12_BertLayer_attention_self_attention_value_bias, axis=-1) /* ty=Tensor[(16, 128, 1024), float32] */;
  %901 = reshape(%900, newshape=[0, 0, -4, 16, 64]) /* ty=Tensor[(16, 128, 16, 64), float32] */;
  %902 = transpose(%901, axes=[0, 2, 3, 1]) /* ty=Tensor[(16, 16, 64, 128), float32] */;
  %903 = nn.softmax(%896) /* ty=Tensor[(256, 128, 128), float32] */;
  %904 = contrib_reverse_reshape(%902, newshape=[-1, 0, 0]) /* ty=Tensor[(256, 64, 128), float32] */;
  %905 = nn.batch_matmul(%903, %904, meta[relay.attrs.BatchMatmulAttrs][25]) /* ty=Tensor[(256, 128, 64), float32] */;
  %906 = contrib_reverse_reshape(%905, newshape=[-1, 16, 0, 0]) /* ty=Tensor[(16, 16, 128, 64), float32] */;
  %907 = transpose(%906, axes=[0, 2, 1, 3]) /* ty=Tensor[(16, 128, 16, 64), float32] */;
  %908 = reshape(%907, newshape=[2048, 1024]) /* ty=Tensor[(2048, 1024), float32] */;
  %909 = nn.dense(%908, %BertForMaskedLM_bert_encoder_layer_s12_BertLayer_attention_output_dense_weight, units=None) /* ty=Tensor[(2048, 1024), float32] */;
  %910 = reshape(%909, newshape=[16, 128, 1024]) /* ty=Tensor[(16, 128, 1024), float32] */;
  %911 = nn.bias_add(%910, %BertForMaskedLM_bert_encoder_layer_s12_BertLayer_attention_output_dense_bias, axis=-1) /* ty=Tensor[(16, 128, 1024), float32] */;
  %912 = add(%911, %877) /* ty=Tensor[(16, 128, 1024), float32] */;
  %913 = mean(%912, axis=[-1], keepdims=True) /* ty=Tensor[(16, 128, 1), float32] */;
  %914 = variance(%912, %913, axis=[-1], keepdims=True) /* ty=Tensor[(16, 128, 1), float32] */;
  %915 = (%913, %914);
  %916 = %915.0;
  %917 = %915.1;
  %918 = add(%917, 1e-12f /* ty=float32 */) /* ty=Tensor[(16, 128, 1), float32] */;
  %919 = subtract(%912, %916) /* ty=Tensor[(16, 128, 1024), float32] */;
  %920 = sqrt(%918) /* ty=Tensor[(16, 128, 1), float32] */;
  %921 = divide(%919, %920) /* ty=Tensor[(16, 128, 1024), float32] */;
  %922 = multiply(%BertForMaskedLM_bert_encoder_layer_s12_BertLayer_attention_output_layer_norm_weight, %921) /* ty=Tensor[(16, 128, 1024), float32] */;
  %923 = add(%922, %BertForMaskedLM_bert_encoder_layer_s12_BertLayer_attention_output_layer_norm_bias) /* ty=Tensor[(16, 128, 1024), float32] */;
  %924 = contrib_reverse_reshape(%923, newshape=[-1, 0]) /* ty=Tensor[(2048, 1024), float32] */;
  %925 = nn.dense(%924, %BertForMaskedLM_bert_encoder_layer_s12_BertLayer_intermediate_dense_weight, units=None) /* ty=Tensor[(2048, 4096), float32] */;
  %926 = reshape(%925, newshape=[16, 128, 4096]) /* ty=Tensor[(16, 128, 4096), float32] */;
  %927 = nn.bias_add(%926, %BertForMaskedLM_bert_encoder_layer_s12_BertLayer_intermediate_dense_bias, axis=-1) /* ty=Tensor[(16, 128, 4096), float32] */;
  %928 = divide(%927, 1.41421f /* ty=float32 */) /* ty=Tensor[(16, 128, 4096), float32] */;
  %929 = erf(%928) /* ty=Tensor[(16, 128, 4096), float32] */;
  %930 = multiply(%927, 0.5f /* ty=float32 */) /* ty=Tensor[(16, 128, 4096), float32] */;
  %931 = add(%929, 1f /* ty=float32 */) /* ty=Tensor[(16, 128, 4096), float32] */;
  %932 = multiply(%930, %931) /* ty=Tensor[(16, 128, 4096), float32] */;
  %933 = contrib_reverse_reshape(%932, newshape=[-1, 0]) /* ty=Tensor[(2048, 4096), float32] */;
  %934 = nn.dense(%933, %BertForMaskedLM_bert_encoder_layer_s12_BertLayer_output_dense_weight, units=None) /* ty=Tensor[(2048, 1024), float32] */;
  %935 = reshape(%934, newshape=[16, 128, 1024]) /* ty=Tensor[(16, 128, 1024), float32] */;
  %936 = nn.bias_add(%935, %BertForMaskedLM_bert_encoder_layer_s12_BertLayer_output_dense_bias, axis=-1) /* ty=Tensor[(16, 128, 1024), float32] */;
  %937 = add(%936, %923) /* ty=Tensor[(16, 128, 1024), float32] */;
  %938 = mean(%937, axis=[-1], keepdims=True) /* ty=Tensor[(16, 128, 1), float32] */;
  %939 = variance(%937, %938, axis=[-1], keepdims=True) /* ty=Tensor[(16, 128, 1), float32] */;
  %940 = (%938, %939);
  %941 = %940.0;
  %942 = %940.1;
  %943 = add(%942, 1e-12f /* ty=float32 */) /* ty=Tensor[(16, 128, 1), float32] */;
  %944 = subtract(%937, %941) /* ty=Tensor[(16, 128, 1024), float32] */;
  %945 = sqrt(%943) /* ty=Tensor[(16, 128, 1), float32] */;
  %946 = divide(%944, %945) /* ty=Tensor[(16, 128, 1024), float32] */;
  %947 = multiply(%BertForMaskedLM_bert_encoder_layer_s12_BertLayer_output_layer_norm_weight, %946) /* ty=Tensor[(16, 128, 1024), float32] */;
  %948 = add(%947, %BertForMaskedLM_bert_encoder_layer_s12_BertLayer_output_layer_norm_bias) /* ty=Tensor[(16, 128, 1024), float32] */;
  %949 = contrib_reverse_reshape(%948, newshape=[-1, 0]) /* ty=Tensor[(2048, 1024), float32] */;
  %950 = nn.dense(%949, %BertForMaskedLM_bert_encoder_layer_s13_BertLayer_attention_self_attention_query_weight, units=None) /* ty=Tensor[(2048, 1024), float32] */;
  %951 = reshape(%950, newshape=[16, 128, 1024]) /* ty=Tensor[(16, 128, 1024), float32] */;
  %952 = nn.bias_add(%951, %BertForMaskedLM_bert_encoder_layer_s13_BertLayer_attention_self_attention_query_bias, axis=-1) /* ty=Tensor[(16, 128, 1024), float32] */;
  %953 = reshape(%952, newshape=[0, 0, -4, 16, 64]) /* ty=Tensor[(16, 128, 16, 64), float32] */;
  %954 = transpose(%953, axes=[0, 2, 1, 3]) /* ty=Tensor[(16, 16, 128, 64), float32] */;
  %955 = contrib_reverse_reshape(%948, newshape=[-1, 0]) /* ty=Tensor[(2048, 1024), float32] */;
  %956 = nn.dense(%955, %BertForMaskedLM_bert_encoder_layer_s13_BertLayer_attention_self_attention_key_weight, units=None) /* ty=Tensor[(2048, 1024), float32] */;
  %957 = reshape(%956, newshape=[16, 128, 1024]) /* ty=Tensor[(16, 128, 1024), float32] */;
  %958 = nn.bias_add(%957, %BertForMaskedLM_bert_encoder_layer_s13_BertLayer_attention_self_attention_key_bias, axis=-1) /* ty=Tensor[(16, 128, 1024), float32] */;
  %959 = reshape(%958, newshape=[0, 0, -4, 16, 64]) /* ty=Tensor[(16, 128, 16, 64), float32] */;
  %960 = transpose(%959, axes=[0, 2, 1, 3]) /* ty=Tensor[(16, 16, 128, 64), float32] */;
  %961 = contrib_reverse_reshape(%954, newshape=[-1, 0, 0]) /* ty=Tensor[(256, 128, 64), float32] */;
  %962 = contrib_reverse_reshape(%960, newshape=[-1, 0, 0]) /* ty=Tensor[(256, 128, 64), float32] */;
  %963 = nn.batch_matmul(%961, %962, meta[relay.attrs.BatchMatmulAttrs][26]) /* ty=Tensor[(256, 128, 128), float32] */;
  %964 = divide(%963, 8f /* ty=float32 */) /* ty=Tensor[(256, 128, 128), float32] */;
  %965 = contrib_reverse_reshape(%964, newshape=[-1, 16, 0, 0]) /* ty=Tensor[(16, 16, 128, 128), float32] */;
  %966 = add(%965, %42) /* ty=Tensor[(16, 16, 128, 128), float32] */;
  %967 = contrib_reverse_reshape(%966, newshape=[-1, 0, 0]) /* ty=Tensor[(256, 128, 128), float32] */;
  %968 = contrib_reverse_reshape(%948, newshape=[-1, 0]) /* ty=Tensor[(2048, 1024), float32] */;
  %969 = nn.dense(%968, %BertForMaskedLM_bert_encoder_layer_s13_BertLayer_attention_self_attention_value_weight, units=None) /* ty=Tensor[(2048, 1024), float32] */;
  %970 = reshape(%969, newshape=[16, 128, 1024]) /* ty=Tensor[(16, 128, 1024), float32] */;
  %971 = nn.bias_add(%970, %BertForMaskedLM_bert_encoder_layer_s13_BertLayer_attention_self_attention_value_bias, axis=-1) /* ty=Tensor[(16, 128, 1024), float32] */;
  %972 = reshape(%971, newshape=[0, 0, -4, 16, 64]) /* ty=Tensor[(16, 128, 16, 64), float32] */;
  %973 = transpose(%972, axes=[0, 2, 3, 1]) /* ty=Tensor[(16, 16, 64, 128), float32] */;
  %974 = nn.softmax(%967) /* ty=Tensor[(256, 128, 128), float32] */;
  %975 = contrib_reverse_reshape(%973, newshape=[-1, 0, 0]) /* ty=Tensor[(256, 64, 128), float32] */;
  %976 = nn.batch_matmul(%974, %975, meta[relay.attrs.BatchMatmulAttrs][27]) /* ty=Tensor[(256, 128, 64), float32] */;
  %977 = contrib_reverse_reshape(%976, newshape=[-1, 16, 0, 0]) /* ty=Tensor[(16, 16, 128, 64), float32] */;
  %978 = transpose(%977, axes=[0, 2, 1, 3]) /* ty=Tensor[(16, 128, 16, 64), float32] */;
  %979 = reshape(%978, newshape=[2048, 1024]) /* ty=Tensor[(2048, 1024), float32] */;
  %980 = nn.dense(%979, %BertForMaskedLM_bert_encoder_layer_s13_BertLayer_attention_output_dense_weight, units=None) /* ty=Tensor[(2048, 1024), float32] */;
  %981 = reshape(%980, newshape=[16, 128, 1024]) /* ty=Tensor[(16, 128, 1024), float32] */;
  %982 = nn.bias_add(%981, %BertForMaskedLM_bert_encoder_layer_s13_BertLayer_attention_output_dense_bias, axis=-1) /* ty=Tensor[(16, 128, 1024), float32] */;
  %983 = add(%982, %948) /* ty=Tensor[(16, 128, 1024), float32] */;
  %984 = mean(%983, axis=[-1], keepdims=True) /* ty=Tensor[(16, 128, 1), float32] */;
  %985 = variance(%983, %984, axis=[-1], keepdims=True) /* ty=Tensor[(16, 128, 1), float32] */;
  %986 = (%984, %985);
  %987 = %986.0;
  %988 = %986.1;
  %989 = add(%988, 1e-12f /* ty=float32 */) /* ty=Tensor[(16, 128, 1), float32] */;
  %990 = subtract(%983, %987) /* ty=Tensor[(16, 128, 1024), float32] */;
  %991 = sqrt(%989) /* ty=Tensor[(16, 128, 1), float32] */;
  %992 = divide(%990, %991) /* ty=Tensor[(16, 128, 1024), float32] */;
  %993 = multiply(%BertForMaskedLM_bert_encoder_layer_s13_BertLayer_attention_output_layer_norm_weight, %992) /* ty=Tensor[(16, 128, 1024), float32] */;
  %994 = add(%993, %BertForMaskedLM_bert_encoder_layer_s13_BertLayer_attention_output_layer_norm_bias) /* ty=Tensor[(16, 128, 1024), float32] */;
  %995 = contrib_reverse_reshape(%994, newshape=[-1, 0]) /* ty=Tensor[(2048, 1024), float32] */;
…
    "P6G0lvBAXt0AAAAAAAAAAAEAAAAAAAAAAQAAAAAgAQADAAAAAAAAAAwAAAAAAAAAEAAAAIAAAAAABAAA", 
    "P6G0lvBAXt0AAAAAAAAAAAEAAAAAAAAAAQAAAAAgAQADAAAAAAAAAAwAAAAAAAAAEAAAAIAAAAAABAAA", 
    "P6G0lvBAXt0AAAAAAAAAAAEAAAAAAAAAAQAAAAAgAQADAAAAAAAAAAwAAAAAAAAAEAAAAIAAAAAABAAA", 
    "P6G0lvBAXt0AAAAAAAAAAAEAAAAAAAAAAQAAAAAgAQADAAAAAAAAAAwAAAAAAAAAEAAAAIAAAAAABAAA", 
    "P6G0lvBAXt0AAAAAAAAAAAEAAAAAAAAAAQAAAAAgAQADAAAAAAAAAAwAAAAAAAAAEAAAAIAAAAABAAAA", 
    "P6G0lvBAXt0AAAAAAAAAAAEAAAAAAAAAAQAAAAAgAQADAAAAAAAAAAwAAAAAAAAAEAAAAIAAAAABAAAA", 
    "P6G0lvBAXt0AAAAAAAAAAAEAAAAAAAAAAQAAAAAgAQADAAAAAAAAAAwAAAAAAAAAEAAAAIAAAAABAAAA", 
    "P6G0lvBAXt0AAAAAAAAAAAEAAAAAAAAAAQAAAAAgAQADAAAAAAAAAAwAAAAAAAAAEAAAAIAAAAAABAAA", 
    "P6G0lvBAXt0AAAAAAAAAAAEAAAAAAAAAAQAAAAAgAQADAAAAAAAAAAwAAAAAAAAAEAAAAIAAAAAABAAA", 
    "P6G0lvBAXt0AAAAAAAAAAAEAAAAAAAAAAQAAAAAgAQACAAAAAAAAAAgAAAAAAAAAAAgAAAAEAAA=", 
    "P6G0lvBAXt0AAAAAAAAAAAEAAAAAAAAAAQAAAAAgAQADAAAAAAAAAAwAAAAAAAAAAAEAAIAAAACAAAAA", 
    "P6G0lvBAXt0AAAAAAAAAAAEAAAAAAAAAAQAAAAAgAQAEAAAAAAAAABAAAAAAAAAAEAAAAAEAAAABAAAAgAAAAA==", 
    "P6G0lvBAXt0AAAAAAAAAAAEAAAAAAAAAAQAAAAAgAQADAAAAAAAAAAwAAAAAAAAAEAAAAIAAAAAABAAA", 
    "P6G0lvBAXt0AAAAAAAAAAAEAAAAAAAAAAQAAAAAgAQADAAAAAAAAAAwAAAAAAAAAAAEAAEAAAACAAAAA", 
    "P6G0lvBAXt0AAAAAAAAAAAEAAAAAAAAAAQAAAAAgAQADAAAAAAAAAAwAAAAAAAAAEAAAAIAAAAAABAAA", 
    "P6G0lvBAXt0AAAAAAAAAAAEAAAAAAAAAAQAAAAAgAQACAAAAAAAAAAgAAAAAAAAAAAgAAAAEAAA=", 
    "P6G0lvBAXt0AAAAAAAAAAAEAAAAAAAAAAQAAAAAgAQAEAAAAAAAAABAAAAAAAAAAEAAAABAAAACAAAAAgAAAAA==", 
    "P6G0lvBAXt0AAAAAAAAAAAEAAAAAAAAAAQAAAAAgAQADAAAAAAAAAAwAAAAAAAAAAAEAAIAAAACAAAAA", 
    "P6G0lvBAXt0AAAAAAAAAAAEAAAAAAAAAAQAAAAAgAQADAAAAAAAAAAwAAAAAAAAAAAEAAIAAAABAAAAA", 
    "P6G0lvBAXt0AAAAAAAAAAAEAAAAAAAAAAQAAAAAgAQADAAAAAAAAAAwAAAAAAAAAEAAAAIAAAAAABAAA", 
    "P6G0lvBAXt0AAAAAAAAAAAEAAAAAAAAAAQAAAAAgAQACAAAAAAAAAAgAAAAAAAAAAAgAAAAEAAA=", 
    "P6G0lvBAXt0AAAAAAAAAAAEAAAAAAAAAAQAAAAAgAQADAAAAAAAAAAwAAAAAAAAAAAEAAIAAAABAAAAA", 
    "P6G0lvBAXt0AAAAAAAAAAAEAAAAAAAAAAQAAAAAgAQADAAAAAAAAAAwAAAAAAAAAEAAAAIAAAAAABAAA", 
    "P6G0lvBAXt0AAAAAAAAAAAEAAAAAAAAAAQAAAAAgAQACAAAAAAAAAAgAAAAAAAAAAAgAAAAEAAA=", 
    "P6G0lvBAXt0AAAAAAAAAAAEAAAAAAAAAAQAAAAAgAQADAAAAAAAAAAwAAAAAAAAAEAAAAIAAAAAABAAA", 
    "P6G0lvBAXt0AAAAAAAAAAAEAAAAAAAAAAQAAAAAgAQADAAAAAAAAAAwAAAAAAAAAEAAAAIAAAAAABAAA", 
    "P6G0lvBAXt0AAAAAAAAAAAEAAAAAAAAAAQAAAAAgAQADAAAAAAAAAAwAAAAAAAAAEAAAAIAAAAAABAAA", 
    "P6G0lvBAXt0AAAAAAAAAAAEAAAAAAAAAAQAAAAAgAQADAAAAAAAAAAwAAAAAAAAAEAAAAIAAAAAABAAA", 
    "P6G0lvBAXt0AAAAAAAAAAAEAAAAAAAAAAQAAAAAgAQADAAAAAAAAAAwAAAAAAAAAEAAAAIAAAAABAAAA", 
    "P6G0lvBAXt0AAAAAAAAAAAEAAAAAAAAAAQAAAAAgAQADAAAAAAAAAAwAAAAAAAAAEAAAAIAAAAABAAAA", 
    "P6G0lvBAXt0AAAAAAAAAAAEAAAAAAAAAAQAAAAAgAQADAAAAAAAAAAwAAAAAAAAAEAAAAIAAAAABAAAA", 
    "P6G0lvBAXt0AAAAAAAAAAAEAAAAAAAAAAQAAAAAgAQADAAAAAAAAAAwAAAAAAAAAEAAAAIAAAAAABAAA", 
    "P6G0lvBAXt0AAAAAAAAAAAEAAAAAAAAAAQAAAAAgAQADAAAAAAAAAAwAAAAAAAAAEAAAAIAAAAAABAAA", 
    "P6G0lvBAXt0AAAAAAAAAAAEAAAAAAAAAAQAAAAAgAQADAAAAAAAAAAwAAAAAAAAAEAAAAIAAAAAABAAA", 
    "P6G0lvBAXt0AAAAAAAAAAAEAAAAAAAAAAQAAAAAgAQACAAAAAAAAAAgAAAAAAAAAAAgAAAAQAAA=", 
    "P6G0lvBAXt0AAAAAAAAAAAEAAAAAAAAAAQAAAAAgAQADAAAAAAAAAAwAAAAAAAAAEAAAAIAAAAAAEAAA", 
    "P6G0lvBAXt0AAAAAAAAAAAEAAAAAAAAAAQAAAAAgAQADAAAAAAAAAAwAAAAAAAAAEAAAAIAAAAAAEAAA", 
    "P6G0lvBAXt0AAAAAAAAAAAEAAAAAAAAAAQAAAAAgAQADAAAAAAAAAAwAAAAAAAAAEAAAAIAAAAAAEAAA", 
    "P6G0lvBAXt0AAAAAAAAAAAEAAAAAAAAAAQAAAAAgAQADAAAAAAAAAAwAAAAAAAAAEAAAAIAAAAAAEAAA", 
    "P6G0lvBAXt0AAAAAAAAAAAEAAAAAAAAAAQAAAAAgAQADAAAAAAAAAAwAAAAAAAAAEAAAAIAAAAAAEAAA", 
    "P6G0lvBAXt0AAAAAAAAAAAEAAAAAAAAAAQAAAAAgAQADAAAAAAAAAAwAAAAAAAAAEAAAAIAAAAAAEAAA", 
    "P6G0lvBAXt0AAAAAAAAAAAEAAAAAAAAAAQAAAAAgAQACAAAAAAAAAAgAAAAAAAAAAAgAAAAEAAA=", 
    "P6G0lvBAXt0AAAAAAAAAAAEAAAAAAAAAAQAAAAAgAQADAAAAAAAAAAwAAAAAAAAAEAAAAIAAAAAABAAA", 
    "P6G0lvBAXt0AAAAAAAAAAAEAAAAAAAAAAQAAAAAgAQADAAAAAAAAAAwAAAAAAAAAEAAAAIAAAAAABAAA", 
    "P6G0lvBAXt0AAAAAAAAAAAEAAAAAAAAAAQAAAAAgAQADAAAAAAAAAAwAAAAAAAAAEAAAAIAAAAAABAAA", 
    "P6G0lvBAXt0AAAAAAAAAAAEAAAAAAAAAAQAAAAAgAQADAAAAAAAAAAwAAAAAAAAAEAAAAIAAAAAABAAA", 
    "P6G0lvBAXt0AAAAAAAAAAAEAAAAAAAAAAQAAAAAgAQADAAAAAAAAAAwAAAAAAAAAEAAAAIAAAAABAAAA", 
    "P6G0lvBAXt0AAAAAAAAAAAEAAAAAAAAAAQAAAAAgAQADAAAAAAAAAAwAAAAAAAAAEAAAAIAAAAABAAAA", 
    "P6G0lvBAXt0AAAAAAAAAAAEAAAAAAAAAAQAAAAAgAQADAAAAAAAAAAwAAAAAAAAAEAAAAIAAAAABAAAA", 
    "P6G0lvBAXt0AAAAAAAAAAAEAAAAAAAAAAQAAAAAgAQADAAAAAAAAAAwAAAAAAAAAEAAAAIAAAAAABAAA", 
    "P6G0lvBAXt0AAAAAAAAAAAEAAAAAAAAAAQAAAAAgAQADAAAAAAAAAAwAAAAAAAAAEAAAAIAAAAAABAAA", 
    "P6G0lvBAXt0AAAAAAAAAAAEAAAAAAAAAAQAAAAAgAQACAAAAAAAAAAgAAAAAAAAAAAgAAAAEAAA=", 
    "P6G0lvBAXt0AAAAAAAAAAAEAAAAAAAAAAQAAAAAgAQADAAAAAAAAAAwAAAAAAAAAAAEAAIAAAACAAAAA", 
    "P6G0lvBAXt0AAAAAAAAAAAEAAAAAAAAAAQAAAAAgAQAEAAAAAAAAABAAAAAAAAAAEAAAAAEAAAABAAAAgAAAAA==", 
    "P6G0lvBAXt0AAAAAAAAAAAEAAAAAAAAAAQAAAAAgAQADAAAAAAAAAAwAAAAAAAAAEAAAAIAAAAAABAAA", 
    "P6G0lvBAXt0AAAAAAAAAAAEAAAAAAAAAAQAAAAAgAQADAAAAAAAAAAwAAAAAAAAAAAEAAEAAAACAAAAA", 
    "P6G0lvBAXt0AAAAAAAAAAAEAAAAAAAAAAQAAAAAgAQADAAAAAAAAAAwAAAAAAAAAEAAAAIAAAAAABAAA", 
    "P6G0lvBAXt0AAAAAAAAAAAEAAAAAAAAAAQAAAAAgAQACAAAAAAAAAAgAAAAAAAAAAAgAAAAEAAA=", 
    "P6G0lvBAXt0AAAAAAAAAAAEAAAAAAAAAAQAAAAAgAQAEAAAAAAAAABAAAAAAAAAAEAAAABAAAACAAAAAgAAAAA==", 
    "P6G0lvBAXt0AAAAAAAAAAAEAAAAAAAAAAQAAAAAgAQADAAAAAAAAAAwAAAAAAAAAAAEAAIAAAACAAAAA", 
    "P6G0lvBAXt0AAAAAAAAAAAEAAAAAAAAAAQAAAAAgAQADAAAAAAAAAAwAAAAAAAAAAAEAAIAAAABAAAAA", 
    "P6G0lvBAXt0AAAAAAAAAAAEAAAAAAAAAAQAAAAAgAQADAAAAAAAAAAwAAAAAAAAAEAAAAIAAAAAABAAA", 
    "P6G0lvBAXt0AAAAAAAAAAAEAAAAAAAAAAQAAAAAgAQACAAAAAAAAAAgAAAAAAAAAAAgAAAAEAAA=", 
    "P6G0lvBAXt0AAAAAAAAAAAEAAAAAAAAAAQAAAAAgAQADAAAAAAAAAAwAAAAAAAAAAAEAAIAAAABAAAAA", 
    "P6G0lvBAXt0AAAAAAAAAAAEAAAAAAAAAAQAAAAAgAQADAAAAAAAAAAwAAAAAAAAAEAAAAIAAAAAABAAA", 
    "P6G0lvBAXt0AAAAAAAAAAAEAAAAAAAAAAQAAAAAgAQACAAAAAAAAAAgAAAAAAAAAAAgAAAAEAAA=", 
    "P6G0lvBAXt0AAAAAAAAAAAEAAAAAAAAAAQAAAAAgAQADAAAAAAAAAAwAAAAAAAAAEAAAAIAAAAAABAAA", 
    "P6G0lvBAXt0AAAAAAAAAAAEAAAAAAAAAAQAAAAAgAQADAAAAAAAAAAwAAAAAAAAAEAAAAIAAAAAABAAA", 
    "P6G0lvBAXt0AAAAAAAAAAAEAAAAAAAAAAQAAAAAgAQADAAAAAAAAAAwAAAAAAAAAEAAAAIAAAAAABAAA", 
    "P6G0lvBAXt0AAAAAAAAAAAEAAAAAAAAAAQAAAAAgAQADAAAAAAAAAAwAAAAAAAAAEAAAAIAAAAAABAAA", 
    "P6G0lvBAXt0AAAAAAAAAAAEAAAAAAAAAAQAAAAAgAQADAAAAAAAAAAwAAAAAAAAAEAAAAIAAAAABAAAA", 
    "P6G0lvBAXt0AAAAAAAAAAAEAAAAAAAAAAQAAAAAgAQADAAAAAAAAAAwAAAAAAAAAEAAAAIAAAAABAAAA", 
    "P6G0lvBAXt0AAAAAAAAAAAEAAAAAAAAAAQAAAAAgAQADAAAAAAAAAAwAAAAAAAAAEAAAAIAAAAABAAAA", 
    "P6G0lvBAXt0AAAAAAAAAAAEAAAAAAAAAAQAAAAAgAQADAAAAAAAAAAwAAAAAAAAAEAAAAIAAAAAABAAA", 
    "P6G0lvBAXt0AAAAAAAAAAAEAAAAAAAAAAQAAAAAgAQADAAAAAAAAAAwAAAAAAAAAEAAAAIAAAAAABAAA", 
    "P6G0lvBAXt0AAAAAAAAAAAEAAAAAAAAAAQAAAAAgAQADAAAAAAAAAAwAAAAAAAAAEAAAAIAAAAAABAAA", 
    "P6G0lvBAXt0AAAAAAAAAAAEAAAAAAAAAAQAAAAAgAQACAAAAAAAAAAgAAAAAAAAAAAgAAAAQAAA=", 
    "P6G0lvBAXt0AAAAAAAAAAAEAAAAAAAAAAQAAAAAgAQADAAAAAAAAAAwAAAAAAAAAEAAAAIAAAAAAEAAA", 
    "P6G0lvBAXt0AAAAAAAAAAAEAAAAAAAAAAQAAAAAgAQADAAAAAAAAAAwAAAAAAAAAEAAAAIAAAAAAEAAA", 
    "P6G0lvBAXt0AAAAAAAAAAAEAAAAAAAAAAQAAAAAgAQADAAAAAAAAAAwAAAAAAAAAEAAAAIAAAAAAEAAA", 
    "P6G0lvBAXt0AAAAAAAAAAAEAAAAAAAAAAQAAAAAgAQADAAAAAAAAAAwAAAAAAAAAEAAAAIAAAAAAEAAA", 
    "P6G0lvBAXt0AAAAAAAAAAAEAAAAAAAAAAQAAAAAgAQADAAAAAAAAAAwAAAAAAAAAEAAAAIAAAAAAEAAA", 
    "P6G0lvBAXt0AAAAAAAAAAAEAAAAAAAAAAQAAAAAgAQADAAAAAAAAAAwAAAAAAAAAEAAAAIAAAAAAEAAA", 
    "P6G0lvBAXt0AAAAAAAAAAAEAAAAAAAAAAQAAAAAgAQACAAAAAAAAAAgAAAAAAAAAAAgAAAAEAAA=", 
    "P6G0lvBAXt0AAAAAAAAAAAEAAAAAAAAAAQAAAAAgAQADAAAAAAAAAAwAAAAAAAAAEAAAAIAAAAAABAAA", 
    "P6G0lvBAXt0AAAAAAAAAAAEAAAAAAAAAAQAAAAAgAQADAAAAAAAAAAwAAAAAAAAAEAAAAIAAAAAABAAA", 
    "P6G0lvBAXt0AAAAAAAAAAAEAAAAAAAAAAQAAAAAgAQADAAAAAAAAAAwAAAAAAAAAEAAAAIAAAAAABAAA", 
    "P6G0lvBAXt0AAAAAAAAAAAEAAAAAAAAAAQAAAAAgAQADAAAAAAAAAAwAAAAAAAAAEAAAAIAAAAAABAAA", 
    "P6G0lvBAXt0AAAAAAAAAAAEAAAAAAAAAAQAAAAAgAQADAAAAAAAAAAwAAAAAAAAAEAAAAIAAAAABAAAA", 
    "P6G0lvBAXt0AAAAAAAAAAAEAAAAAAAAAAQAAAAAgAQADAAAAAAAAAAwAAAAAAAAAEAAAAIAAAAABAAAA", 
    "P6G0lvBAXt0AAAAAAAAAAAEAAAAAAAAAAQAAAAAgAQADAAAAAAAAAAwAAAAAAAAAEAAAAIAAAAABAAAA", 
    "P6G0lvBAXt0AAAAAAAAAAAEAAAAAAAAAAQAAAAAgAQADAAAAAAAAAAwAAAAAAAAAEAAAAIAAAAAABAAA", 
    "P6G0lvBAXt0AAAAAAAAAAAEAAAAAAAAAAQAAAAAgAQADAAAAAAAAAAwAAAAAAAAAEAAAAIAAAAAABAAA", 
    "P6G0lvBAXt0AAAAAAAAAAAEAAAAAAAAAAQAAAAAgAQACAAAAAAAAAAgAAAAAAAAAAAgAAAAEAAA=", 
    "P6G0lvBAXt0AAAAAAAAAAAEAAAAAAAAAAQAAAAAgAQADAAAAAAAAAAwAAAAAAAAAAAEAAIAAAACAAAAA", 
    "P6G0lvBAXt0AAAAAAAAAAAEAAAAAAAAAAQAAAAAgAQAEAAAAAAAAABAAAAAAAAAAEAAAAAEAAAABAAAAgAAAAA==", 
    "P6G0lvBAXt0AAAAAAAAAAAEAAAAAAAAAAQAAAAAgAQADAAAAAAAAAAwAAAAAAAAAEAAAAIAAAAAABAAA", 
    "P6G0lvBAXt0AAAAAAAAAAAEAAAAAAAAAAQAAAAAgAQADAAAAAAAAAAwAAAAAAAAAAAEAAEAAAACAAAAA", 
    "P6G0lvBAXt0AAAAAAAAAAAEAAAAAAAAAAQAAAAAgAQADAAAAAAAAAAwAAAAAAAAAEAAAAIAAAAAABAAA", 
    "P6G0lvBAXt0AAAAAAAAAAAEAAAAAAAAAAQAAAAAgAQACAAAAAAAAAAgAAAAAAAAAAAgAAAAEAAA=", 
    "P6G0lvBAXt0AAAAAAAAAAAEAAAAAAAAAAQAAAAAgAQAEAAAAAAAAABAAAAAAAAAAEAAAABAAAACAAAAAgAAAAA==", 
    "P6G0lvBAXt0AAAAAAAAAAAEAAAAAAAAAAQAAAAAgAQADAAAAAAAAAAwAAAAAAAAAAAEAAIAAAACAAAAA", 
    "P6G0lvBAXt0AAAAAAAAAAAEAAAAAAAAAAQAAAAAgAQADAAAAAAAAAAwAAAAAAAAAAAEAAIAAAABAAAAA", 
    "P6G0lvBAXt0AAAAAAAAAAAEAAAAAAAAAAQAAAAAgAQADAAAAAAAAAAwAAAAAAAAAEAAAAIAAAAAABAAA", 
    "P6G0lvBAXt0AAAAAAAAAAAEAAAAAAAAAAQAAAAAgAQACAAAAAAAAAAgAAAAAAAAAAAgAAAAEAAA=", 
    "P6G0lvBAXt0AAAAAAAAAAAEAAAAAAAAAAQAAAAAgAQADAAAAAAAAAAwAAAAAAAAAAAEAAIAAAABAAAAA", 
    "P6G0lvBAXt0AAAAAAAAAAAEAAAAAAAAAAQAAAAAgAQADAAAAAAAAAAwAAAAAAAAAEAAAAIAAAAAABAAA", 
    "P6G0lvBAXt0AAAAAAAAAAAEAAAAAAAAAAQAAAAAgAQACAAAAAAAAAAgAAAAAAAAAAAgAAAAEAAA=", 
    "P6G0lvBAXt0AAAAAAAAAAAEAAAAAAAAAAQAAAAAgAQADAAAAAAAAAAwAAAAAAAAAEAAAAIAAAAAABAAA", 
    "P6G0lvBAXt0AAAAAAAAAAAEAAAAAAAAAAQAAAAAgAQADAAAAAAAAAAwAAAAAAAAAEAAAAIAAAAAABAAA", 
    "P6G0lvBAXt0AAAAAAAAAAAEAAAAAAAAAAQAAAAAgAQADAAAAAAAAAAwAAAAAAAAAEAAAAIAAAAAABAAA", 
    "P6G0lvBAXt0AAAAAAAAAAAEAAAAAAAAAAQAAAAAgAQADAAAAAAAAAAwAAAAAAAAAEAAAAIAAAAAABAAA", 
    "P6G0lvBAXt0AAAAAAAAAAAEAAAAAAAAAAQAAAAAgAQADAAAAAAAAAAwAAAAAAAAAEAAAAIAAAAABAAAA", 
    "P6G0lvBAXt0AAAAAAAAAAAEAAAAAAAAAAQAAAAAgAQADAAAAAAAAAAwAAAAAAAAAEAAAAIAAAAABAAAA", 
    "P6G0lvBAXt0AAAAAAAAAAAEAAAAAAAAAAQAAAAAgAQADAAAAAAAAAAwAAAAAAAAAEAAAAIAAAAABAAAA", 
    "P6G0lvBAXt0AAAAAAAAAAAEAAAAAAAAAAQAAAAAgAQADAAAAAAAAAAwAAAAAAAAAEAAAAIAAAAAABAAA", 
    "P6G0lvBAXt0AAAAAAAAAAAEAAAAAAAAAAQAAAAAgAQADAAAAAAAAAAwAAAAAAAAAEAAAAIAAAAAABAAA", 
    "P6G0lvBAXt0AAAAAAAAAAAEAAAAAAAAAAQAAAAAgAQADAAAAAAAAAAwAAAAAAAAAEAAAAIAAAAAABAAA", 
    "P6G0lvBAXt0AAAAAAAAAAAEAAAAAAAAAAQAAAAAgAQACAAAAAAAAAAgAAAAAAAAAAAgAAAAQAAA=", 
    "P6G0lvBAXt0AAAAAAAAAAAEAAAAAAAAAAQAAAAAgAQADAAAAAAAAAAwAAAAAAAAAEAAAAIAAAAAAEAAA", 
    "P6G0lvBAXt0AAAAAAAAAAAEAAAAAAAAAAQAAAAAgAQADAAAAAAAAAAwAAAAAAAAAEAAAAIAAAAAAEAAA", 
    "P6G0lvBAXt0AAAAAAAAAAAEAAAAAAAAAAQAAAAAgAQADAAAAAAAAAAwAAAAAAAAAEAAAAIAAAAAAEAAA", 
    "P6G0lvBAXt0AAAAAAAAAAAEAAAAAAAAAAQAAAAAgAQADAAAAAAAAAAwAAAAAAAAAEAAAAIAAAAAAEAAA", 
    "P6G0lvBAXt0AAAAAAAAAAAEAAAAAAAAAAQAAAAAgAQADAAAAAAAAAAwAAAAAAAAAEAAAAIAAAAAAEAAA", 
    "P6G0lvBAXt0AAAAAAAAAAAEAAAAAAAAAAQAAAAAgAQADAAAAAAAAAAwAAAAAAAAAEAAAAIAAAAAAEAAA", 
    "P6G0lvBAXt0AAAAAAAAAAAEAAAAAAAAAAQAAAAAgAQACAAAAAAAAAAgAAAAAAAAAAAgAAAAEAAA=", 
    "P6G0lvBAXt0AAAAAAAAAAAEAAAAAAAAAAQAAAAAgAQADAAAAAAAAAAwAAAAAAAAAEAAAAIAAAAAABAAA", 
    "P6G0lvBAXt0AAAAAAAAAAAEAAAAAAAAAAQAAAAAgAQADAAAAAAAAAAwAAAAAAAAAEAAAAIAAAAAABAAA", 
    "P6G0lvBAXt0AAAAAAAAAAAEAAAAAAAAAAQAAAAAgAQADAAAAAAAAAAwAAAAAAAAAEAAAAIAAAAAABAAA", 
    "P6G0lvBAXt0AAAAAAAAAAAEAAAAAAAAAAQAAAAAgAQADAAAAAAAAAAwAAAAAAAAAEAAAAIAAAAAABAAA", 
    "P6G0lvBAXt0AAAAAAAAAAAEAAAAAAAAAAQAAAAAgAQADAAAAAAAAAAwAAAAAAAAAEAAAAIAAAAABAAAA", 
    "P6G0lvBAXt0AAAAAAAAAAAEAAAAAAAAAAQAAAAAgAQADAAAAAAAAAAwAAAAAAAAAEAAAAIAAAAABAAAA", 
    "P6G0lvBAXt0AAAAAAAAAAAEAAAAAAAAAAQAAAAAgAQADAAAAAAAAAAwAAAAAAAAAEAAAAIAAAAABAAAA", 
    "P6G0lvBAXt0AAAAAAAAAAAEAAAAAAAAAAQAAAAAgAQADAAAAAAAAAAwAAAAAAAAAEAAAAIAAAAAABAAA", 
    "P6G0lvBAXt0AAAAAAAAAAAEAAAAAAAAAAQAAAAAgAQADAAAAAAAAAAwAAAAAAAAAEAAAAIAAAAAABAAA", 
    "P6G0lvBAXt0AAAAAAAAAAAEAAAAAAAAAAQAAAAAgAQACAAAAAAAAAAgAAAAAAAAAAAgAAAAEAAA=", 
    "P6G0lvBAXt0AAAAAAAAAAAEAAAAAAAAAAQAAAAAgAQADAAAAAAAAAAwAAAAAAAAAAAEAAIAAAACAAAAA", 
    "P6G0lvBAXt0AAAAAAAAAAAEAAAAAAAAAAQAAAAAgAQAEAAAAAAAAABAAAAAAAAAAEAAAAAEAAAABAAAAgAAAAA==", 
    "P6G0lvBAXt0AAAAAAAAAAAEAAAAAAAAAAQAAAAAgAQADAAAAAAAAAAwAAAAAAAAAEAAAAIAAAAAABAAA", 
    "P6G0lvBAXt0AAAAAAAAAAAEAAAAAAAAAAQAAAAAgAQADAAAAAAAAAAwAAAAAAAAAAAEAAEAAAACAAAAA", 
    "P6G0lvBAXt0AAAAAAAAAAAEAAAAAAAAAAQAAAAAgAQADAAAAAAAAAAwAAAAAAAAAEAAAAIAAAAAABAAA", 
    "P6G0lvBAXt0AAAAAAAAAAAEAAAAAAAAAAQAAAAAgAQACAAAAAAAAAAgAAAAAAAAAAAgAAAAEAAA=", 
    "P6G0lvBAXt0AAAAAAAAAAAEAAAAAAAAAAQAAAAAgAQAEAAAAAAAAABAAAAAAAAAAEAAAABAAAACAAAAAgAAAAA==", 
    "P6G0lvBAXt0AAAAAAAAAAAEAAAAAAAAAAQAAAAAgAQADAAAAAAAAAAwAAAAAAAAAAAEAAIAAAACAAAAA", 
    "P6G0lvBAXt0AAAAAAAAAAAEAAAAAAAAAAQAAAAAgAQADAAAAAAAAAAwAAAAAAAAAAAEAAIAAAABAAAAA", 
    "P6G0lvBAXt0AAAAAAAAAAAEAAAAAAAAAAQAAAAAgAQADAAAAAAAAAAwAAAAAAAAAEAAAAIAAAAAABAAA", 
    "P6G0lvBAXt0AAAAAAAAAAAEAAAAAAAAAAQAAAAAgAQACAAAAAAAAAAgAAAAAAAAAAAgAAAAEAAA=", 
    "P6G0lvBAXt0AAAAAAAAAAAEAAAAAAAAAAQAAAAAgAQADAAAAAAAAAAwAAAAAAAAAAAEAAIAAAABAAAAA", 
    "P6G0lvBAXt0AAAAAAAAAAAEAAAAAAAAAAQAAAAAgAQADAAAAAAAAAAwAAAAAAAAAEAAAAIAAAAAABAAA", 
    "P6G0lvBAXt0AAAAAAAAAAAEAAAAAAAAAAQAAAAAgAQACAAAAAAAAAAgAAAAAAAAAAAgAAAAEAAA=", 
    "P6G0lvBAXt0AAAAAAAAAAAEAAAAAAAAAAQAAAAAgAQADAAAAAAAAAAwAAAAAAAAAEAAAAIAAAAAABAAA", 
    "P6G0lvBAXt0AAAAAAAAAAAEAAAAAAAAAAQAAAAAgAQADAAAAAAAAAAwAAAAAAAAAEAAAAIAAAAAABAAA", 
    "P6G0lvBAXt0AAAAAAAAAAAEAAAAAAAAAAQAAAAAgAQADAAAAAAAAAAwAAAAAAAAAEAAAAIAAAAAABAAA", 
    "P6G0lvBAXt0AAAAAAAAAAAEAAAAAAAAAAQAAAAAgAQADAAAAAAAAAAwAAAAAAAAAEAAAAIAAAAAABAAA", 
    "P6G0lvBAXt0AAAAAAAAAAAEAAAAAAAAAAQAAAAAgAQADAAAAAAAAAAwAAAAAAAAAEAAAAIAAAAABAAAA", 
    "P6G0lvBAXt0AAAAAAAAAAAEAAAAAAAAAAQAAAAAgAQADAAAAAAAAAAwAAAAAAAAAEAAAAIAAAAABAAAA", 
    "P6G0lvBAXt0AAAAAAAAAAAEAAAAAAAAAAQAAAAAgAQADAAAAAAAAAAwAAAAAAAAAEAAAAIAAAAABAAAA", 
    "P6G0lvBAXt0AAAAAAAAAAAEAAAAAAAAAAQAAAAAgAQADAAAAAAAAAAwAAAAAAAAAEAAAAIAAAAAABAAA", 
    "P6G0lvBAXt0AAAAAAAAAAAEAAAAAAAAAAQAAAAAgAQADAAAAAAAAAAwAAAAAAAAAEAAAAIAAAAAABAAA", 
    "P6G0lvBAXt0AAAAAAAAAAAEAAAAAAAAAAQAAAAAgAQADAAAAAAAAAAwAAAAAAAAAEAAAAIAAAAAABAAA", 
    "P6G0lvBAXt0AAAAAAAAAAAEAAAAAAAAAAQAAAAAgAQACAAAAAAAAAAgAAAAAAAAAAAgAAAAQAAA=", 
    "P6G0lvBAXt0AAAAAAAAAAAEAAAAAAAAAAQAAAAAgAQADAAAAAAAAAAwAAAAAAAAAEAAAAIAAAAAAEAAA", 
    "P6G0lvBAXt0AAAAAAAAAAAEAAAAAAAAAAQAAAAAgAQADAAAAAAAAAAwAAAAAAAAAEAAAAIAAAAAAEAAA", 
    "P6G0lvBAXt0AAAAAAAAAAAEAAAAAAAAAAQAAAAAgAQADAAAAAAAAAAwAAAAAAAAAEAAAAIAAAAAAEAAA", 
    "P6G0lvBAXt0AAAAAAAAAAAEAAAAAAAAAAQAAAAAgAQADAAAAAAAAAAwAAAAAAAAAEAAAAIAAAAAAEAAA", 
    "P6G0lvBAXt0AAAAAAAAAAAEAAAAAAAAAAQAAAAAgAQADAAAAAAAAAAwAAAAAAAAAEAAAAIAAAAAAEAAA", 
    "P6G0lvBAXt0AAAAAAAAAAAEAAAAAAAAAAQAAAAAgAQADAAAAAAAAAAwAAAAAAAAAEAAAAIAAAAAAEAAA", 
    "P6G0lvBAXt0AAAAAAAAAAAEAAAAAAAAAAQAAAAAgAQACAAAAAAAAAAgAAAAAAAAAAAgAAAAEAAA=", 
    "P6G0lvBAXt0AAAAAAAAAAAEAAAAAAAAAAQAAAAAgAQADAAAAAAAAAAwAAAAAAAAAEAAAAIAAAAAABAAA", 
    "P6G0lvBAXt0AAAAAAAAAAAEAAAAAAAAAAQAAAAAgAQADAAAAAAAAAAwAAAAAAAAAEAAAAIAAAAAABAAA", 
    "P6G0lvBAXt0AAAAAAAAAAAEAAAAAAAAAAQAAAAAgAQADAAAAAAAAAAwAAAAAAAAAEAAAAIAAAAAABAAA", 
    "P6G0lvBAXt0AAAAAAAAAAAEAAAAAAAAAAQAAAAAgAQADAAAAAAAAAAwAAAAAAAAAEAAAAIAAAAAABAAA", 
    "P6G0lvBAXt0AAAAAAAAAAAEAAAAAAAAAAQAAAAAgAQADAAAAAAAAAAwAAAAAAAAAEAAAAIAAAAABAAAA", 
    "P6G0lvBAXt0AAAAAAAAAAAEAAAAAAAAAAQAAAAAgAQADAAAAAAAAAAwAAAAAAAAAEAAAAIAAAAABAAAA", 
    "P6G0lvBAXt0AAAAAAAAAAAEAAAAAAAAAAQAAAAAgAQADAAAAAAAAAAwAAAAAAAAAEAAAAIAAAAABAAAA", 
    "P6G0lvBAXt0AAAAAAAAAAAEAAAAAAAAAAQAAAAAgAQADAAAAAAAAAAwAAAAAAAAAEAAAAIAAAAAABAAA", 
    "P6G0lvBAXt0AAAAAAAAAAAEAAAAAAAAAAQAAAAAgAQADAAAAAAAAAAwAAAAAAAAAEAAAAIAAAAAABAAA", 
    "P6G0lvBAXt0AAAAAAAAAAAEAAAAAAAAAAQAAAAAgAQACAAAAAAAAAAgAAAAAAAAAAAgAAAAEAAA=", 
    "P6G0lvBAXt0AAAAAAAAAAAEAAAAAAAAAAQAAAAAgAQADAAAAAAAAAAwAAAAAAAAAAAEAAIAAAACAAAAA", 
    "P6G0lvBAXt0AAAAAAAAAAAEAAAAAAAAAAQAAAAAgAQAEAAAAAAAAABAAAAAAAAAAEAAAAAEAAAABAAAAgAAAAA==", 
    "P6G0lvBAXt0AAAAAAAAAAAEAAAAAAAAAAQAAAAAgAQADAAAAAAAAAAwAAAAAAAAAEAAAAIAAAAAABAAA", 
    "P6G0lvBAXt0AAAAAAAAAAAEAAAAAAAAAAQAAAAAgAQADAAAAAAAAAAwAAAAAAAAAAAEAAEAAAACAAAAA", 
    "P6G0lvBAXt0AAAAAAAAAAAEAAAAAAAAAAQAAAAAgAQADAAAAAAAAAAwAAAAAAAAAEAAAAIAAAAAABAAA", 
    "P6G0lvBAXt0AAAAAAAAAAAEAAAAAAAAAAQAAAAAgAQACAAAAAAAAAAgAAAAAAAAAAAgAAAAEAAA=", 
    "P6G0lvBAXt0AAAAAAAAAAAEAAAAAAAAAAQAAAAAgAQAEAAAAAAAAABAAAAAAAAAAEAAAABAAAACAAAAAgAAAAA==", 
    "P6G0lvBAXt0AAAAAAAAAAAEAAAAAAAAAAQAAAAAgAQADAAAAAAAAAAwAAAAAAAAAAAEAAIAAAACAAAAA", 
    "P6G0lvBAXt0AAAAAAAAAAAEAAAAAAAAAAQAAAAAgAQADAAAAAAAAAAwAAAAAAAAAAAEAAIAAAABAAAAA", 
    "P6G0lvBAXt0AAAAAAAAAAAEAAAAAAAAAAQAAAAAgAQADAAAAAAAAAAwAAAAAAAAAEAAAAIAAAAAABAAA", 
    "P6G0lvBAXt0AAAAAAAAAAAEAAAAAAAAAAQAAAAAgAQACAAAAAAAAAAgAAAAAAAAAAAgAAAAEAAA=", 
    "P6G0lvBAXt0AAAAAAAAAAAEAAAAAAAAAAQAAAAAgAQADAAAAAAAAAAwAAAAAAAAAAAEAAIAAAABAAAAA", 
    "P6G0lvBAXt0AAAAAAAAAAAEAAAAAAAAAAQAAAAAgAQADAAAAAAAAAAwAAAAAAAAAEAAAAIAAAAAABAAA", 
    "P6G0lvBAXt0AAAAAAAAAAAEAAAAAAAAAAQAAAAAgAQACAAAAAAAAAAgAAAAAAAAAAAgAAAAEAAA=", 
    "P6G0lvBAXt0AAAAAAAAAAAEAAAAAAAAAAQAAAAAgAQADAAAAAAAAAAwAAAAAAAAAEAAAAIAAAAAABAAA", 
    "P6G0lvBAXt0AAAAAAAAAAAEAAAAAAAAAAQAAAAAgAQADAAAAAAAAAAwAAAAAAAAAEAAAAIAAAAAABAAA", 
    "P6G0lvBAXt0AAAAAAAAAAAEAAAAAAAAAAQAAAAAgAQADAAAAAAAAAAwAAAAAAAAAEAAAAIAAAAAABAAA", 
    "P6G0lvBAXt0AAAAAAAAAAAEAAAAAAAAAAQAAAAAgAQADAAAAAAAAAAwAAAAAAAAAEAAAAIAAAAAABAAA", 
    "P6G0lvBAXt0AAAAAAAAAAAEAAAAAAAAAAQAAAAAgAQADAAAAAAAAAAwAAAAAAAAAEAAAAIAAAAABAAAA", 
    "P6G0lvBAXt0AAAAAAAAAAAEAAAAAAAAAAQAAAAAgAQADAAAAAAAAAAwAAAAAAAAAEAAAAIAAAAABAAAA", 
    "P6G0lvBAXt0AAAAAAAAAAAEAAAAAAAAAAQAAAAAgAQADAAAAAAAAAAwAAAAAAAAAEAAAAIAAAAABAAAA", 
    "P6G0lvBAXt0AAAAAAAAAAAEAAAAAAAAAAQAAAAAgAQADAAAAAAAAAAwAAAAAAAAAEAAAAIAAAAAABAAA", 
    "P6G0lvBAXt0AAAAAAAAAAAEAAAAAAAAAAQAAAAAgAQADAAAAAAAAAAwAAAAAAAAAEAAAAIAAAAAABAAA", 
    "P6G0lvBAXt0AAAAAAAAAAAEAAAAAAAAAAQAAAAAgAQADAAAAAAAAAAwAAAAAAAAAEAAAAIAAAAAABAAA", 
    "P6G0lvBAXt0AAAAAAAAAAAEAAAAAAAAAAQAAAAAgAQACAAAAAAAAAAgAAAAAAAAAAAgAAAAQAAA=", 
    "P6G0lvBAXt0AAAAAAAAAAAEAAAAAAAAAAQAAAAAgAQADAAAAAAAAAAwAAAAAAAAAEAAAAIAAAAAAEAAA", 
    "P6G0lvBAXt0AAAAAAAAAAAEAAAAAAAAAAQAAAAAgAQADAAAAAAAAAAwAAAAAAAAAEAAAAIAAAAAAEAAA", 
    "P6G0lvBAXt0AAAAAAAAAAAEAAAAAAAAAAQAAAAAgAQADAAAAAAAAAAwAAAAAAAAAEAAAAIAAAAAAEAAA", 
    "P6G0lvBAXt0AAAAAAAAAAAEAAAAAAAAAAQAAAAAgAQADAAAAAAAAAAwAAAAAAAAAEAAAAIAAAAAAEAAA", 
    "P6G0lvBAXt0AAAAAAAAAAAEAAAAAAAAAAQAAAAAgAQADAAAAAAAAAAwAAAAAAAAAEAAAAIAAAAAAEAAA", 
    "P6G0lvBAXt0AAAAAAAAAAAEAAAAAAAAAAQAAAAAgAQADAAAAAAAAAAwAAAAAAAAAEAAAAIAAAAAAEAAA", 
    "P6G0lvBAXt0AAAAAAAAAAAEAAAAAAAAAAQAAAAAgAQACAAAAAAAAAAgAAAAAAAAAAAgAAAAEAAA=", 
    "P6G0lvBAXt0AAAAAAAAAAAEAAAAAAAAAAQAAAAAgAQADAAAAAAAAAAwAAAAAAAAAEAAAAIAAAAAABAAA", 
    "P6G0lvBAXt0AAAAAAAAAAAEAAAAAAAAAAQAAAAAgAQADAAAAAAAAAAwAAAAAAAAAEAAAAIAAAAAABAAA", 
    "P6G0lvBAXt0AAAAAAAAAAAEAAAAAAAAAAQAAAAAgAQADAAAAAAAAAAwAAAAAAAAAEAAAAIAAAAAABAAA", 
    "P6G0lvBAXt0AAAAAAAAAAAEAAAAAAAAAAQAAAAAgAQADAAAAAAAAAAwAAAAAAAAAEAAAAIAAAAAABAAA", 
    "P6G0lvBAXt0AAAAAAAAAAAEAAAAAAAAAAQAAAAAgAQADAAAAAAAAAAwAAAAAAAAAEAAAAIAAAAABAAAA", 
    "P6G0lvBAXt0AAAAAAAAAAAEAAAAAAAAAAQAAAAAgAQADAAAAAAAAAAwAAAAAAAAAEAAAAIAAAAABAAAA", 
    "P6G0lvBAXt0AAAAAAAAAAAEAAAAAAAAAAQAAAAAgAQADAAAAAAAAAAwAAAAAAAAAEAAAAIAAAAABAAAA", 
    "P6G0lvBAXt0AAAAAAAAAAAEAAAAAAAAAAQAAAAAgAQADAAAAAAAAAAwAAAAAAAAAEAAAAIAAAAAABAAA", 
    "P6G0lvBAXt0AAAAAAAAAAAEAAAAAAAAAAQAAAAAgAQADAAAAAAAAAAwAAAAAAAAAEAAAAIAAAAAABAAA", 
    "P6G0lvBAXt0AAAAAAAAAAAEAAAAAAAAAAQAAAAAgAQACAAAAAAAAAAgAAAAAAAAAAAgAAAAEAAA=", 
    "P6G0lvBAXt0AAAAAAAAAAAEAAAAAAAAAAQAAAAAgAQADAAAAAAAAAAwAAAAAAAAAAAEAAIAAAACAAAAA", 
    "P6G0lvBAXt0AAAAAAAAAAAEAAAAAAAAAAQAAAAAgAQAEAAAAAAAAABAAAAAAAAAAEAAAAAEAAAABAAAAgAAAAA==", 
    "P6G0lvBAXt0AAAAAAAAAAAEAAAAAAAAAAQAAAAAgAQADAAAAAAAAAAwAAAAAAAAAEAAAAIAAAAAABAAA", 
    "P6G0lvBAXt0AAAAAAAAAAAEAAAAAAAAAAQAAAAAgAQADAAAAAAAAAAwAAAAAAAAAAAEAAEAAAACAAAAA", 
    "P6G0lvBAXt0AAAAAAAAAAAEAAAAAAAAAAQAAAAAgAQADAAAAAAAAAAwAAAAAAAAAEAAAAIAAAAAABAAA", 
    "P6G0lvBAXt0AAAAAAAAAAAEAAAAAAAAAAQAAAAAgAQACAAAAAAAAAAgAAAAAAAAAAAgAAAAEAAA=", 
    "P6G0lvBAXt0AAAAAAAAAAAEAAAAAAAAAAQAAAAAgAQAEAAAAAAAAABAAAAAAAAAAEAAAABAAAACAAAAAgAAAAA==", 
    "P6G0lvBAXt0AAAAAAAAAAAEAAAAAAAAAAQAAAAAgAQADAAAAAAAAAAwAAAAAAAAAAAEAAIAAAACAAAAA", 
    "P6G0lvBAXt0AAAAAAAAAAAEAAAAAAAAAAQAAAAAgAQADAAAAAAAAAAwAAAAAAAAAAAEAAIAAAABAAAAA", 
    "P6G0lvBAXt0AAAAAAAAAAAEAAAAAAAAAAQAAAAAgAQADAAAAAAAAAAwAAAAAAAAAEAAAAIAAAAAABAAA", 
    "P6G0lvBAXt0AAAAAAAAAAAEAAAAAAAAAAQAAAAAgAQACAAAAAAAAAAgAAAAAAAAAAAgAAAAEAAA=", 
    "P6G0lvBAXt0AAAAAAAAAAAEAAAAAAAAAAQAAAAAgAQADAAAAAAAAAAwAAAAAAAAAAAEAAIAAAABAAAAA", 
    "P6G0lvBAXt0AAAAAAAAAAAEAAAAAAAAAAQAAAAAgAQADAAAAAAAAAAwAAAAAAAAAEAAAAIAAAAAABAAA", 
    "P6G0lvBAXt0AAAAAAAAAAAEAAAAAAAAAAQAAAAAgAQACAAAAAAAAAAgAAAAAAAAAAAgAAAAEAAA=", 
    "P6G0lvBAXt0AAAAAAAAAAAEAAAAAAAAAAQAAAAAgAQADAAAAAAAAAAwAAAAAAAAAEAAAAIAAAAAABAAA", 
    "P6G0lvBAXt0AAAAAAAAAAAEAAAAAAAAAAQAAAAAgAQADAAAAAAAAAAwAAAAAAAAAEAAAAIAAAAAABAAA", 
    "P6G0lvBAXt0AAAAAAAAAAAEAAAAAAAAAAQAAAAAgAQADAAAAAAAAAAwAAAAAAAAAEAAAAIAAAAAABAAA", 
    "P6G0lvBAXt0AAAAAAAAAAAEAAAAAAAAAAQAAAAAgAQADAAAAAAAAAAwAAAAAAAAAEAAAAIAAAAAABAAA", 
    "P6G0lvBAXt0AAAAAAAAAAAEAAAAAAAAAAQAAAAAgAQADAAAAAAAAAAwAAAAAAAAAEAAAAIAAAAABAAAA", 
    "P6G0lvBAXt0AAAAAAAAAAAEAAAAAAAAAAQAAAAAgAQADAAAAAAAAAAwAAAAAAAAAEAAAAIAAAAABAAAA", 
    "P6G0lvBAXt0AAAAAAAAAAAEAAAAAAAAAAQAAAAAgAQADAAAAAAAAAAwAAAAAAAAAEAAAAIAAAAABAAAA", 
    "P6G0lvBAXt0AAAAAAAAAAAEAAAAAAAAAAQAAAAAgAQADAAAAAAAAAAwAAAAAAAAAEAAAAIAAAAAABAAA", 
    "P6G0lvBAXt0AAAAAAAAAAAEAAAAAAAAAAQAAAAAgAQADAAAAAAAAAAwAAAAAAAAAEAAAAIAAAAAABAAA", 
    "P6G0lvBAXt0AAAAAAAAAAAEAAAAAAAAAAQAAAAAgAQADAAAAAAAAAAwAAAAAAAAAEAAAAIAAAAAABAAA", 
    "P6G0lvBAXt0AAAAAAAAAAAEAAAAAAAAAAQAAAAAgAQACAAAAAAAAAAgAAAAAAAAAAAgAAAAQAAA=", 
    "P6G0lvBAXt0AAAAAAAAAAAEAAAAAAAAAAQAAAAAgAQADAAAAAAAAAAwAAAAAAAAAEAAAAIAAAAAAEAAA", 
    "P6G0lvBAXt0AAAAAAAAAAAEAAAAAAAAAAQAAAAAgAQADAAAAAAAAAAwAAAAAAAAAEAAAAIAAAAAAEAAA", 
    "P6G0lvBAXt0AAAAAAAAAAAEAAAAAAAAAAQAAAAAgAQADAAAAAAAAAAwAAAAAAAAAEAAAAIAAAAAAEAAA", 
    "P6G0lvBAXt0AAAAAAAAAAAEAAAAAAAAAAQAAAAAgAQADAAAAAAAAAAwAAAAAAAAAEAAAAIAAAAAAEAAA", 
    "P6G0lvBAXt0AAAAAAAAAAAEAAAAAAAAAAQAAAAAgAQADAAAAAAAAAAwAAAAAAAAAEAAAAIAAAAAAEAAA", 
    "P6G0lvBAXt0AAAAAAAAAAAEAAAAAAAAAAQAAAAAgAQADAAAAAAAAAAwAAAAAAAAAEAAAAIAAAAAAEAAA", 
    "P6G0lvBAXt0AAAAAAAAAAAEAAAAAAAAAAQAAAAAgAQACAAAAAAAAAAgAAAAAAAAAAAgAAAAEAAA=", 
    "P6G0lvBAXt0AAAAAAAAAAAEAAAAAAAAAAQAAAAAgAQADAAAAAAAAAAwAAAAAAAAAEAAAAIAAAAAABAAA", 
    "P6G0lvBAXt0AAAAAAAAAAAEAAAAAAAAAAQAAAAAgAQADAAAAAAAAAAwAAAAAAAAAEAAAAIAAAAAABAAA", 
    "P6G0lvBAXt0AAAAAAAAAAAEAAAAAAAAAAQAAAAAgAQADAAAAAAAAAAwAAAAAAAAAEAAAAIAAAAAABAAA", 
    "P6G0lvBAXt0AAAAAAAAAAAEAAAAAAAAAAQAAAAAgAQADAAAAAAAAAAwAAAAAAAAAEAAAAIAAAAAABAAA", 
    "P6G0lvBAXt0AAAAAAAAAAAEAAAAAAAAAAQAAAAAgAQADAAAAAAAAAAwAAAAAAAAAEAAAAIAAAAABAAAA", 
    "P6G0lvBAXt0AAAAAAAAAAAEAAAAAAAAAAQAAAAAgAQADAAAAAAAAAAwAAAAAAAAAEAAAAIAAAAABAAAA", 
    "P6G0lvBAXt0AAAAAAAAAAAEAAAAAAAAAAQAAAAAgAQADAAAAAAAAAAwAAAAAAAAAEAAAAIAAAAABAAAA", 
    "P6G0lvBAXt0AAAAAAAAAAAEAAAAAAAAAAQAAAAAgAQADAAAAAAAAAAwAAAAAAAAAEAAAAIAAAAAABAAA", 
    "P6G0lvBAXt0AAAAAAAAAAAEAAAAAAAAAAQAAAAAgAQADAAAAAAAAAAwAAAAAAAAAEAAAAIAAAAAABAAA", 
    "P6G0lvBAXt0AAAAAAAAAAAEAAAAAAAAAAQAAAAAgAQACAAAAAAAAAAgAAAAAAAAAAAgAAAAEAAA=", 
    "P6G0lvBAXt0AAAAAAAAAAAEAAAAAAAAAAQAAAAAgAQADAAAAAAAAAAwAAAAAAAAAAAEAAIAAAACAAAAA", 
    "P6G0lvBAXt0AAAAAAAAAAAEAAAAAAAAAAQAAAAAgAQAEAAAAAAAAABAAAAAAAAAAEAAAAAEAAAABAAAAgAAAAA==", 
    "P6G0lvBAXt0AAAAAAAAAAAEAAAAAAAAAAQAAAAAgAQADAAAAAAAAAAwAAAAAAAAAEAAAAIAAAAAABAAA", 
    "P6G0lvBAXt0AAAAAAAAAAAEAAAAAAAAAAQAAAAAgAQADAAAAAAAAAAwAAAAAAAAAAAEAAEAAAACAAAAA", 
    "P6G0lvBAXt0AAAAAAAAAAAEAAAAAAAAAAQAAAAAgAQADAAAAAAAAAAwAAAAAAAAAEAAAAIAAAAAABAAA", 
    "P6G0lvBAXt0AAAAAAAAAAAEAAAAAAAAAAQAAAAAgAQACAAAAAAAAAAgAAAAAAAAAAAgAAAAEAAA=", 
    "P6G0lvBAXt0AAAAAAAAAAAEAAAAAAAAAAQAAAAAgAQAEAAAAAAAAABAAAAAAAAAAEAAAABAAAACAAAAAgAAAAA==", 
    "P6G0lvBAXt0AAAAAAAAAAAEAAAAAAAAAAQAAAAAgAQADAAAAAAAAAAwAAAAAAAAAAAEAAIAAAACAAAAA", 
    "P6G0lvBAXt0AAAAAAAAAAAEAAAAAAAAAAQAAAAAgAQADAAAAAAAAAAwAAAAAAAAAAAEAAIAAAABAAAAA", 
    "P6G0lvBAXt0AAAAAAAAAAAEAAAAAAAAAAQAAAAAgAQADAAAAAAAAAAwAAAAAAAAAEAAAAIAAAAAABAAA", 
    "P6G0lvBAXt0AAAAAAAAAAAEAAAAAAAAAAQAAAAAgAQACAAAAAAAAAAgAAAAAAAAAAAgAAAAEAAA=", 
    "P6G0lvBAXt0AAAAAAAAAAAEAAAAAAAAAAQAAAAAgAQADAAAAAAAAAAwAAAAAAAAAAAEAAIAAAABAAAAA", 
    "P6G0lvBAXt0AAAAAAAAAAAEAAAAAAAAAAQAAAAAgAQADAAAAAAAAAAwAAAAAAAAAEAAAAIAAAAAABAAA", 
    "P6G0lvBAXt0AAAAAAAAAAAEAAAAAAAAAAQAAAAAgAQACAAAAAAAAAAgAAAAAAAAAAAgAAAAEAAA=", 
    "P6G0lvBAXt0AAAAAAAAAAAEAAAAAAAAAAQAAAAAgAQADAAAAAAAAAAwAAAAAAAAAEAAAAIAAAAAABAAA", 
    "P6G0lvBAXt0AAAAAAAAAAAEAAAAAAAAAAQAAAAAgAQADAAAAAAAAAAwAAAAAAAAAEAAAAIAAAAAABAAA", 
    "P6G0lvBAXt0AAAAAAAAAAAEAAAAAAAAAAQAAAAAgAQADAAAAAAAAAAwAAAAAAAAAEAAAAIAAAAAABAAA", 
    "P6G0lvBAXt0AAAAAAAAAAAEAAAAAAAAAAQAAAAAgAQADAAAAAAAAAAwAAAAAAAAAEAAAAIAAAAAABAAA", 
    "P6G0lvBAXt0AAAAAAAAAAAEAAAAAAAAAAQAAAAAgAQADAAAAAAAAAAwAAAAAAAAAEAAAAIAAAAABAAAA", 
    "P6G0lvBAXt0AAAAAAAAAAAEAAAAAAAAAAQAAAAAgAQADAAAAAAAAAAwAAAAAAAAAEAAAAIAAAAABAAAA", 
    "P6G0lvBAXt0AAAAAAAAAAAEAAAAAAAAAAQAAAAAgAQADAAAAAAAAAAwAAAAAAAAAEAAAAIAAAAABAAAA", 
    "P6G0lvBAXt0AAAAAAAAAAAEAAAAAAAAAAQAAAAAgAQADAAAAAAAAAAwAAAAAAAAAEAAAAIAAAAAABAAA", 
    "P6G0lvBAXt0AAAAAAAAAAAEAAAAAAAAAAQAAAAAgAQADAAAAAAAAAAwAAAAAAAAAEAAAAIAAAAAABAAA", 
    "P6G0lvBAXt0AAAAAAAAAAAEAAAAAAAAAAQAAAAAgAQADAAAAAAAAAAwAAAAAAAAAEAAAAIAAAAAABAAA", 
    "P6G0lvBAXt0AAAAAAAAAAAEAAAAAAAAAAQAAAAAgAQACAAAAAAAAAAgAAAAAAAAAAAgAAAAQAAA=", 
    "P6G0lvBAXt0AAAAAAAAAAAEAAAAAAAAAAQAAAAAgAQADAAAAAAAAAAwAAAAAAAAAEAAAAIAAAAAAEAAA", 
    "P6G0lvBAXt0AAAAAAAAAAAEAAAAAAAAAAQAAAAAgAQADAAAAAAAAAAwAAAAAAAAAEAAAAIAAAAAAEAAA", 
    "P6G0lvBAXt0AAAAAAAAAAAEAAAAAAAAAAQAAAAAgAQADAAAAAAAAAAwAAAAAAAAAEAAAAIAAAAAAEAAA", 
    "P6G0lvBAXt0AAAAAAAAAAAEAAAAAAAAAAQAAAAAgAQADAAAAAAAAAAwAAAAAAAAAEAAAAIAAAAAAEAAA", 
    "P6G0lvBAXt0AAAAAAAAAAAEAAAAAAAAAAQAAAAAgAQADAAAAAAAAAAwAAAAAAAAAEAAAAIAAAAAAEAAA", 
    "P6G0lvBAXt0AAAAAAAAAAAEAAAAAAAAAAQAAAAAgAQADAAAAAAAAAAwAAAAAAAAAEAAAAIAAAAAAEAAA", 
    "P6G0lvBAXt0AAAAAAAAAAAEAAAAAAAAAAQAAAAAgAQACAAAAAAAAAAgAAAAAAAAAAAgAAAAEAAA=", 
    "P6G0lvBAXt0AAAAAAAAAAAEAAAAAAAAAAQAAAAAgAQADAAAAAAAAAAwAAAAAAAAAEAAAAIAAAAAABAAA", 
    "P6G0lvBAXt0AAAAAAAAAAAEAAAAAAAAAAQAAAAAgAQADAAAAAAAAAAwAAAAAAAAAEAAAAIAAAAAABAAA", 
    "P6G0lvBAXt0AAAAAAAAAAAEAAAAAAAAAAQAAAAAgAQADAAAAAAAAAAwAAAAAAAAAEAAAAIAAAAAABAAA", 
    "P6G0lvBAXt0AAAAAAAAAAAEAAAAAAAAAAQAAAAAgAQADAAAAAAAAAAwAAAAAAAAAEAAAAIAAAAAABAAA", 
    "P6G0lvBAXt0AAAAAAAAAAAEAAAAAAAAAAQAAAAAgAQADAAAAAAAAAAwAAAAAAAAAEAAAAIAAAAABAAAA", 
    "P6G0lvBAXt0AAAAAAAAAAAEAAAAAAAAAAQAAAAAgAQADAAAAAAAAAAwAAAAAAAAAEAAAAIAAAAABAAAA", 
    "P6G0lvBAXt0AAAAAAAAAAAEAAAAAAAAAAQAAAAAgAQADAAAAAAAAAAwAAAAAAAAAEAAAAIAAAAABAAAA", 
    "P6G0lvBAXt0AAAAAAAAAAAEAAAAAAAAAAQAAAAAgAQADAAAAAAAAAAwAAAAAAAAAEAAAAIAAAAAABAAA", 
    "P6G0lvBAXt0AAAAAAAAAAAEAAAAAAAAAAQAAAAAgAQADAAAAAAAAAAwAAAAAAAAAEAAAAIAAAAAABAAA", 
    "P6G0lvBAXt0AAAAAAAAAAAEAAAAAAAAAAQAAAAAgAQACAAAAAAAAAAgAAAAAAAAAAAgAAAAEAAA=", 
    "P6G0lvBAXt0AAAAAAAAAAAEAAAAAAAAAAQAAAAAgAQADAAAAAAAAAAwAAAAAAAAAAAEAAIAAAACAAAAA", 
    "P6G0lvBAXt0AAAAAAAAAAAEAAAAAAAAAAQAAAAAgAQAEAAAAAAAAABAAAAAAAAAAEAAAAAEAAAABAAAAgAAAAA==", 
    "P6G0lvBAXt0AAAAAAAAAAAEAAAAAAAAAAQAAAAAgAQAEAAAAAAAAABAAAAAAAAAAEAAAAAEAAAABAAAAgAAAAA==", 
    "P6G0lvBAXt0AAAAAAAAAAAEAAAAAAAAAAQAAAAAgAQAEAAAAAAAAABAAAAAAAAAAEAAAAAEAAAABAAAAgAAAAA==", 
    "P6G0lvBAXt0AAAAAAAAAAAEAAAAAAAAAAQAAAAAgAQACAAAAAAAAAAgAAAAAAAAAQHcAAAAEAAA=", 
    "P6G0lvBAXt0AAAAAAAAAAAEAAAAAAAAAAQAAAAAgAQADAAAAAAAAAAwAAAAAAAAAEAAAAIAAAAAABAAA", 
    "P6G0lvBAXt0AAAAAAAAAAAEAAAAAAAAAAQAAAAAgAQADAAAAAAAAAAwAAAAAAAAAAAEAAEAAAACAAAAA", 
    "P6G0lvBAXt0AAAAAAAAAAAEAAAAAAAAAAQAAAAAgAQADAAAAAAAAAAwAAAAAAAAAEAAAAIAAAAAABAAA", 
    "P6G0lvBAXt0AAAAAAAAAAAEAAAAAAAAAAQAAAAAgAQACAAAAAAAAAAgAAAAAAAAAAAgAAAAEAAA=", 
    "P6G0lvBAXt0AAAAAAAAAAAEAAAAAAAAAAQAAAAAgAQAEAAAAAAAAABAAAAAAAAAAEAAAABAAAACAAAAAgAAAAA==", 
    "P6G0lvBAXt0AAAAAAAAAAAEAAAAAAAAAAQAAAAAgAQADAAAAAAAAAAwAAAAAAAAAAAEAAIAAAACAAAAA", 
    "P6G0lvBAXt0AAAAAAAAAAAEAAAAAAAAAAQAAAAAgAQADAAAAAAAAAAwAAAAAAAAAAAEAAIAAAABAAAAA", 
    "P6G0lvBAXt0AAAAAAAAAAAEAAAAAAAAAAQAAAAAgAQADAAAAAAAAAAwAAAAAAAAAEAAAAIAAAAAABAAA", 
    "P6G0lvBAXt0AAAAAAAAAAAEAAAAAAAAAAQAAAAAgAQACAAAAAAAAAAgAAAAAAAAAAAgAAAAEAAA=", 
    "P6G0lvBAXt0AAAAAAAAAAAEAAAAAAAAAAQAAAAAgAQADAAAAAAAAAAwAAAAAAAAAAAEAAIAAAABAAAAA", 
    "P6G0lvBAXt0AAAAAAAAAAAEAAAAAAAAAAQAAAAAgAQADAAAAAAAAAAwAAAAAAAAAEAAAAIAAAAAABAAA", 
    "P6G0lvBAXt0AAAAAAAAAAAEAAAAAAAAAAQAAAAAgAQACAAAAAAAAAAgAAAAAAAAAAAgAAAAEAAA=", 
    "P6G0lvBAXt0AAAAAAAAAAAEAAAAAAAAAAQAAAAAgAQADAAAAAAAAAAwAAAAAAAAAEAAAAIAAAAAABAAA", 
    "P6G0lvBAXt0AAAAAAAAAAAEAAAAAAAAAAQAAAAAgAQADAAAAAAAAAAwAAAAAAAAAEAAAAIAAAAAABAAA", 
    "P6G0lvBAXt0AAAAAAAAAAAEAAAAAAAAAAQAAAAAgAQADAAAAAAAAAAwAAAAAAAAAEAAAAIAAAAAABAAA", 
    "P6G0lvBAXt0AAAAAAAAAAAEAAAAAAAAAAQAAAAAgAQADAAAAAAAAAAwAAAAAAAAAEAAAAIAAAAAABAAA", 
    "P6G0lvBAXt0AAAAAAAAAAAEAAAAAAAAAAQAAAAAgAQADAAAAAAAAAAwAAAAAAAAAEAAAAIAAAAABAAAA", 
    "P6G0lvBAXt0AAAAAAAAAAAEAAAAAAAAAAQAAAAAgAQADAAAAAAAAAAwAAAAAAAAAEAAAAIAAAAABAAAA", 
    "P6G0lvBAXt0AAAAAAAAAAAEAAAAAAAAAAQAAAAAgAQADAAAAAAAAAAwAAAAAAAAAEAAAAIAAAAABAAAA", 
    "P6G0lvBAXt0AAAAAAAAAAAEAAAAAAAAAAQAAAAAgAQADAAAAAAAAAAwAAAAAAAAAEAAAAIAAAAAABAAA", 
    "P6G0lvBAXt0AAAAAAAAAAAEAAAAAAAAAAQAAAAAgAQADAAAAAAAAAAwAAAAAAAAAEAAAAIAAAAAABAAA", 
    "P6G0lvBAXt0AAAAAAAAAAAEAAAAAAAAAAQAAAAAgAQADAAAAAAAAAAwAAAAAAAAAEAAAAIAAAAAABAAA", 
    "P6G0lvBAXt0AAAAAAAAAAAEAAAAAAAAAAQAAAAAgAQADAAAAAAAAAAwAAAAAAAAAEAAAAIAAAAAABAAA", 
    "P6G0lvBAXt0AAAAAAAAAAAEAAAAAAAAAAQAAAAAgAQABAAAAAAAAAAQAAAAAAAAAAAQAAA==", 
    "P6G0lvBAXt0AAAAAAAAAAAEAAAAAAAAAAQAAAAAgAQABAAAAAAAAAAQAAAAAAAAAAAQAAA==", 
    "P6G0lvBAXt0AAAAAAAAAAAEAAAAAAAAAAQAAAAAgAQACAAAAAAAAAAgAAAAAAAAAAAQAAAAEAAA=", 
    "P6G0lvBAXt0AAAAAAAAAAAEAAAAAAAAAAQAAAAAgAQACAAAAAAAAAAgAAAAAAAAAAAQAAAAEAAA=", 
    "P6G0lvBAXt0AAAAAAAAAAAEAAAAAAAAAAQAAAAAgAQACAAAAAAAAAAgAAAAAAAAAAAQAAAAEAAA=", 
    "P6G0lvBAXt0AAAAAAAAAAAEAAAAAAAAAAQAAAAAgAQACAAAAAAAAAAgAAAAAAAAAAAQAAAAEAAA=", 
    "P6G0lvBAXt0AAAAAAAAAAAEAAAAAAAAAAQAAAAAgAQABAAAAAAAAAAQAAAAAAAAAAAQAAA==", 
    "P6G0lvBAXt0AAAAAAAAAAAEAAAAAAAAAAQAAAAAgAQABAAAAAAAAAAQAAAAAAAAAAAQAAA==", 
    "P6G0lvBAXt0AAAAAAAAAAAEAAAAAAAAAAQAAAAAgAQACAAAAAAAAAAgAAAAAAAAAABAAAAAEAAA=", 
    "P6G0lvBAXt0AAAAAAAAAAAEAAAAAAAAAAQAAAAAgAQACAAAAAAAAAAgAAAAAAAAAAAQAAAAQAAA=", 
    "P6G0lvBAXt0AAAAAAAAAAAEAAAAAAAAAAQAAAAAgAQABAAAAAAAAAAQAAAAAAAAAAAQAAA==", 
    "P6G0lvBAXt0AAAAAAAAAAAEAAAAAAAAAAQAAAAAgAQABAAAAAAAAAAQAAAAAAAAAAAQAAA==", 
    "P6G0lvBAXt0AAAAAAAAAAAEAAAAAAAAAAQAAAAAgAQACAAAAAAAAAAgAAAAAAAAAAAQAAAAEAAA=", 
    "P6G0lvBAXt0AAAAAAAAAAAEAAAAAAAAAAQAAAAAgAQACAAAAAAAAAAgAAAAAAAAAAAQAAAAEAAA=", 
    "P6G0lvBAXt0AAAAAAAAAAAEAAAAAAAAAAQAAAAAgAQACAAAAAAAAAAgAAAAAAAAAAAQAAAAEAAA=", 
    "P6G0lvBAXt0AAAAAAAAAAAEAAAAAAAAAAQAAAAAgAQACAAAAAAAAAAgAAAAAAAAAAAQAAAAEAAA=", 
    "P6G0lvBAXt0AAAAAAAAAAAEAAAAAAAAAAQAAAAAgAQABAAAAAAAAAAQAAAAAAAAAAAQAAA==", 
    "P6G0lvBAXt0AAAAAAAAAAAEAAAAAAAAAAQAAAAAgAQABAAAAAAAAAAQAAAAAAAAAAAQAAA==", 
    "P6G0lvBAXt0AAAAAAAAAAAEAAAAAAAAAAQAAAAAgAQACAAAAAAAAAAgAAAAAAAAAABAAAAAEAAA=", 
    "P6G0lvBAXt0AAAAAAAAAAAEAAAAAAAAAAQAAAAAgAQACAAAAAAAAAAgAAAAAAAAAAAQAAAAQAAA=", 
    "P6G0lvBAXt0AAAAAAAAAAAEAAAAAAAAAAQAAAAAgAQABAAAAAAAAAAQAAAAAAAAAAAQAAA==", 
    "P6G0lvBAXt0AAAAAAAAAAAEAAAAAAAAAAQAAAAAgAQABAAAAAAAAAAQAAAAAAAAAAAQAAA==", 
    "P6G0lvBAXt0AAAAAAAAAAAEAAAAAAAAAAQAAAAAgAQACAAAAAAAAAAgAAAAAAAAAAAQAAAAEAAA=", 
    "P6G0lvBAXt0AAAAAAAAAAAEAAAAAAAAAAQAAAAAgAQACAAAAAAAAAAgAAAAAAAAAAAQAAAAEAAA=", 
    "P6G0lvBAXt0AAAAAAAAAAAEAAAAAAAAAAQAAAAAgAQACAAAAAAAAAAgAAAAAAAAAAAQAAAAEAAA=", 
    "P6G0lvBAXt0AAAAAAAAAAAEAAAAAAAAAAQAAAAAgAQACAAAAAAAAAAgAAAAAAAAAAAQAAAAEAAA=", 
    "P6G0lvBAXt0AAAAAAAAAAAEAAAAAAAAAAQAAAAAgAQABAAAAAAAAAAQAAAAAAAAAAAQAAA==", 
    "P6G0lvBAXt0AAAAAAAAAAAEAAAAAAAAAAQAAAAAgAQABAAAAAAAAAAQAAAAAAAAAAAQAAA==", 
    "P6G0lvBAXt0AAAAAAAAAAAEAAAAAAAAAAQAAAAAgAQACAAAAAAAAAAgAAAAAAAAAABAAAAAEAAA=", 
    "P6G0lvBAXt0AAAAAAAAAAAEAAAAAAAAAAQAAAAAgAQACAAAAAAAAAAgAAAAAAAAAAAQAAAAQAAA=", 
    "P6G0lvBAXt0AAAAAAAAAAAEAAAAAAAAAAQAAAAAgAQABAAAAAAAAAAQAAAAAAAAAAAQAAA==", 
    "P6G0lvBAXt0AAAAAAAAAAAEAAAAAAAAAAQAAAAAgAQABAAAAAAAAAAQAAAAAAAAAAAQAAA==", 
    "P6G0lvBAXt0AAAAAAAAAAAEAAAAAAAAAAQAAAAAgAQACAAAAAAAAAAgAAAAAAAAAAAQAAAAEAAA=", 
    "P6G0lvBAXt0AAAAAAAAAAAEAAAAAAAAAAQAAAAAgAQACAAAAAAAAAAgAAAAAAAAAAAQAAAAEAAA=", 
    "P6G0lvBAXt0AAAAAAAAAAAEAAAAAAAAAAQAAAAAgAQACAAAAAAAAAAgAAAAAAAAAAAQAAAAEAAA=", 
    "P6G0lvBAXt0AAAAAAAAAAAEAAAAAAAAAAQAAAAAgAQACAAAAAAAAAAgAAAAAAAAAAAQAAAAEAAA=", 
    "P6G0lvBAXt0AAAAAAAAAAAEAAAAAAAAAAQAAAAAgAQABAAAAAAAAAAQAAAAAAAAAAAQAAA==", 
    "P6G0lvBAXt0AAAAAAAAAAAEAAAAAAAAAAQAAAAAgAQABAAAAAAAAAAQAAAAAAAAAAAQAAA==", 
    "P6G0lvBAXt0AAAAAAAAAAAEAAAAAAAAAAQAAAAAgAQACAAAAAAAAAAgAAAAAAAAAABAAAAAEAAA=", 
    "P6G0lvBAXt0AAAAAAAAAAAEAAAAAAAAAAQAAAAAgAQACAAAAAAAAAAgAAAAAAAAAAAQAAAAQAAA=", 
    "P6G0lvBAXt0AAAAAAAAAAAEAAAAAAAAAAQAAAAAgAQABAAAAAAAAAAQAAAAAAAAAAAQAAA==", 
    "P6G0lvBAXt0AAAAAAAAAAAEAAAAAAAAAAQAAAAAgAQABAAAAAAAAAAQAAAAAAAAAAAQAAA==", 
    "P6G0lvBAXt0AAAAAAAAAAAEAAAAAAAAAAQAAAAAgAQACAAAAAAAAAAgAAAAAAAAAAAQAAAAEAAA=", 
    "P6G0lvBAXt0AAAAAAAAAAAEAAAAAAAAAAQAAAAAgAQACAAAAAAAAAAgAAAAAAAAAAAQAAAAEAAA=", 
    "P6G0lvBAXt0AAAAAAAAAAAEAAAAAAAAAAQAAAAAgAQACAAAAAAAAAAgAAAAAAAAAAAQAAAAEAAA=", 
    "P6G0lvBAXt0AAAAAAAAAAAEAAAAAAAAAAQAAAAAgAQACAAAAAAAAAAgAAAAAAAAAAAQAAAAEAAA=", 
    "P6G0lvBAXt0AAAAAAAAAAAEAAAAAAAAAAQAAAAAgAQABAAAAAAAAAAQAAAAAAAAAAAQAAA==", 
    "P6G0lvBAXt0AAAAAAAAAAAEAAAAAAAAAAQAAAAAgAQABAAAAAAAAAAQAAAAAAAAAAAQAAA==", 
    "P6G0lvBAXt0AAAAAAAAAAAEAAAAAAAAAAQAAAAAgAQACAAAAAAAAAAgAAAAAAAAAABAAAAAEAAA=", 
    "P6G0lvBAXt0AAAAAAAAAAAEAAAAAAAAAAQAAAAAgAQACAAAAAAAAAAgAAAAAAAAAAAQAAAAQAAA=", 
    "P6G0lvBAXt0AAAAAAAAAAAEAAAAAAAAAAQAAAAAgAQABAAAAAAAAAAQAAAAAAAAAAAQAAA==", 
    "P6G0lvBAXt0AAAAAAAAAAAEAAAAAAAAAAQAAAAAgAQABAAAAAAAAAAQAAAAAAAAAAAQAAA==", 
    "P6G0lvBAXt0AAAAAAAAAAAEAAAAAAAAAAQAAAAAgAQACAAAAAAAAAAgAAAAAAAAAAAQAAAAEAAA=", 
    "P6G0lvBAXt0AAAAAAAAAAAEAAAAAAAAAAQAAAAAgAQACAAAAAAAAAAgAAAAAAAAAAAQAAAAEAAA=", 
    "P6G0lvBAXt0AAAAAAAAAAAEAAAAAAAAAAQAAAAAgAQACAAAAAAAAAAgAAAAAAAAAAAQAAAAEAAA=", 
    "P6G0lvBAXt0AAAAAAAAAAAEAAAAAAAAAAQAAAAAgAQACAAAAAAAAAAgAAAAAAAAAAAQAAAAEAAA=", 
    "P6G0lvBAXt0AAAAAAAAAAAEAAAAAAAAAAQAAAAAgAQABAAAAAAAAAAQAAAAAAAAAAAQAAA==", 
    "P6G0lvBAXt0AAAAAAAAAAAEAAAAAAAAAAQAAAAAgAQABAAAAAAAAAAQAAAAAAAAAAAQAAA==", 
    "P6G0lvBAXt0AAAAAAAAAAAEAAAAAAAAAAQAAAAAgAQACAAAAAAAAAAgAAAAAAAAAABAAAAAEAAA=", 
    "P6G0lvBAXt0AAAAAAAAAAAEAAAAAAAAAAQAAAAAgAQACAAAAAAAAAAgAAAAAAAAAAAQAAAAQAAA=", 
    "P6G0lvBAXt0AAAAAAAAAAAEAAAAAAAAAAQAAAAAgAQABAAAAAAAAAAQAAAAAAAAAAAQAAA==", 
    "P6G0lvBAXt0AAAAAAAAAAAEAAAAAAAAAAQAAAAAgAQABAAAAAAAAAAQAAAAAAAAAAAQAAA==", 
    "P6G0lvBAXt0AAAAAAAAAAAEAAAAAAAAAAQAAAAAgAQACAAAAAAAAAAgAAAAAAAAAAAQAAAAEAAA=", 
    "P6G0lvBAXt0AAAAAAAAAAAEAAAAAAAAAAQAAAAAgAQACAAAAAAAAAAgAAAAAAAAAAAQAAAAEAAA=", 
    "P6G0lvBAXt0AAAAAAAAAAAEAAAAAAAAAAQAAAAAgAQACAAAAAAAAAAgAAAAAAAAAAAQAAAAEAAA=", 
    "P6G0lvBAXt0AAAAAAAAAAAEAAAAAAAAAAQAAAAAgAQACAAAAAAAAAAgAAAAAAAAAAAQAAAAEAAA=", 
    "P6G0lvBAXt0AAAAAAAAAAAEAAAAAAAAAAQAAAAAgAQABAAAAAAAAAAQAAAAAAAAAAAQAAA==", 
    "P6G0lvBAXt0AAAAAAAAAAAEAAAAAAAAAAQAAAAAgAQABAAAAAAAAAAQAAAAAAAAAAAQAAA==", 
    "P6G0lvBAXt0AAAAAAAAAAAEAAAAAAAAAAQAAAAAgAQACAAAAAAAAAAgAAAAAAAAAABAAAAAEAAA=", 
    "P6G0lvBAXt0AAAAAAAAAAAEAAAAAAAAAAQAAAAAgAQACAAAAAAAAAAgAAAAAAAAAAAQAAAAQAAA=", 
    "P6G0lvBAXt0AAAAAAAAAAAEAAAAAAAAAAQAAAAAgAQABAAAAAAAAAAQAAAAAAAAAAAQAAA==", 
    "P6G0lvBAXt0AAAAAAAAAAAEAAAAAAAAAAQAAAAAgAQABAAAAAAAAAAQAAAAAAAAAAAQAAA==", 
    "P6G0lvBAXt0AAAAAAAAAAAEAAAAAAAAAAQAAAAAgAQACAAAAAAAAAAgAAAAAAAAAAAQAAAAEAAA=", 
    "P6G0lvBAXt0AAAAAAAAAAAEAAAAAAAAAAQAAAAAgAQACAAAAAAAAAAgAAAAAAAAAAAQAAAAEAAA=", 
    "P6G0lvBAXt0AAAAAAAAAAAEAAAAAAAAAAQAAAAAgAQACAAAAAAAAAAgAAAAAAAAAAAQAAAAEAAA=", 
    "P6G0lvBAXt0AAAAAAAAAAAEAAAAAAAAAAQAAAAAgAQACAAAAAAAAAAgAAAAAAAAAAAQAAAAEAAA=", 
    "P6G0lvBAXt0AAAAAAAAAAAEAAAAAAAAAAQAAAAAgAQABAAAAAAAAAAQAAAAAAAAAAAQAAA==", 
    "P6G0lvBAXt0AAAAAAAAAAAEAAAAAAAAAAQAAAAAgAQABAAAAAAAAAAQAAAAAAAAAAAQAAA==", 
    "P6G0lvBAXt0AAAAAAAAAAAEAAAAAAAAAAQAAAAAgAQACAAAAAAAAAAgAAAAAAAAAABAAAAAEAAA=", 
    "P6G0lvBAXt0AAAAAAAAAAAEAAAAAAAAAAQAAAAAgAQACAAAAAAAAAAgAAAAAAAAAAAQAAAAQAAA=", 
    "P6G0lvBAXt0AAAAAAAAAAAEAAAAAAAAAAQAAAAAgAQABAAAAAAAAAAQAAAAAAAAAAAQAAA==", 
    "P6G0lvBAXt0AAAAAAAAAAAEAAAAAAAAAAQAAAAAgAQABAAAAAAAAAAQAAAAAAAAAAAQAAA==", 
    "P6G0lvBAXt0AAAAAAAAAAAEAAAAAAAAAAQAAAAAgAQACAAAAAAAAAAgAAAAAAAAAAAQAAAAEAAA=", 
    "P6G0lvBAXt0AAAAAAAAAAAEAAAAAAAAAAQAAAAAgAQACAAAAAAAAAAgAAAAAAAAAAAQAAAAEAAA=", 
    "P6G0lvBAXt0AAAAAAAAAAAEAAAAAAAAAAQAAAAAgAQACAAAAAAAAAAgAAAAAAAAAAAQAAAAEAAA=", 
    "P6G0lvBAXt0AAAAAAAAAAAEAAAAAAAAAAQAAAAAgAQACAAAAAAAAAAgAAAAAAAAAAAQAAAAEAAA=", 
    "P6G0lvBAXt0AAAAAAAAAAAEAAAAAAAAAAQAAAAAgAQABAAAAAAAAAAQAAAAAAAAAAAQAAA==", 
    "P6G0lvBAXt0AAAAAAAAAAAEAAAAAAAAAAQAAAAAgAQABAAAAAAAAAAQAAAAAAAAAAAQAAA==", 
    "P6G0lvBAXt0AAAAAAAAAAAEAAAAAAAAAAQAAAAAgAQACAAAAAAAAAAgAAAAAAAAAABAAAAAEAAA=", 
    "P6G0lvBAXt0AAAAAAAAAAAEAAAAAAAAAAQAAAAAgAQACAAAAAAAAAAgAAAAAAAAAAAQAAAAQAAA=", 
    "P6G0lvBAXt0AAAAAAAAAAAEAAAAAAAAAAQAAAAAgAQABAAAAAAAAAAQAAAAAAAAAAAQAAA==", 
    "P6G0lvBAXt0AAAAAAAAAAAEAAAAAAAAAAQAAAAAgAQABAAAAAAAAAAQAAAAAAAAAAAQAAA==", 
    "P6G0lvBAXt0AAAAAAAAAAAEAAAAAAAAAAQAAAAAgAQACAAAAAAAAAAgAAAAAAAAAAAQAAAAEAAA=", 
    "P6G0lvBAXt0AAAAAAAAAAAEAAAAAAAAAAQAAAAAgAQACAAAAAAAAAAgAAAAAAAAAAAQAAAAEAAA=", 
    "P6G0lvBAXt0AAAAAAAAAAAEAAAAAAAAAAQAAAAAgAQACAAAAAAAAAAgAAAAAAAAAAAQAAAAEAAA=", 
    "P6G0lvBAXt0AAAAAAAAAAAEAAAAAAAAAAQAAAAAgAQACAAAAAAAAAAgAAAAAAAAAAAQAAAAEAAA=", 
    "P6G0lvBAXt0AAAAAAAAAAAEAAAAAAAAAAQAAAAAgAQABAAAAAAAAAAQAAAAAAAAAAAQAAA==", 
    "P6G0lvBAXt0AAAAAAAAAAAEAAAAAAAAAAQAAAAAgAQABAAAAAAAAAAQAAAAAAAAAAAQAAA==", 
    "P6G0lvBAXt0AAAAAAAAAAAEAAAAAAAAAAQAAAAAgAQACAAAAAAAAAAgAAAAAAAAAABAAAAAEAAA=", 
    "P6G0lvBAXt0AAAAAAAAAAAEAAAAAAAAAAQAAAAAgAQACAAAAAAAAAAgAAAAAAAAAAAQAAAAQAAA=", 
    "P6G0lvBAXt0AAAAAAAAAAAEAAAAAAAAAAQAAAAAgAQABAAAAAAAAAAQAAAAAAAAAAAQAAA==", 
    "P6G0lvBAXt0AAAAAAAAAAAEAAAAAAAAAAQAAAAAgAQABAAAAAAAAAAQAAAAAAAAAAAQAAA==", 
    "P6G0lvBAXt0AAAAAAAAAAAEAAAAAAAAAAQAAAAAgAQACAAAAAAAAAAgAAAAAAAAAAAQAAAAEAAA=", 
    "P6G0lvBAXt0AAAAAAAAAAAEAAAAAAAAAAQAAAAAgAQACAAAAAAAAAAgAAAAAAAAAAAQAAAAEAAA=", 
    "P6G0lvBAXt0AAAAAAAAAAAEAAAAAAAAAAQAAAAAgAQACAAAAAAAAAAgAAAAAAAAAAAQAAAAEAAA=", 
    "P6G0lvBAXt0AAAAAAAAAAAEAAAAAAAAAAQAAAAAgAQACAAAAAAAAAAgAAAAAAAAAAAQAAAAEAAA=", 
    "P6G0lvBAXt0AAAAAAAAAAAEAAAAAAAAAAQAAAAAgAQABAAAAAAAAAAQAAAAAAAAAAAQAAA==", 
    "P6G0lvBAXt0AAAAAAAAAAAEAAAAAAAAAAQAAAAAgAQABAAAAAAAAAAQAAAAAAAAAAAQAAA==", 
    "P6G0lvBAXt0AAAAAAAAAAAEAAAAAAAAAAQAAAAAgAQACAAAAAAAAAAgAAAAAAAAAABAAAAAEAAA=", 
    "P6G0lvBAXt0AAAAAAAAAAAEAAAAAAAAAAQAAAAAgAQACAAAAAAAAAAgAAAAAAAAAAAQAAAAQAAA=", 
    "P6G0lvBAXt0AAAAAAAAAAAEAAAAAAAAAAQAAAAAgAQABAAAAAAAAAAQAAAAAAAAAAAQAAA==", 
    "P6G0lvBAXt0AAAAAAAAAAAEAAAAAAAAAAQAAAAAgAQABAAAAAAAAAAQAAAAAAAAAAAQAAA==", 
    "P6G0lvBAXt0AAAAAAAAAAAEAAAAAAAAAAQAAAAAgAQACAAAAAAAAAAgAAAAAAAAAAAQAAAAEAAA=", 
    "P6G0lvBAXt0AAAAAAAAAAAEAAAAAAAAAAQAAAAAgAQACAAAAAAAAAAgAAAAAAAAAAAQAAAAEAAA=", 
    "P6G0lvBAXt0AAAAAAAAAAAEAAAAAAAAAAQAAAAAgAQACAAAAAAAAAAgAAAAAAAAAAAQAAAAEAAA=", 
    "P6G0lvBAXt0AAAAAAAAAAAEAAAAAAAAAAQAAAAAgAQACAAAAAAAAAAgAAAAAAAAAAAQAAAAEAAA=", 
    "P6G0lvBAXt0AAAAAAAAAAAEAAAAAAAAAAQAAAAAgAQABAAAAAAAAAAQAAAAAAAAAAAQAAA==", 
    "P6G0lvBAXt0AAAAAAAAAAAEAAAAAAAAAAQAAAAAgAQABAAAAAAAAAAQAAAAAAAAAAAQAAA==", 
    "P6G0lvBAXt0AAAAAAAAAAAEAAAAAAAAAAQAAAAAgAQACAAAAAAAAAAgAAAAAAAAAABAAAAAEAAA=", 
    "P6G0lvBAXt0AAAAAAAAAAAEAAAAAAAAAAQAAAAAgAQACAAAAAAAAAAgAAAAAAAAAAAQAAAAQAAA=", 
    "P6G0lvBAXt0AAAAAAAAAAAEAAAAAAAAAAQAAAAAgAQABAAAAAAAAAAQAAAAAAAAAAAQAAA==", 
    "P6G0lvBAXt0AAAAAAAAAAAEAAAAAAAAAAQAAAAAgAQABAAAAAAAAAAQAAAAAAAAAAAQAAA==", 
    "P6G0lvBAXt0AAAAAAAAAAAEAAAAAAAAAAQAAAAAgAQACAAAAAAAAAAgAAAAAAAAAAAQAAAAEAAA=", 
    "P6G0lvBAXt0AAAAAAAAAAAEAAAAAAAAAAQAAAAAgAQACAAAAAAAAAAgAAAAAAAAAAAQAAAAEAAA=", 
    "P6G0lvBAXt0AAAAAAAAAAAEAAAAAAAAAAQAAAAAgAQACAAAAAAAAAAgAAAAAAAAAAAQAAAAEAAA=", 
    "P6G0lvBAXt0AAAAAAAAAAAEAAAAAAAAAAQAAAAAgAQACAAAAAAAAAAgAAAAAAAAAAAQAAAAEAAA=", 
    "P6G0lvBAXt0AAAAAAAAAAAEAAAAAAAAAAQAAAAAgAQABAAAAAAAAAAQAAAAAAAAAAAQAAA==", 
    "P6G0lvBAXt0AAAAAAAAAAAEAAAAAAAAAAQAAAAAgAQABAAAAAAAAAAQAAAAAAAAAAAQAAA==", 
    "P6G0lvBAXt0AAAAAAAAAAAEAAAAAAAAAAQAAAAAgAQACAAAAAAAAAAgAAAAAAAAAABAAAAAEAAA=", 
    "P6G0lvBAXt0AAAAAAAAAAAEAAAAAAAAAAQAAAAAgAQACAAAAAAAAAAgAAAAAAAAAAAQAAAAQAAA=", 
    "P6G0lvBAXt0AAAAAAAAAAAEAAAAAAAAAAQAAAAAgAQABAAAAAAAAAAQAAAAAAAAAAAQAAA==", 
    "P6G0lvBAXt0AAAAAAAAAAAEAAAAAAAAAAQAAAAAgAQABAAAAAAAAAAQAAAAAAAAAAAQAAA==", 
    "P6G0lvBAXt0AAAAAAAAAAAEAAAAAAAAAAQAAAAAgAQACAAAAAAAAAAgAAAAAAAAAAAQAAAAEAAA=", 
    "P6G0lvBAXt0AAAAAAAAAAAEAAAAAAAAAAQAAAAAgAQACAAAAAAAAAAgAAAAAAAAAAAQAAAAEAAA=", 
    "P6G0lvBAXt0AAAAAAAAAAAEAAAAAAAAAAQAAAAAgAQACAAAAAAAAAAgAAAAAAAAAAAQAAAAEAAA=", 
    "P6G0lvBAXt0AAAAAAAAAAAEAAAAAAAAAAQAAAAAgAQACAAAAAAAAAAgAAAAAAAAAAAQAAAAEAAA=", 
    "P6G0lvBAXt0AAAAAAAAAAAEAAAAAAAAAAQAAAAAgAQABAAAAAAAAAAQAAAAAAAAAAAQAAA==", 
    "P6G0lvBAXt0AAAAAAAAAAAEAAAAAAAAAAQAAAAAgAQABAAAAAAAAAAQAAAAAAAAAAAQAAA==", 
    "P6G0lvBAXt0AAAAAAAAAAAEAAAAAAAAAAQAAAAAgAQACAAAAAAAAAAgAAAAAAAAAABAAAAAEAAA=", 
    "P6G0lvBAXt0AAAAAAAAAAAEAAAAAAAAAAQAAAAAgAQACAAAAAAAAAAgAAAAAAAAAAAQAAAAQAAA=", 
    "P6G0lvBAXt0AAAAAAAAAAAEAAAAAAAAAAQAAAAAgAQABAAAAAAAAAAQAAAAAAAAAAAQAAA==", 
    "P6G0lvBAXt0AAAAAAAAAAAEAAAAAAAAAAQAAAAAgAQABAAAAAAAAAAQAAAAAAAAAAAQAAA==", 
    "P6G0lvBAXt0AAAAAAAAAAAEAAAAAAAAAAQAAAAAgAQACAAAAAAAAAAgAAAAAAAAAAAQAAAAEAAA=", 
    "P6G0lvBAXt0AAAAAAAAAAAEAAAAAAAAAAQAAAAAgAQACAAAAAAAAAAgAAAAAAAAAAAQAAAAEAAA=", 
    "P6G0lvBAXt0AAAAAAAAAAAEAAAAAAAAAAQAAAAAgAQACAAAAAAAAAAgAAAAAAAAAAAQAAAAEAAA=", 
    "P6G0lvBAXt0AAAAAAAAAAAEAAAAAAAAAAQAAAAAgAQACAAAAAAAAAAgAAAAAAAAAAAQAAAAEAAA=", 
    "P6G0lvBAXt0AAAAAAAAAAAEAAAAAAAAAAQAAAAAgAQABAAAAAAAAAAQAAAAAAAAAAAQAAA==", 
    "P6G0lvBAXt0AAAAAAAAAAAEAAAAAAAAAAQAAAAAgAQABAAAAAAAAAAQAAAAAAAAAAAQAAA==", 
    "P6G0lvBAXt0AAAAAAAAAAAEAAAAAAAAAAQAAAAAgAQACAAAAAAAAAAgAAAAAAAAAABAAAAAEAAA=", 
    "P6G0lvBAXt0AAAAAAAAAAAEAAAAAAAAAAQAAAAAgAQACAAAAAAAAAAgAAAAAAAAAAAQAAAAQAAA=", 
    "P6G0lvBAXt0AAAAAAAAAAAEAAAAAAAAAAQAAAAAgAQABAAAAAAAAAAQAAAAAAAAAAAQAAA==", 
    "P6G0lvBAXt0AAAAAAAAAAAEAAAAAAAAAAQAAAAAgAQABAAAAAAAAAAQAAAAAAAAAAAQAAA==", 
    "P6G0lvBAXt0AAAAAAAAAAAEAAAAAAAAAAQAAAAAgAQACAAAAAAAAAAgAAAAAAAAAAAQAAAAEAAA=", 
    "P6G0lvBAXt0AAAAAAAAAAAEAAAAAAAAAAQAAAAAgAQACAAAAAAAAAAgAAAAAAAAAAAQAAAAEAAA=", 
    "P6G0lvBAXt0AAAAAAAAAAAEAAAAAAAAAAQAAAAAgAQACAAAAAAAAAAgAAAAAAAAAAAQAAAAEAAA=", 
    "P6G0lvBAXt0AAAAAAAAAAAEAAAAAAAAAAQAAAAAgAQACAAAAAAAAAAgAAAAAAAAAAAQAAAAEAAA=", 
    "P6G0lvBAXt0AAAAAAAAAAAEAAAAAAAAAAQAAAAAgAQABAAAAAAAAAAQAAAAAAAAAAAQAAA==", 
    "P6G0lvBAXt0AAAAAAAAAAAEAAAAAAAAAAQAAAAAgAQABAAAAAAAAAAQAAAAAAAAAAAQAAA==", 
    "P6G0lvBAXt0AAAAAAAAAAAEAAAAAAAAAAQAAAAAgAQACAAAAAAAAAAgAAAAAAAAAABAAAAAEAAA=", 
    "P6G0lvBAXt0AAAAAAAAAAAEAAAAAAAAAAQAAAAAgAQACAAAAAAAAAAgAAAAAAAAAAAQAAAAQAAA=", 
    "P6G0lvBAXt0AAAAAAAAAAAEAAAAAAAAAAQAAAAAgAQABAAAAAAAAAAQAAAAAAAAAAAQAAA==", 
    "P6G0lvBAXt0AAAAAAAAAAAEAAAAAAAAAAQAAAAAgAQABAAAAAAAAAAQAAAAAAAAAAAQAAA==", 
    "P6G0lvBAXt0AAAAAAAAAAAEAAAAAAAAAAQAAAAAgAQACAAAAAAAAAAgAAAAAAAAAAAQAAAAEAAA=", 
    "P6G0lvBAXt0AAAAAAAAAAAEAAAAAAAAAAQAAAAAgAQACAAAAAAAAAAgAAAAAAAAAAAQAAAAEAAA=", 
    "P6G0lvBAXt0AAAAAAAAAAAEAAAAAAAAAAQAAAAAgAQACAAAAAAAAAAgAAAAAAAAAAAQAAAAEAAA=", 
    "P6G0lvBAXt0AAAAAAAAAAAEAAAAAAAAAAQAAAAAgAQACAAAAAAAAAAgAAAAAAAAAAAQAAAAEAAA=", 
    "P6G0lvBAXt0AAAAAAAAAAAEAAAAAAAAAAQAAAAAgAQABAAAAAAAAAAQAAAAAAAAAAAQAAA==", 
    "P6G0lvBAXt0AAAAAAAAAAAEAAAAAAAAAAQAAAAAgAQABAAAAAAAAAAQAAAAAAAAAAAQAAA==", 
    "P6G0lvBAXt0AAAAAAAAAAAEAAAAAAAAAAQAAAAAgAQACAAAAAAAAAAgAAAAAAAAAABAAAAAEAAA=", 
    "P6G0lvBAXt0AAAAAAAAAAAEAAAAAAAAAAQAAAAAgAQACAAAAAAAAAAgAAAAAAAAAAAQAAAAQAAA=", 
    "P6G0lvBAXt0AAAAAAAAAAAEAAAAAAAAAAQAAAAAgAQABAAAAAAAAAAQAAAAAAAAAAAQAAA==", 
    "P6G0lvBAXt0AAAAAAAAAAAEAAAAAAAAAAQAAAAAgAQABAAAAAAAAAAQAAAAAAAAAAAQAAA==", 
    "P6G0lvBAXt0AAAAAAAAAAAEAAAAAAAAAAQAAAAAgAQACAAAAAAAAAAgAAAAAAAAAAAQAAAAEAAA=", 
    "P6G0lvBAXt0AAAAAAAAAAAEAAAAAAAAAAQAAAAAgAQACAAAAAAAAAAgAAAAAAAAAAAQAAAAEAAA=", 
    "P6G0lvBAXt0AAAAAAAAAAAEAAAAAAAAAAQAAAAAgAQACAAAAAAAAAAgAAAAAAAAAAAQAAAAEAAA=", 
    "P6G0lvBAXt0AAAAAAAAAAAEAAAAAAAAAAQAAAAAgAQACAAAAAAAAAAgAAAAAAAAAAAQAAAAEAAA=", 
    "P6G0lvBAXt0AAAAAAAAAAAEAAAAAAAAAAQAAAAAgAQABAAAAAAAAAAQAAAAAAAAAAAQAAA==", 
    "P6G0lvBAXt0AAAAAAAAAAAEAAAAAAAAAAQAAAAAgAQABAAAAAAAAAAQAAAAAAAAAAAQAAA==", 
    "P6G0lvBAXt0AAAAAAAAAAAEAAAAAAAAAAQAAAAAgAQACAAAAAAAAAAgAAAAAAAAAABAAAAAEAAA=", 
    "P6G0lvBAXt0AAAAAAAAAAAEAAAAAAAAAAQAAAAAgAQACAAAAAAAAAAgAAAAAAAAAAAQAAAAQAAA=", 
    "P6G0lvBAXt0AAAAAAAAAAAEAAAAAAAAAAQAAAAAgAQABAAAAAAAAAAQAAAAAAAAAAAQAAA==", 
    "P6G0lvBAXt0AAAAAAAAAAAEAAAAAAAAAAQAAAAAgAQABAAAAAAAAAAQAAAAAAAAAAAQAAA==", 
    "P6G0lvBAXt0AAAAAAAAAAAEAAAAAAAAAAQAAAAAgAQACAAAAAAAAAAgAAAAAAAAAAAQAAAAEAAA=", 
    "P6G0lvBAXt0AAAAAAAAAAAEAAAAAAAAAAQAAAAAgAQACAAAAAAAAAAgAAAAAAAAAAAQAAAAEAAA=", 
    "P6G0lvBAXt0AAAAAAAAAAAEAAAAAAAAAAQAAAAAgAQACAAAAAAAAAAgAAAAAAAAAAAQAAAAEAAA=", 
    "P6G0lvBAXt0AAAAAAAAAAAEAAAAAAAAAAQAAAAAgAQACAAAAAAAAAAgAAAAAAAAAAAQAAAAEAAA=", 
    "P6G0lvBAXt0AAAAAAAAAAAEAAAAAAAAAAQAAAAAgAQABAAAAAAAAAAQAAAAAAAAAAAQAAA==", 
    "P6G0lvBAXt0AAAAAAAAAAAEAAAAAAAAAAQAAAAAgAQABAAAAAAAAAAQAAAAAAAAAAAQAAA==", 
    "P6G0lvBAXt0AAAAAAAAAAAEAAAAAAAAAAQAAAAAgAQACAAAAAAAAAAgAAAAAAAAAABAAAAAEAAA=", 
    "P6G0lvBAXt0AAAAAAAAAAAEAAAAAAAAAAQAAAAAgAQACAAAAAAAAAAgAAAAAAAAAAAQAAAAQAAA=", 
    "P6G0lvBAXt0AAAAAAAAAAAEAAAAAAAAAAQAAAAAgAQABAAAAAAAAAAQAAAAAAAAAAAQAAA==", 
    "P6G0lvBAXt0AAAAAAAAAAAEAAAAAAAAAAQAAAAAgAQABAAAAAAAAAAQAAAAAAAAAAAQAAA==", 
    "P6G0lvBAXt0AAAAAAAAAAAEAAAAAAAAAAQAAAAAgAQACAAAAAAAAAAgAAAAAAAAAAAQAAAAEAAA=", 
    "P6G0lvBAXt0AAAAAAAAAAAEAAAAAAAAAAQAAAAAgAQACAAAAAAAAAAgAAAAAAAAAAAQAAAAEAAA=", 
    "P6G0lvBAXt0AAAAAAAAAAAEAAAAAAAAAAQAAAAAgAQACAAAAAAAAAAgAAAAAAAAAAAQAAAAEAAA=", 
    "P6G0lvBAXt0AAAAAAAAAAAEAAAAAAAAAAQAAAAAgAQACAAAAAAAAAAgAAAAAAAAAAAQAAAAEAAA=", 
    "P6G0lvBAXt0AAAAAAAAAAAEAAAAAAAAAAQAAAAAgAQABAAAAAAAAAAQAAAAAAAAAAAQAAA==", 
    "P6G0lvBAXt0AAAAAAAAAAAEAAAAAAAAAAQAAAAAgAQABAAAAAAAAAAQAAAAAAAAAAAQAAA==", 
    "P6G0lvBAXt0AAAAAAAAAAAEAAAAAAAAAAQAAAAAgAQACAAAAAAAAAAgAAAAAAAAAABAAAAAEAAA=", 
    "P6G0lvBAXt0AAAAAAAAAAAEAAAAAAAAAAQAAAAAgAQACAAAAAAAAAAgAAAAAAAAAAAQAAAAQAAA=", 
    "P6G0lvBAXt0AAAAAAAAAAAEAAAAAAAAAAQAAAAAgAQABAAAAAAAAAAQAAAAAAAAAAAQAAA==", 
    "P6G0lvBAXt0AAAAAAAAAAAEAAAAAAAAAAQAAAAAgAQABAAAAAAAAAAQAAAAAAAAAAAQAAA==", 
    "P6G0lvBAXt0AAAAAAAAAAAEAAAAAAAAAAQAAAAAgAQACAAAAAAAAAAgAAAAAAAAAAAQAAAAEAAA=", 
    "P6G0lvBAXt0AAAAAAAAAAAEAAAAAAAAAAQAAAAAgAQACAAAAAAAAAAgAAAAAAAAAAAQAAAAEAAA=", 
    "P6G0lvBAXt0AAAAAAAAAAAEAAAAAAAAAAQAAAAAgAQACAAAAAAAAAAgAAAAAAAAAAAQAAAAEAAA=", 
    "P6G0lvBAXt0AAAAAAAAAAAEAAAAAAAAAAQAAAAAgAQACAAAAAAAAAAgAAAAAAAAAAAQAAAAEAAA=", 
    "P6G0lvBAXt0AAAAAAAAAAAEAAAAAAAAAAQAAAAAgAQABAAAAAAAAAAQAAAAAAAAAAAQAAA==", 
    "P6G0lvBAXt0AAAAAAAAAAAEAAAAAAAAAAQAAAAAgAQABAAAAAAAAAAQAAAAAAAAAAAQAAA==", 
    "P6G0lvBAXt0AAAAAAAAAAAEAAAAAAAAAAQAAAAAgAQACAAAAAAAAAAgAAAAAAAAAABAAAAAEAAA=", 
    "P6G0lvBAXt0AAAAAAAAAAAEAAAAAAAAAAQAAAAAgAQACAAAAAAAAAAgAAAAAAAAAAAQAAAAQAAA=", 
    "P6G0lvBAXt0AAAAAAAAAAAEAAAAAAAAAAQAAAAAgAQABAAAAAAAAAAQAAAAAAAAAAAQAAA==", 
    "P6G0lvBAXt0AAAAAAAAAAAEAAAAAAAAAAQAAAAAgAQABAAAAAAAAAAQAAAAAAAAAAAQAAA==", 
    "P6G0lvBAXt0AAAAAAAAAAAEAAAAAAAAAAQAAAAAgAQACAAAAAAAAAAgAAAAAAAAAAAQAAAAEAAA=", 
    "P6G0lvBAXt0AAAAAAAAAAAEAAAAAAAAAAQAAAAAgAQACAAAAAAAAAAgAAAAAAAAAAAQAAAAEAAA=", 
    "P6G0lvBAXt0AAAAAAAAAAAEAAAAAAAAAAQAAAAAgAQACAAAAAAAAAAgAAAAAAAAAAAQAAAAEAAA=", 
    "P6G0lvBAXt0AAAAAAAAAAAEAAAAAAAAAAQAAAAAgAQACAAAAAAAAAAgAAAAAAAAAAAQAAAAEAAA=", 
    "P6G0lvBAXt0AAAAAAAAAAAEAAAAAAAAAAQAAAAAgAQABAAAAAAAAAAQAAAAAAAAAAAQAAA==", 
    "P6G0lvBAXt0AAAAAAAAAAAEAAAAAAAAAAQAAAAAgAQABAAAAAAAAAAQAAAAAAAAAAAQAAA==", 
    "P6G0lvBAXt0AAAAAAAAAAAEAAAAAAAAAAQAAAAAgAQACAAAAAAAAAAgAAAAAAAAAABAAAAAEAAA=", 
    "P6G0lvBAXt0AAAAAAAAAAAEAAAAAAAAAAQAAAAAgAQACAAAAAAAAAAgAAAAAAAAAAAQAAAAQAAA=", 
    "P6G0lvBAXt0AAAAAAAAAAAEAAAAAAAAAAQAAAAAgAQABAAAAAAAAAAQAAAAAAAAAAAQAAA==", 
    "P6G0lvBAXt0AAAAAAAAAAAEAAAAAAAAAAQAAAAAgAQABAAAAAAAAAAQAAAAAAAAAAAQAAA==", 
    "P6G0lvBAXt0AAAAAAAAAAAEAAAAAAAAAAQAAAAAgAQACAAAAAAAAAAgAAAAAAAAAAAQAAAAEAAA=", 
    "P6G0lvBAXt0AAAAAAAAAAAEAAAAAAAAAAQAAAAAgAQACAAAAAAAAAAgAAAAAAAAAAAQAAAAEAAA=", 
    "P6G0lvBAXt0AAAAAAAAAAAEAAAAAAAAAAQAAAAAgAQACAAAAAAAAAAgAAAAAAAAAAAQAAAAEAAA=", 
    "P6G0lvBAXt0AAAAAAAAAAAEAAAAAAAAAAQAAAAAgAQACAAAAAAAAAAgAAAAAAAAAAAQAAAAEAAA=", 
    "P6G0lvBAXt0AAAAAAAAAAAEAAAAAAAAAAQAAAAAgAQABAAAAAAAAAAQAAAAAAAAAAAQAAA==", 
    "P6G0lvBAXt0AAAAAAAAAAAEAAAAAAAAAAQAAAAAgAQABAAAAAAAAAAQAAAAAAAAAAAQAAA==", 
    "P6G0lvBAXt0AAAAAAAAAAAEAAAAAAAAAAQAAAAAgAQACAAAAAAAAAAgAAAAAAAAAABAAAAAEAAA=", 
    "P6G0lvBAXt0AAAAAAAAAAAEAAAAAAAAAAQAAAAAgAQACAAAAAAAAAAgAAAAAAAAAAAQAAAAQAAA=", 
    "P6G0lvBAXt0AAAAAAAAAAAEAAAAAAAAAAQAAAAAgAQABAAAAAAAAAAQAAAAAAAAAAAQAAA==", 
    "P6G0lvBAXt0AAAAAAAAAAAEAAAAAAAAAAQAAAAAgAQABAAAAAAAAAAQAAAAAAAAAAAQAAA==", 
    "P6G0lvBAXt0AAAAAAAAAAAEAAAAAAAAAAQAAAAAgAQACAAAAAAAAAAgAAAAAAAAAAAQAAAAEAAA=", 
    "P6G0lvBAXt0AAAAAAAAAAAEAAAAAAAAAAQAAAAAgAQACAAAAAAAAAAgAAAAAAAAAAAQAAAAEAAA=", 
    "P6G0lvBAXt0AAAAAAAAAAAEAAAAAAAAAAQAAAAAgAQACAAAAAAAAAAgAAAAAAAAAAAQAAAAEAAA=", 
    "P6G0lvBAXt0AAAAAAAAAAAEAAAAAAAAAAQAAAAAgAQACAAAAAAAAAAgAAAAAAAAAAAQAAAAEAAA=", 
    "P6G0lvBAXt0AAAAAAAAAAAEAAAAAAAAAAQAAAAAgAQABAAAAAAAAAAQAAAAAAAAAAAQAAA==", 
    "P6G0lvBAXt0AAAAAAAAAAAEAAAAAAAAAAQAAAAAgAQABAAAAAAAAAAQAAAAAAAAAAAQAAA==", 
    "P6G0lvBAXt0AAAAAAAAAAAEAAAAAAAAAAQAAAAAgAQACAAAAAAAAAAgAAAAAAAAAABAAAAAEAAA=", 
    "P6G0lvBAXt0AAAAAAAAAAAEAAAAAAAAAAQAAAAAgAQACAAAAAAAAAAgAAAAAAAAAAAQAAAAQAAA=", 
    "P6G0lvBAXt0AAAAAAAAAAAEAAAAAAAAAAQAAAAAgAQABAAAAAAAAAAQAAAAAAAAAAAQAAA==", 
    "P6G0lvBAXt0AAAAAAAAAAAEAAAAAAAAAAQAAAAAgAQABAAAAAAAAAAQAAAAAAAAAAAQAAA==", 
    "P6G0lvBAXt0AAAAAAAAAAAEAAAAAAAAAAQAAAAAgAQACAAAAAAAAAAgAAAAAAAAAAAQAAAAEAAA=", 
    "P6G0lvBAXt0AAAAAAAAAAAEAAAAAAAAAAQAAAAAgAQABAAAAAAAAAAQAAAAAAAAAAAQAAA==", 
    "P6G0lvBAXt0AAAAAAAAAAAEAAAAAAAAAAQAAAAAgAQABAAAAAAAAAAQAAAAAAAAAAAQAAA==", 
    "P6G0lvBAXt0AAAAAAAAAAAEAAAAAAAAAAQAAAAAgAQABAAAAAAAAAAQAAAAAAAAAQHcAAA=="
  ], 
  "attrs": {"tvm_version": "0.9.dev0"}
}
